experiments/02_tune_models/selected_trained_models/s2v_rank/model_state_dict.pt (torch_old, 102410 bytes, 13 tensors)

mlp_layers.0.weight f4 [64, 64]
00000000: 47c8 123d 5306 d4bd 77f4 0b3e cd47 d93d
00000010: fe85 613d b9f1 1d3e 1d31 d8bd 79e6 833e
00000020: 7aaf 38bc ad2b f13d b7e9 173d 0435 b73d
00000030: f9d0 1fbd 110b 0fbd 8234 1f3e df91 64bd
00000040: 0574 a6bd cb5b 8fbd d10e 733d c4dc e53c
00000050: 9984 3abd 2213 fb3d 1071 9bbd 576b 0dbd
00000060: a042 953d 73fa aebd 8a9f 3b3d f782 023d
00000070: 84ff ad3c c038 bd3d e9ae 34bd 25f9 32be
00000080: b95a 233e 780e a73d ac89 3e3d 6c19 373e
00000090: 5380 b5bc f696 65bd 7f87 9a3d 3702 90bd
000000a0: 949a a8bc 8db3 22be d2fe f53d 562b 21be
000000b0: 99d8 00bd 775d 3dbd c575 cf3d 7557 c63d
000000c0: 4a70 e6bd ba62 733e 5982 e5bc 5916 b23d
000000d0: f5dd b43d 38b8 a2bd 5cc7 58bd 3df4 8bbc
000000e0: a4b4 babc 0e87 02be 0cb5 f7bc decb e5bd
000000f0: 5855 40bd df24 c239 e1fe 07be 1ed6 63bd
00000100: b7a7 debd 39a8 e9bd a50d 2a3e 031e 7cba
00000110: 8702 04be 0ca3 293e cdf8 343d e843 c1bc
00000120: 3924 923d f68f bd3d d3d8 60bc 3f1d dd3d
00000130: 3b23 a53d f695 043e e6de 0d3d 36c1 2abd
00000140: e8b1 36bd f67b 883c dcd7 e4bc b5ed bb3c
00000150: 52fa c7bc 0108 b9bc 623c 8ebd 9a85 98bd
00000160: a835 96bd 2a5c e63c 2be3 33bd a349 1fbd
00000170: a05a c5bd 73a5 013e 860f d23d f06c 60bd
00000180: 097a 473d 7310 e13d 10c9 e6bd 5c11 313e
00000190: 9683 40bc 19e7 163d 2ba0 e03d bfb2 823d
000001a0: 4c5f 01be 435c eb3d 860b 3cbe ebb1 48bc
000001b0: cb6e 6c3c 1b06 7dbc acab 51bc e731 05be
000001c0: bdb7 743d 8493 903d 028a 58bd 2d36 b2bd
000001d0: 7e9b 593d 3c91 1dbd b0d1 e43c 4bba 1b3e
000001e0: 44fc 40bc 1da4 35bc b027 143d fd3b 60bd
000001f0: a270 6ebd f2b5 ce3c e512 a1bd 8194 e9bd
00000200: f7ba a9bd 18bc fcbd c01c bbbb 6bd3 cabd
00000210: e645 ebbc efa0 fb3d edcf 4f3a ce45 58b9
00000220: a9ae 193d 8a53 b03d 8b0d ffbc 8939 0d3d
00000230: 44a6 963c 0068 88bd eb20 163e 6a2e b93d
00000240: 1d29 753d fe4b e3bd b096 84bd 4b2c e2bd
00000250: 67c5 023e 313b 0cbd bab4 793d 6cba 493d
00000260: 9fe6 e63c 5737 803d d44c 3d3d 7454 0a3e
00000270: 1469 fd3c 09f8 28bc 6cea b1bc ab58 98bd
00000280: 9c29 10bd 0b5c c1bd 8909 333d bd32 a43d
00000290: 1253 f0ba a22e ed3d 5af4 c4bd 8b06 89bd
000002a0: b244 d2bd ffbe 0f3d 1655 cc3d 4760 503d
000002b0: bd74 e83c 1d49 55bc 60dc 233e a349 4dbe
000002c0: 95b1 943b 636e cf3d a97a 2ebd 32e3 ecbc
000002d0: 8189 2fbe 983c f53c b334 b73d 6f88 d33d
000002e0: 7073 e1bb d075 39bd 6a2d 103b 565c 02be
000002f0: 7244 90bb 5ee1 8a3e 2b2c a8bc 1d1d fcbd
00000300: fdad 1abe f8d1 a33d a540 ba3c e224 063e
00000310: fecd 573c 60f7 613d d061 26bc 12d8 243d
00000320: 44af fa3d 6bdc c4bd 5917 553d 9add 64bd
00000330: 2a3a 363d 50db c43d 2814 a3bd 8b1a 02be
00000340: 13e3 31bd bfd8 673d 4913 05be 0b36 08bd
00000350: f26b a4bd 386e e9ba caae febd bf87 103d
00000360: 4a6f 403c 5762 b93c 646e 403d dc68 e13d
00000370: 3120 efbc 75c2 fa3d 6694 8b3d 05e1 f5bb
00000380: f6b0 adbb 8506 93bd b5c1 303e b72c 433a
00000390: fc18 1abd 57eb 02be 54d6 3d3d 79de 56bb
000003a0: 1f33 8cbd c35c 4abc 4b7f 203e 4910 31be
000003b0: 7277 99bc c6a7 3ebd 0fb6 00be df53 563d
000003c0: c61e 7dbd 05cc a3bd 28ec 853e 0492 243e
000003d0: 77e3 893c b146 82bd b26d 79bd a281 823d
000003e0: 23aa d13d 6587 94bd 6fee 693e 157e 473d
000003f0: ee29 8bbb 8f0b 243e cb3d f0bd 9439 c73c
0.03583553 -0.10352769 0.13667475 0.10609398 0.055059426 0.15424241 -0.105562426 0.25761774
-0.011272306 0.117759086 0.037088122 0.08945659 -0.03901765 -0.034922663 0.15547374 -0.055803176
-0.08127598 -0.0699993 0.059340302 0.02805937 -0.04553661 0.12259509 -0.07589924 -0.034526195
0.07288098 -0.08543863 0.045806445 0.03186318 0.021240003 0.0923934 -0.04411212 -0.17477854
0.15952577 0.081570566 0.046518013 0.17880791 -0.022155916 -0.05605217 0.07545375 -0.070316724
-0.020581521 -0.15888806 0.12011494 -0.15739188 -0.031456564 -0.046231713 0.10129885 0.0968465
-0.11251886 0.2376813 -0.028016256 0.08695669 0.088313974 -0.07945293 -0.0529245 -0.017084235
-0.022791214 -0.12746832 -0.030237697 -0.11220525 -0.04695639 0.00037030035 -0.13280822 -0.05562412
-0.10871833 -0.11409039 0.16606767 -0.0009617509 -0.12891589 0.16566104 0.044182587 -0.02359195
0.07135815 0.09255974 -0.01372357 0.10796594 0.0806336 0.1294783 0.0346364 -0.041688167
-0.04460326 0.016660672 -0.027934961 0.022940496 -0.024411354 -0.022586824 -0.06945111 -0.074473575
-0.07334453 0.02812012 -0.043917816 -0.038888585 -0.09636426 0.1266077 0.10256867 -0.05479139
0.048700366 0.109894656 -0.112688184 0.17291778 -0.0117501225 0.036841486 0.109680496 0.06381749
-0.12634009 0.11492207 -0.18363771 -0.01224945 0.014430712 -0.01544335 -0.012797277 -0.13007317
0.05974554 0.070593864 -0.05286599 -0.087017395 0.053126805 -0.038468584 0.027932018 0.15207784
-0.011778895 -0.011086491 0.03617066 -0.05474471 -0.058212884 0.025233243 -0.07864932 -0.11405278
-0.08287614 -0.123405635 -0.0057102144 -0.09903606 -0.028719854 0.12286555 0.00079274067 -0.0002062537
0.037520085 0.08609684 -0.031134387 0.034478698 0.018389829 -0.066604614 0.14660995 0.09042056
0.05985366 -0.11098479 -0.06474054 -0.110436045 0.12770616 -0.034236137 0.06096337 0.04925005
0.02818614 0.06260555 0.046215847 0.13508779 0.030933894 -0.010313042 -0.021718226 -0.07438787
-0.03519593 -0.09441384 0.043710265 0.0801749 -0.0018335304 0.1158116 -0.09616919 -0.06690701
-0.10267009 0.035094257 0.09977166 0.050873067 0.028375978 -0.01301792 0.16002035 -0.20047621
0.004537771 0.101284765 -0.042597447 -0.028916929 -0.17142297 0.02993612 0.089455985 0.10328757
-0.0068802163 -0.04527837 0.0021999725 -0.12730536 -0.0044026906 0.27125067 -0.020528873 -0.123102404
-0.15105434 0.07999033 0.022735903 0.13100007 0.013171671 0.055167556 -0.010155156 0.040245123
0.122404605 -0.09612354 0.05202422 -0.0558754 0.044489063 0.09612143 -0.07962829 -0.12705438
-0.043429445 0.05660319 -0.12995638 -0.033254664 -0.080284014 -0.0017809337 -0.12435682 0.035285708
0.011745283 0.0226299 0.046980277 0.110063285 -0.029190155 0.12244121 0.06815414 -0.007503631
-0.0053006364 -0.07178978 0.17261393 0.00074453227 -0.037621483 -0.12785088 0.046346977 -0.0032786413
-0.06845688 -0.012351218 0.15673558 -0.17291369 -0.018733714 -0.04654672 -0.1256945 0.05232608
-0.061796926 -0.07997898 0.26156735 0.16071326 0.016832097 -0.063611396 -0.06089563 0.06372382
0.10237529 -0.07252387 0.22844861 0.048704226 -0.004246942 0.16020034 -0.11730536 0.024319448

mlp_layers.0.bias f4 [64]
00000000: d0e2 34bc 44f2 b0bd 8914 593d 72f9 41be
00000010: 351b 243d ee9b 383e 91ea 9f3c 5f66 193e
00000020: 2beb cbbd c469 5abd e40c 023e ed47 c4bd
00000030: c45e 75bc b61b 00be 220a bb3d a810 823d
00000040: b8f9 bcbc c1eb 253d 031f ec3d 18c8 c63d
00000050: 5ff9 c5bd e5df 93bd 99d3 b23d 9227 46bd
00000060: 5bb8 aebd 408e 27be 6d58 d1bd 872c 66bd
00000070: 68fe 133c 3684 4dbd 079b 533e 48b4 6fbd
00000080: 5d61 58bd da61 bbbd 8921 93bd 8443 0d3c
00000090: d1fb bcbc 97c5 7cbd 98e4 b8bd c8d7 333d
000000a0: 1c9c 5fbc 7b14 27bb 86a9 4d3c 1d55 263e
000000b0: 6654 833d 1070 12bd 02ee e23a b100 98bd
000000c0: 4dd2 003e 019e 463e 1f3c 58bd 4174 e9bd
000000d0: b320 833e b9e1 d53d 1395 3f3e 8c34 e33c
000000e0: cfc3 143e 3e4d 8c3d 88d2 40be 171a 093d
000000f0: f131 b43d 420d 17bd cc15 623d 4b2e 2a3d
-0.011040404 -0.086399585 0.0529981 -0.18942812 0.04006501 0.18028232 0.01952103 0.14980458
-0.09956964 -0.053323522 0.1270023 -0.09584031 -0.014976207 -0.12510571 0.09132792 0.06350833
-0.023068294 0.040508036 0.115293525 0.097061336 -0.096667044 -0.07220439 0.08731765 -0.04837758
-0.08531257 -0.16362858 -0.10221944 -0.05619481 0.009032823 -0.050174914 0.20664607 -0.05852154
-0.052827228 -0.09149523 -0.07184131 0.008622054 -0.023069294 -0.061711874 -0.09027976 0.043906957
-0.013648059 -0.0025494385 0.012552625 0.16243406 0.06412582 -0.035751402 0.0017313363 -0.07422007
0.12580223 0.19396211 -0.05279171 -0.11399127 0.25610885 0.10443444 0.18709211 0.027735017
0.1452782 0.0685067 -0.18830311 0.033472147 0.08798588 -0.036877878 0.05519657 0.041548055

mlp_layers.1.weight f4 [64, 64]
00000000: 3cbd 02be 59e4 87ba da1b 86bc 6524 733c
00000010: 179e abbd d733 3a3d 4227 8cbd 218c 04bc
00000020: f3e1 693d e0cf ef3d 6010 cb3d 52c4 d3bd
00000030: 9485 743d 5494 b1bb 07fa fdbb 0aac cdba
00000040: 78ba febc db8a 113e 558e c83d 324e cd3d
00000050: a3e0 e5bc 5ebe a2bd af0d f53c d466 febd
00000060: 1b7a c6bc c082 b03d c410 ef3c 3317 3c3d
00000070: 3d98 183e 018c e7bd 4f66 eebd 8167 953c
00000080: 7322 7a3d f27a 4cbd f94f b6bd 504f 8e3d
00000090: 3bb2 19bd 415a 70bc 9894 973d 4e87 bdbd
000000a0: 5391 a7bd 1c7d f73d 0939 983d 9c54 83bc
000000b0: 6a42 ad3d 17c6 23bb 50ca d2bc c307 89bd
000000c0: 8bf1 8fbc 2287 85bc 49c1 13bd 0280 833b
000000d0: 5e01 283c d495 fc3d 9544 eb3d b039 a8bb
000000e0: d656 99bd 21d3 e93c 2da3 9b3d fcdf 14bd
000000f0: d163 5dbd e087 ca3b 46bd 283c 3d34 41bd
00000100: 02c6 b6bd 7691 37be 5776 27bd cf3b a03d
00000110: 08b4 8dbc a187 9dbd 9719 65ba fd9a 32be
00000120: 65e0 253d 2c63 4c3d 97cf a73c 0634 5a3d
00000130: 2cd1 aabd 5890 583d b615 063e c413 7e3c
00000140: b521 3d3c bd57 763d 806e 98bd 9047 953c
00000150: e8a0 9b3d 818e 52bd dad3 e73d 3ac4 83bd
00000160: 97d1 b7bd ad09 cc3c a4e4 e13c 779a 81bd
00000170: 2a74 483d 0640 893d 372a 263d 437b 773d
00000180: d786 483d 0497 493d ec82 833d 74cc 25bb
00000190: b39f a0bd af0f 5e3d c1ab 673b 46a0 1bbe
000001a0: 0404 eb3d 7c1f 1abe db26 393b 27fc e23b
000001b0: ba51 f23c 687d a13c 4ede e7bd 34d4 db3d
000001c0: 63cf a93d 44be 8a3d dc2f d33d 0c8d dcbd
000001d0: e37a 0b3e 6515 1a3c 4d1f 533d 68bf ab3d
000001e0: 3eb2 f9bd 0b53 f4bd b852 663d a52d d5bd
000001f0: 545d d6bd 9216 58be a90d 94bd 6924 69bd
00000200: be42 debc e9db ffbc 0e2b fbbb 0fb3 ffbb
00000210: f597 863d 47e0 75bd 8d07 53bd 7e47 64bd
00000220: 37ad da3d 7527 d0bc ff8e a8bd 8394 d3bb
00000230: 55df d7bd 66f7 c8bc 3549 40bd bb3c 8a3d
00000240: 093a 09bd b568 4d3d 6438 f53d c9f1 b23c
00000250: 5c20 35bc 09e4 053d 3cb3 0a3a 3de6 95bd
00000260: 753b cbbc 18bf 57bd 38f1 e1bd 6c23 ee3d
00000270: 93ce 94bd f8d1 ecbd 3f47 d7bd 474d 06be
00000280: 8ffd 6b3d 03ce 3cbd 988d dfbd 2187 373c
00000290: 662e 1a3e dcea b6bd a956 643d 0e25 4f3c
000002a0: 252b b2bd 689f a43c 64c9 88bd 9a65 eabd
000002b0: 2096 ffbc 5930 37bd d1d9 ca3d cad1 673d
000002c0: 9868 0d3d b7bf c33d c136 f83d 428a 08bd
000002d0: ff62 0dbe 0e15 c53b cd16 813d 19a7 babd
000002e0: 7399 a1bc 40ce 8c3c f73c b43d 8885 96bc
000002f0: d6a9 3d3d 40b5 d3bd 7ea7 673d 8857 673c
00000300: 1984 043d 2b28 a53d 115e 013d 3ef0 e1bd
00000310: e9d7 2cbd 12f0 363d 1cfc 24be d2d4 493c
00000320: 9387 82bc f2ee 823c 7eb1 e4bd 8075 20bc
00000330: 2d1f cfbd 031b 203d 68a7 ddbd 7472 f93d
00000340: 4709 303d 74b3 d5bd 6096 f3bd 4e7f 003c
00000350: 7af5 903d 65d7 9c3d a106 adbc 76f9 20bc
00000360: ce2e b2bc 4db6 793d ed36 56bd 648a 003d
00000370: 47ce e83c 64b6 05be 9f8e 65bc ed53 7fbd
00000380: 2948 04bd 9d20 c7bd 3cec 99bd 39d2 f73d
00000390: 9f4e cebd d998 a4bd f742 f4bd 88b5 2bbe
000003a0: d010 8a3d 8dcc a13d 3042 a7bc 9080 d0bd
000003b0: f796 743d b059 c53c 1fdb 8b3d 9d1d efbd
000003c0: 0524 1d3e f33a e63c 8105 843d f5a3 7a3d
000003d0: a41c c93d 13c1 923d b243 5abd 9b19 783d
000003e0: 5811 f8bb 0132 863d f33d b4bd 2ad2 263d
000003f0: b362 a3bd e238 0c3e c49b e8bd 2895 ebbc
-0.127675 -0.0010367736 -0.016370703 0.01484022 -0.083797626 0.045459595 -0.06843425 -0.00809005
0.057100248 0.11709571 0.09915233 -0.103401795 0.059697703 -0.0054192934 -0.007750753 -0.001569153
-0.031094775 0.14213125 0.09792773 0.1002468 -0.028061217 -0.07946466 0.029913751 -0.12421957
-0.024228146 0.086186886 0.0291828 0.045920562 0.14901824 -0.113060005 -0.116406076 0.018237831
0.06106801 -0.049921937 -0.08901972 0.069487214 -0.03752349 -0.014669956 0.07401389 -0.09254323
-0.08182015 0.120844096 0.074327536 -0.016031556 0.08459933 -0.0024989897 -0.025731236 -0.066909336
-0.017571231 -0.016299788 -0.036073003 0.0040130625 0.010254232 0.12333265 0.1148769 -0.00513383
-0.07487266 0.028543057 0.07599483 -0.03634642 -0.05405027 0.0061807483 0.010299033 -0.04716896
-0.08924486 -0.17926583 -0.040884342 0.078239076 -0.01729776 -0.07691885 -0.000873947 -0.17441936
0.040497202 0.049899265 0.020484729 0.05327227 -0.083406776 0.052872032 0.1309422 0.015507642
0.011543681 0.060142267 -0.07442951 0.0182226 0.0759905 -0.051405434 0.11319704 -0.064339116
-0.08975523 0.024906958 0.027574845 -0.0632829 0.048938908 0.067016646 0.040567603 0.060420286
0.04895672 0.049216285 0.06421456 -0.0025298866 -0.0784296 0.054214176 0.0035350176 -0.15197858
0.11475375 -0.15051073 0.002825192 0.0069270316 0.029579986 0.019713119 -0.11321698 0.10733834
0.08291509 0.067745715 0.10311863 -0.1076909 0.13621096 0.009404515 0.051543523 0.08386117
-0.121922 -0.11929902 0.05623123 -0.10409097 -0.1046702 -0.2110236 -0.07229168 -0.05691949
-0.027131435 -0.031232791 -0.0076650446 -0.007803328 0.06571952 -0.06002834 -0.051520873 -0.055732243
0.10677569 -0.02540944 -0.08230399 -0.006456913 -0.10540644 -0.024532031 -0.046944816 0.06749865
-0.033502612 0.050148685 0.11973646 0.021843808 -0.011055078 0.032688174 0.000529099 -0.07319305
-0.024808625 -0.052672476 -0.11032337 0.1162785 -0.072659634 -0.11563486 -0.10511636 -0.13115416
0.05761486 -0.046094906 -0.10915679 0.011201651 0.15056762 -0.089315146 0.055746708 0.012643112
-0.086996354 0.020095542 -0.06679037 -0.1144516 -0.031199515 -0.044723842 0.099048264 0.056596555
0.034523576 0.09558051 0.121198185 -0.033334978 -0.13807295 0.006014473 0.06303177 -0.091139026
-0.01972649 0.017188191 0.088006906 -0.01837422 0.046304546 -0.10337305 0.056556217 0.01411999
0.03235254 0.08064302 0.03158385 -0.11032151 -0.042198095 0.044662543 -0.16111797 0.012318807
-0.015933787 0.015983079 -0.111666664 -0.009793639 -0.10113368 0.03908826 -0.10822946 0.12180033
0.042977598 -0.104346186 -0.11893916 0.007842852 0.07078071 0.07658271 -0.021121325 -0.009825101
-0.021750834 0.06096487 -0.052298475 0.03138198 0.028418673 -0.13057858 -0.014011054 -0.062335897
-0.03229538 -0.09723017 -0.07515761 0.12100644 -0.100735895 -0.08036966 -0.11926835 -0.16768467
0.06741488 0.07900343 -0.020417303 -0.10180771 0.059714284 0.024090618 0.068289034 -0.1167557
0.15345772 0.028104281 0.06446362 0.061191518 0.09819916 0.07165732 -0.053287216 0.060571294
-0.007570427 0.06552506 -0.088008784 0.04072777 -0.0797781 0.13693574 -0.11357835 -0.028757647

mlp_layers.1.bias f4 [64]
00000000: 05bc 333e 698f d0bb af5a f7bd cf17 16bd
00000010: 9845 473c 85ee 3c3e 7a09 4abd 9b62 31be
00000020: a063 ddbe c8d3 bd3d c298 4e3d ff90 803d
00000030: 1b88 873d f836 85bd 8691 a13d 58d5 00be
00000040: 01e5 8b3d c068 e8bc 870d db3d f686 ec3a
00000050: 43f5 bcbb ac56 d23c c835 16be 89aa 86bb
00000060: fad1 863e 6e70 203e 13d8 c0bb 3438 46be
00000070: ad83 c1bd 4f9b 27bd 3239 8ebc e4dd 3abd
00000080: d6fe 09bc 7be7 923d ef1a ba3d 1501 0b3d
00000090: adcb 273d c838 21bd ab64 b6bd 81dd d7be
000000a0: a8d3 12bd 54d0 733e d907 75bd c62a ecbd
000000b0: c4e8 373e 1963 76be f87c 813d 7292 2f3e
000000c0: 345d 12bd c2e8 d93d ad41 acbd fff3 343e
000000d0: f4ae 5fbc 6a40 7abc dde8 de3d a252 e3bd
000000e0: 7948 153b 0e4e 6d3e 9909 9f3d 2f12 5f3d
000000f0: 524f 3c3d f950 9fbd 4a97 4f3b bdfa 9f3b
0.17552193 -0.006364752 -0.120778434 -0.0366438 0.012162589 0.18450363 -0.049325444 -0.17322771
-0.4324007 0.0926891 0.05043865 0.06277656 0.06617757 -0.06504625 0.078890845 -0.12581384
0.068307884 -0.028370261 0.106959395 0.0018045593 -0.005766542 0.025676094 -0.14668953 -0.004109685
0.26332074 0.15667889 -0.005885133 -0.19357377 -0.09448943 -0.0409196 -0.017361257 -0.045621768
-0.008422574 0.07173058 0.090871684 0.03393658 0.040965725 -0.03936079 -0.0890592 -0.42161182
-0.035846382 0.2380994 -0.059821937 -0.11531596 0.17959887 -0.2406124 0.06322664 0.17145708
-0.035733417 0.10640098 -0.08410964 0.17671202 -0.013652552 -0.015274147 0.10884259 -0.11099745
0.0022778793 0.23174307 0.077655025 0.0544607 0.045974083 -0.07779116 0.0031675869 0.0048821853

mlp_layers.2.weight f4 [64, 64]
00000000: 5b8c 8ebd 0940 22bd c782 95bd cca5 31be
00000010: 2397 9fbd 736f 15be 5ed6 c23c ee15 c6bd
00000020: 7f23 053e 5608 4d3b 8ba5 87bc aed3 dabb
00000030: ee07 aabd 60eb 2fbd ca8e 8a3d f5b7 bd3c
00000040: bba3 1d3d 2b7e aebd ffde 993b c832 e93d
00000050: efeb 813c 9fd3 4a3c f3e0 bfbd c782 953d
00000060: 31b1 883b 24e6 a53d 1197 fcbc cd83 28bd
00000070: 4a41 2bbd b2e7 81bd ca79 403d 60e2 c53d
00000080: 4ae8 5abd 880c 6a3d 660f b13c e280 56bd
00000090: 422e 91bc ad6e cf3d 2a42 f1bd 2052 afbd
000000a0: eeb0 70bd 2646 d2bd 5b7a df3d c85a 18bd
000000b0: ac56 9fbd 3655 b2bd 1130 12be 81fb c5bb
000000c0: 4765 3e3d 1b5c ecbc 38b3 f63c f727 0fbc
000000d0: 54bb 94bd 2dfd 073e 392d eb3d 9079 e33c
000000e0: eb7f 3abe 0106 44bb 4ca4 253d a174 cd3d
000000f0: 7a9f 9a3d 70e5 d6bc 63b8 103d 2064 a63d
00000100: 421b 17be 9d1b 863d bf55 063e c819 14bd
00000110: ed70 0dbd ccfd 043d 1d4c d23c 8a4e b0bd
00000120: 1899 173e f712 143e 7ced d3bd 975a 84bc
00000130: 4ff8 f7bd cbf7 193b 0f30 363c 39a4 b7bd
00000140: ed53 d3bc ebf5 713d b6d8 7f3c 6ab4 2ebd
00000150: 159c 803d 0b55 a6bd 0d06 81bb 9b33 a53d
00000160: fde8 fa3c ac9a 04bd 9a9c e4bc 3abe 06be
00000170: 22ab eabd b74a da3d 3c2f f53d e5ac 853d
00000180: 6b88 973d 7521 a8bd 683e b53c a010 03be
00000190: 3f73 0b3d b6af a5bd beb5 4b3c edd2 9abc
000001a0: e1f3 0e3e 103b 393d cd61 4ebc e603 dd3c
000001b0: f08a 25be 5fc9 bdbd 57f2 82bd 7b29 a0b9
000001c0: 0bef 963c a413 f8bd 0319 a03c 032e 933d
000001d0: 3a67 77bd d0ae 9dbd 936f 04be 1ba0 c33d
000001e0: 87d0 d33c ef50 ebbd 7fb5 64bd a6b8 9f3d
000001f0: 2ca4 803d 97d4 d33d d2d6 03be c823 833c
00000200: d036 293d 5e78 64bb 4879 d1bd e90d 2d3c
00000210: 2f35 45bd c4a4 df3c 5954 3ebd c2cc 153e
00000220: c0ba 03be 0525 1bbe e566 e3bd 6cf1 eabc
00000230: 6206 f53d 7296 67bb 9277 93bd 565b a3bd
00000240: ff08 6f3d 0512 cbbc 1276 043e 457f 0fbd
00000250: 91f7 9dbd 205c bd3d 52f7 ba3d 29ed 27bd
00000260: 0fb6 e83d 3418 a7bd 039f 483d e07a b33d
00000270: eee6 1a3e 06d5 ed3c 50cc 843d adc9 673d
00000280: f91a dcbb 8fd9 183e fb4f 74bd 1f40 033e
00000290: 5623 41bd e536 213e 1d70 af3d 6dff 0fbc
000002a0: 987a 48be ebf1 fe3d f168 ca3d d9f9 c53c
000002b0: aacd b1bc d1fb bbbd fd5b e73d f339 c2bd
000002c0: c3e8 263e 87ed 07be 26ed eabd dac0 c9bc
000002d0: cf2b a8bd db03 123c 7bbc 89bb c684 05bd
000002e0: daec c53c 6042 a73c 68c2 a53d 2067 fc3d
000002f0: 0109 b43d 57fc 20bd 1da5 063e 1210 ddbd
00000300: 37e2 c33d 36e2 953b 9898 a13d 0cc9 f53d
00000310: 64e0 f33b 1f6f 53be e6e4 f33d 35ef a6bd
00000320: 8775 10be 56b3 a7bd 02f6 ff3c 4ff3 2e3d
00000330: 3f81 d83d 5c46 29be c1fc bfbd 217e 0e3e
00000340: d633 ecbd 307c 2d3d 8319 c73d 9968 ddbd
00000350: 7e79 b93d c878 13be 89d5 c13d 4de1 883d
00000360: 2e8e 933d 13c6 09be 04d2 613d 77df 4c3c
00000370: e879 2dbd 3130 f2bc 3cfd 9c3d d39b 973c
00000380: 129a e83d c2e1 08be 84c7 233b 31dc f73d
00000390: 6ea3 973d 99b4 39bd 3f82 80bd ce0c 25bd
000003a0: 7bcd 01bd 86f8 9ebd 5515 a53d 3b47 ea3d
000003b0: ca04 92bd f076 6abd aa45 c93d f816 54bd
000003c0: 8b88 74bd 2f30 1abd 36ab e13d 27a5 a73d
000003d0: 457f 9f3c bad3 103e b69e 43bd 0363 01be
000003e0: a877 883c cc8c 9b3d ee0b 103e 683a 0cbb
000003f0: b464 02bd dc00 373e f1e1 61bd c5a8 a43d
-0.069603644 -0.03961185 -0.073003344 -0.17348403 -0.07792499 -0.14593296 0.023783859 -0.096721515
0.13001822 0.0031285486 -0.01655843 -0.006678066 -0.08302294 -0.04294908 0.06765516 0.023159007
0.038486224 -0.085201584 0.0046957727 0.11386639 0.015859572 0.012379556 -0.093690775 0.073003344
0.0041715135 0.081005365 -0.030833753 -0.04114132 -0.04181031 -0.063430205 0.046991147 0.09662318
-0.053444184 0.057140857 0.021613788 -0.052369006 -0.017722253 0.101285316 -0.11780198 -0.08560586
-0.058762483 -0.10267286 0.10912009 -0.03719595 -0.07780203 -0.08707659 -0.14276148 -0.0060419445
0.046483304 -0.028852513 0.030114755 -0.008737556 -0.072622925 0.13280173 0.11483235 0.027767926
-0.1821286 -0.0029910805 0.04043989 0.10032011 0.07549949 -0.026232451 0.035332095 0.08124566
-0.14756492 0.065482356 0.13118647 -0.0361574 -0.034531523 0.032468602 0.02567106 -0.0860873
0.14804494 0.1446036 -0.10348031 -0.016156478 -0.12107908 0.0023493643 0.0111198565 -0.0896687
-0.025796855 0.059072416 0.015615633 -0.042652525 0.0627977 -0.081216894 -0.003937489 0.080664836
0.030628676 -0.03237407 -0.027906705 -0.13158503 -0.11458422 0.10658782 0.119719 0.06527118
0.073990665 -0.082095064 0.022124484 -0.1279931 0.034045454 -0.08090155 0.012433467 -0.018899405
0.1396022 0.045222342 -0.01259656 0.026979398 -0.16166282 -0.09266924 -0.06393879 -0.00030548483
0.018424531 -0.12113121 0.019543177 0.071865104 -0.06040118 -0.076993585 -0.12933187 0.09552022
0.02585627 -0.11490046 -0.05583715 0.07798891 0.06281313 0.10343283 -0.12874916 0.016008273
0.04131204 -0.0034861783 -0.10228211 0.0105623985 -0.048146423 0.027300246 -0.04646716 0.1462889
-0.12864208 -0.1515084 -0.1110361 -0.028679572 0.11964108 -0.0035337475 -0.072005406 -0.07976405
0.05835819 -0.024788866 0.12935665 -0.035033483 -0.07713235 0.09246087 0.09129204 -0.040997658
0.1136285 -0.08158913 0.04897977 0.08763671 0.15127155 0.029032242 0.06484282 0.056588817
-0.0067170826 0.14926742 -0.059646588 0.12817429 -0.04715284 0.15743597 0.08566306 -0.008788926
-0.19578016 0.12448486 0.09883297 0.024166988 -0.021704514 -0.091788895 0.11296842 -0.09483709
0.16299729 -0.13274203 -0.11471014 -0.024628092 -0.08211481 0.008912052 -0.004203377 -0.032597326
0.024160791 0.020417392 0.08093721 0.12324357 0.0879078 -0.03930315 0.13148923 -0.10794081
0.095646314 0.0045740856 0.07890433 0.12001237 0.007442521 -0.20647858 0.11908893 -0.08151094
-0.14107333 -0.081885025 0.031245235 0.042712506 0.10571527 -0.16530746 -0.09374381 0.13915302
-0.115333244 0.042354763 0.09721663 -0.10810966 0.09056376 -0.14401543 0.09464557 0.06683598
0.07204853 -0.13454466 0.055131927 0.01250445 -0.042352587 -0.029563995 0.07665488 0.01850692
0.113575116 -0.1336737 0.0024990747 0.12102545 0.074042186 -0.045338247 -0.062748425 -0.040295415
-0.031690102 -0.07762246 0.080607094 0.114393674 -0.0712982 -0.057242334 0.098277405 -0.051779717
-0.05970053 -0.037643608 0.11018984 0.08185797 0.019469867 0.14143267 -0.04775878 -0.12635426
0.016658619 0.07595214 0.14067051 -0.0021397118 -0.03183432 0.17871422 -0.055147115 0.08040003

mlp_layers.2.bias f4 [64]
00000000: b8f5 793a 51b3 46bc c8ec ebbd 0a24 833d
00000010: dc15 1ebe d5e4 e83d 052e b0be 5bc8 81be
00000020: 94e3 103e d20d 1c3e 81d9 aabe e685 3fbd
00000030: 2336 cfbe f45f acbe c468 563e ad2a 2e3e
00000040: eb92 79be 0fb0 f3bd 0dd8 aa3e 5b0e 6a3e
00000050: 2bfe 4fbe d594 cc3d 7755 0fbe 9e3d 6c39
00000060: fc82 4e3e 9d3f 9e3e 5e2c 02be af7d 0f3e
00000070: 8351 f0bb fbc1 8c3e 147c d2bd f493 793c
00000080: 40fe ea3d 8811 303e e9a9 96be fe99 80be
00000090: 7869 043d f5e9 3b3d f841 713e 6bb9 a3bd
000000a0: 9a04 dfbd 5685 12bd 4ef6 eb3e 77a9 d93d
000000b0: 5321 8f3e f657 b4bc fd14 8dbd 6ca3 a93e
000000c0: 54a0 453d 82b7 86be 1b2f 06bd 64a8 75bd
000000d0: 0017 b83b 7bcd 42be 5a89 ae3e bc69 013e
000000e0: 3ad5 36bc ac85 333e 804c ee3d ab64 50bd
000000f0: 12be 213e 239f 8d3e c52c cfbd 43af 063e
0.0009535211 -0.012127713 -0.11519772 0.06403358 -0.15438026 0.11371771 -0.3441011 -0.25348172
0.14149314 0.15239647 -0.33369067 -0.046758555 -0.4047099 -0.33666956 0.20938402 0.17008467
-0.24372451 -0.11898815 0.3336796 0.22857039 -0.20311801 0.09989325 -0.13997446 0.00022529668
0.20167154 0.30907908 -0.12712237 0.14012788 -0.0073339357 0.27491745 -0.10277572 0.015233029
0.114742756 0.17194188 -0.29426506 -0.25117487 0.032327145 0.045877416 0.23560321 -0.0799435
-0.108895496 -0.03577169 0.46086353 0.10628026 0.27955112 -0.0220146 -0.06888769 0.33132493
0.048248604 -0.2631188 -0.032759767 -0.059975043 0.005617976 -0.19023697 0.34089166 0.1263799
-0.011159236 0.1753146 0.11635685 -0.050877254 0.15795162 0.27660474 -0.10115961 0.13152795

mlp_layers.3.weight f4 [64, 64]
00000000: 715d 90bd b713 b7bd 1355 1cbe bf4d 92bd
00000010: 5d71 51bd 0865 483d 2612 c53d aad0 d5bd
00000020: daf2 893d 1376 c9bd f2d5 22bd cbc7 2cbd
00000030: ae3e 623d 8b56 11bd 2f7f 98bc f827 c5bd
00000040: b578 a3bd 61c5 cabd 3372 c23d 9089 0bbd
00000050: cfdd e03d a353 fc3d 4ab6 ab3b 884c 963d
00000060: 6542 be3d e87b 0c3d b7d7 dd3d 2d10 a4bd
00000070: 7290 093e 692d 813d ba2d 23bd a662 333e
00000080: c0fc f5bd e611 41bd 30e1 ce3b d630 3b3e
00000090: fc9b fe3d ef8c aa3c 416f fcbd 7b92 863a
000000a0: 76d3 a63d 36da f23b ea10 1ebe 9005 8cbc
000000b0: 9167 fc3c fe52 e3bd 7ba7 3d3d fdac fd3d
000000c0: f6f1 ee3d 421c 563d 9e8f 5d3e e623 47bd
000000d0: 9c6f f5bc d5b4 2abd 1d76 14be fbaf ac3d
000000e0: fc01 b9bd 6e36 b7bb 8f56 0b3d 82c4 513d
000000f0: 67a5 b0bc e9d3 0dbe 165f 11be c8c0 29bd
00000100: 5fad 353d 2719 82bd 81f3 3a3d 5ce8 a13d
00000110: 14fd 9ebc e073 4c3d 03d7 ce3d 671f 9a3c
00000120: 6492 bdbd 6ef1 cabd 2169 f63d bc3a ba3d
00000130: cb21 3e3d f9dc bfbd a18f d63d 4616 ad3c
00000140: 1604 d13d c3c8 c5bd d139 d3bd 6097 9fbd
00000150: 5ae7 2cbd 732d 623c 2f98 3d3c aa22 783d
00000160: 1302 80bc e8a7 1b3d bec7 d8bc 0459 983d
00000170: 2435 0ebd 7ef7 a6bd 0e91 71bc d25e 63bd
00000180: 4b21 59bd 8595 acbd c722 763d d1e2 ad3c
00000190: bf9d 013d 3ead b9bb bab9 ba3a 0ddc 973d
000001a0: d7ed fc3c 3b97 cdbd 0434 c8bd 56b7 a7bd
000001b0: df28 25bd 8bd8 113e 95d0 8fbb 1afe 84bd
000001c0: 6841 f6bd 46e9 ddbd eb96 163d 80a1 cdbd
000001d0: 597f 5ebd 13d4 683d ff2e a43d c23e 593d
000001e0: ab28 5cbd 449e 0c3d 9054 9cbc f012 9e3d
000001f0: 8f36 d9bd 7d82 9abd e88c f2bc fed3 c2bd
00000200: 82ff 25bc c417 9b3d e8e1 07be 4747 8e3d
00000210: 5a95 7ebd 6209 2a3d ed2f dabd df35 723d
00000220: 06dd d1bc d0c8 963d 965a 98bd eac8 1cbb
00000230: 953c a33d 4c63 fcbd 6db2 c33d 2cdc 98bd
00000240: 17ee 773d a150 f3bb f91c 44bd 9308 173d
00000250: 700e b43d e0ee 243d 4102 fbbd 0543 e8bc
00000260: 6e9e ecbd 41a1 92bd 8b88 5d3d 5314 04bd
00000270: 552d aebc d4e2 b0bc 0bb5 0bbe ba3d abbc
00000280: 4157 29bd fa00 9fbc 026d 493d 17ed 8e3d
00000290: 7a5e 09bd b69f 923d eb02 73bd ab68 5ebd
000002a0: d3ee ba3d 8c19 093d e104 a2bd ea1b d63d
000002b0: fdbb 643d b9f2 8cbd a8c6 49bb aeec 06be
000002c0: 2ba3 6dbd 1a39 133e d0bc a3bd 8286 cb3d
000002d0: 9271 adbd da2f 5e3d 3d0c 71bd 48c2 a9bd
000002e0: 9ce1 fdbd 8d3a b03c bcc9 d73c 0284 023e
000002f0: 366f 013e 3266 d1bd 3a3e ab3d cce9 463d
00000300: b81b b7bd aea5 67bd 3ddf 0bbe ad8f e0bd
00000310: 4104 823c 2565 9abd 465e 35bd 12c4 073e
00000320: 5d88 69bd eb66 ca3c 38e8 18bd efbd 473d
00000330: d52e 3c3d f48a 9c3d 767c 94bd 65c7 733d
00000340: 08ef 9dbd 0d0c b53d fc3c 153e c7fa bbbd
00000350: f434 02be 8d38 b7bd c4ff 29b9 0211 bfbd
00000360: c983 d0bb 3e53 d03c f69a 84bd b18c b03d
00000370: 059b 18bd 6a33 00be 7347 7dbd f72a d83d
00000380: 9d14 d0bb af58 71bd 4224 e8bd 7fca ccbc
00000390: c3c3 cf3c 442a d8bc 36cd 84bd ae7b 6a3d
000003a0: 31fb 72bd 8da4 aa3d 438c d2bd 864d 97bd
000003b0: 0054 1ebe 9033 c8bd bdd7 8abd 00d4 17bd
000003c0: 81d4 bd3c 2996 db3d 3b39 863d 49fb ca3d
000003d0: d2cc 563d bb76 8abd 1736 993c 45e1 33be
000003e0: 3007 8dbd bb9d 253e 62c4 65bc 683c 363c
000003f0: f584 9cbd 84a9 9bbd 2485 fdbd 45a7 903d
-0.070490725 -0.08939307 -0.15266828 -0.07143735 -0.051133502 0.048924476 0.09622602 -0.1044019
0.067357734 -0.09836974 -0.039754815 -0.042182725 0.055235557 -0.035482924 -0.018615333 -0.09626764
-0.079820074 -0.09900928 0.09494438 -0.034066737 0.10979807 0.1232064 0.0052402364 0.07338816
0.092900075 0.034297854 0.1083216 -0.08010898 0.13434008 0.063074894 -0.03983853 0.175181
-0.12011099 -0.04713621 0.0063134655 0.18280348 0.124320954 0.020819155 -0.123259075 0.0010267043
0.08145802 0.0074112667 -0.1543614 -0.017092496 0.030811103 -0.11099814 0.0463023 0.123865105
0.11667244 0.052273043 0.21636817 -0.04861822 -0.029960446 -0.04167636 -0.14498182 0.08432003
-0.090335816 -0.0055912053 0.034018096 0.051212795 -0.021563245 -0.13850369 -0.14196429 -0.041443616
0.044354793 -0.06352454 0.04564238 0.07905647 -0.019407786 0.049915195 0.10099604 0.018813802
-0.092564374 -0.0990933 0.120317705 0.09093234 0.046418946 -0.09368319 0.10476614 0.021128785
0.102058575 -0.09657433 -0.10313762 -0.07792544 -0.04221282 0.013804781 0.011571928 0.060579933
-0.015625989 0.038001925 -0.026462432 0.074388534 -0.034718648 -0.08152674 -0.014744056 -0.05551035
-0.053010266 -0.08426956 0.06009176 0.021226319 0.03164458 -0.005666404 0.0014246025 0.07415018
0.03087513 -0.100386105 -0.09775546 -0.081892654 -0.04032218 0.14242761 -0.0043888786 -0.064937785
-0.12024194 -0.10835509 0.03676502 -0.10040569 -0.054320667 0.056842875 0.08016776 0.053038366
-0.05374972 0.03433062 -0.019083291 0.07718456 -0.10606109 -0.0754442 -0.029608205 -0.095130906
-0.010131719 0.07572892 -0.1326977 0.06947189 -0.06215415 0.041512854 -0.10653672 0.059133407
-0.025618088 0.07362521 -0.07439153 -0.0023923465 0.079705395 -0.12323627 0.095555164 -0.074638695
0.060529795 -0.007425383 -0.047879193 0.03687341 0.08791816 0.04026687 -0.12256289 -0.02835227
-0.115536556 -0.07159663 0.054085296 -0.032245945 -0.02126185 -0.021592535 -0.13643281 -0.020903457
-0.041342977 -0.019409645 0.049176224 0.06978815 -0.033537365 0.07159369 -0.059328955 -0.054299038
0.09127583 0.03347163 -0.07911087 0.10454543 0.055843342 -0.06882233 -0.0030788574 -0.13176224
-0.058016937 0.14377251 -0.079949975 0.09937765 -0.084689274 0.054244854 -0.058849562 -0.08289009
-0.12396547 0.021512294 0.026341312 0.1274567 0.1264008 -0.1022457 0.08361478 0.04856281
-0.08940834 -0.05655449 -0.13659377 -0.10964904 0.015871169 -0.07538823 -0.04427936 0.13258389
-0.05701481 0.024707278 -0.037330836 0.04876512 0.0459431 0.07643691 -0.072503015 0.05951633
-0.07711607 0.08840189 0.14574045 -0.09178691 -0.12715513 -0.08946333 -0.00016212376 -0.09329416
-0.0063633663 0.025430318 -0.06474869 0.08620585 -0.037257213 -0.12519613 -0.061835717 0.1055507
-0.0063501135 -0.058922466 -0.11335041 -0.024998901 0.025361901 -0.026387341 -0.064844534 0.057246856
-0.059321586 0.08332167 -0.10280659 -0.07387833 -0.15461731 -0.0977546 -0.0677943 -0.037067413
0.023172619 0.10722 0.065538846 0.0991121 0.052441426 -0.06760927 0.01870255 -0.17566402
-0.068861365 0.1617345 -0.014023872 0.0111228 -0.07642547 -0.07600692 -0.1237891 0.07063154

mlp_layers.3.bias f4 [64]
00000000: d6f7 053d 573a e43d e089 14be 0269 9fbe
00000010: 39a1 9a3e c7d3 c43d 3bd0 383e bede c8be
00000020: efe1 cf3d bc97 3f3e 3e9f b7be a450 92bd
00000030: b918 ebbd a606 f0be c628 19bd a883 cb3e
00000040: 76f6 bf3e a7fc 3c3e 563c 7fbc 40d6 b0be
00000050: f12f bfbc 3558 363e af76 b2be b2fb ae3e
00000060: 91d2 acbd 6f22 963e c8b2 153c 15f1 25bd
00000070: 23c1 573e ab28 ad3b 4eaa 11be 19ad 773e
00000080: c15f 4ebc 9122 223e 0720 843e 20d4 c73e
00000090: 4a69 9fbe 33ae a13d 0a45 5f3e b5da 873e
000000a0: 2a6e e73e 799c 17be 47fa 303e fcf0 a1be
000000b0: 4869 a23e ac04 b53d 8267 a73d 1465 a33e
000000c0: 9fa9 e5bd 6c11 a83c 2af8 5b3e 2f1d 4c3e
000000d0: 3726 a1be f4e3 22be cc84 f4bd 1289 923e
000000e0: 4a85 943e 5532 643e be70 713e 7afc 98be
000000f0: 0efb 3cbd bed0 d53d bed6 f63c b60e 51be
0.032707058 0.1114394 -0.1450572 -0.31134802 0.30201128 0.09610706 0.18048184 -0.3923244
0.10150515 0.18710226 -0.3586368 -0.07144287 -0.11479325 -0.46880072 -0.0373924 0.39748883
0.37492722 0.18455754 -0.01557835 -0.3453846 -0.02333829 0.17807086 -0.34856173 0.34176403
-0.084386 0.29323146 0.009136863 -0.040513117 0.2106977 0.005284389 -0.14225122 0.24187125
-0.012596072 0.15833499 0.25805685 0.39029026 -0.31135017 0.07894554 0.2180368 0.26534048
0.45201236 -0.14805783 0.17282973 -0.3162917 0.31720948 0.08838782 0.081740394 0.31913054
-0.11213993 0.02051612 0.21481386 0.19933008 -0.31474468 -0.1590727 -0.119393915 0.286202
0.2900794 0.22284825 0.23578164 -0.29880124 -0.046137862 0.10440205 0.030131694 -0.20415768

mlp_layers.4.weight f4 [1, 64]
00000000: 976d 863d 8af0 033c 6fc4 23bd 0051 1abe
00000010: 0549 a03d e550 b13d a0d6 dd3d b26d 38be
00000020: 4923 08be bae1 283e 74e5 dfbd 727b c13b
00000030: 3f4c ffbc 6b53 36bd 9b91 93bc 7de6 da3c
00000040: 9bf4 bb3d 69c9 73bd d047 cb3c 498e eabd
00000050: 3275 7f3d 298f 1c3e 20bd 9ebd b100 293e
00000060: 0fae afbd d731 85be 2b87 c63d df01 183c
00000070: 6658 7abd 3969 253d 3b3f 4cbc a8de 563d
00000080: 831c b7bb 44b9 663d c144 74be e67d 293e
00000090: ed62 83bd 54d9 c23b bfdd 49be 3dc1 093e
000000a0: 7f39 023d ce9a b0bd 7315 113e 47a8 28be
000000b0: ffdd 153e bdb4 3d3c a613 833d c262 df3d
000000c0: ad50 6fbd 4582 923d f0c4 6fbe 4f3d 9ebd
000000d0: 6a7d b2bd efee 88bd 4de4 75bc 40ba de3d
000000e0: ae3e 0ebe 9ed6 593d 05ab c23d 8464 0fbd
000000f0: 59ca 473c 6b40 a63d 45b6 a43c e5cd f9bd
0.06563871 0.008052954 -0.039982256 -0.15069962 0.07826427 0.086580075 0.10831952 -0.18010595
-0.1329471 0.16492358 -0.109324366 0.0059046084 -0.031164287 -0.044513147 -0.018013766 0.026721234
0.09177514 -0.05951825 0.024814516 -0.1145292 0.062367626 0.15288986 -0.077509165 0.1650417
-0.08578121 -0.26014587 0.0969375 0.00927779 -0.06111946 0.04038355 -0.012466247 0.052458435
-0.0055881157 0.056329027 -0.23854353 0.16551933 -0.06415353 0.0059463177 -0.19713496 0.13452621
0.031793114 -0.08623277 0.14168338 -0.16470443 0.14635466 0.011578736 0.06400232 0.109075084
-0.058426548 0.07153753 -0.2341497 -0.077265374 -0.08715327 -0.06686198 -0.015008044 0.10875368
-0.13891098 0.05318319 0.09505276 -0.03500797 0.01219424 0.081177555 0.020106444 -0.121974744

conv_layers.0.w_1.weight f4 [64, 64]
00000000: 3388 053d 7821 80bd 746d 603d 2a16 a2bd
00000010: 84f1 383d 9040 a73d 0c6f 41bd 5831 a8bc
00000020: f659 a63d c256 89bd 98fc 6b3d 26ae edbd
00000030: f0b9 cf3c 04b1 763d 00cd 133c 648e c13d
00000040: 76f3 a6bd 3485 6dbd e031 65bc 3c08 49bd
00000050: 0046 553b d854 b83c f4ad 55bd d4e6 b4bd
00000060: c097 413c eed7 adbd 78d9 bc3d 68bd 33bd
00000070: 90a6 e3bd faaa ef3d 9e1f ebbd e604 94bd
00000080: 7875 8bbc 8002 aa3d 208d d7bb 10ec 2cbc
00000090: 46da fabd 740b 153d 3a8d ed3d c045 a23b
000000a0: 240d 7fbd a855 e7bd 18a9 b23c a8b3 9cbd
000000b0: b02a 8b3c d07f 693c 66b4 d2bd 1201 dc3d
000000c0: fecc d13d a839 ec3d 0086 8d3b 343f d4bd
000000d0: 1668 af3d 206a 0abc 846a 93bd 007c 64bb
000000e0: 9e87 8cbd e087 f0bc f22f f23d 444f d23d
000000f0: 54b7 0a3d 08ff b13c c41f ac3d 7c6a 90bd
00000100: 04bb f9bd 008e 0cbc dab0 c4bd c05e 073d
00000110: 7e57 b7bd 8a22 bf3d 0861 12bd 88b7 4a3d
00000120: 96a9 bcbd 4055 e83c 1227 d93d 8a85 dbbd
00000130: f079 4b3d 2656 d93d 00b7 b6bc 3cbf 503d
00000140: 6e3b f8bd acda 8ebd 4058 adbc 607c 92bb
00000150: a6c3 e1bd f0ea 9d3d b40e 3b3d de50 983d
00000160: e295 c93d 1856 b1bd 542a de3d 8c7b 163d
00000170: e056 5ebc c09b 58bb 6ea2 c4bd 301f 303c
00000180: 4400 0b3d 00fc 10b9 f02e 133d e670 9dbd
00000190: 78d6 863c 0613 ee3d 303d 553d 4ef2 8fbd
000001a0: f035 ab3c a8f5 1ebd 3e8f b43d ac84 fabd
000001b0: c098 be3b bcad 39bd e0d5 29bc e496 1b3d
000001c0: f437 fb3d d668 8ebd 786f e0bc fee6 cebd
000001d0: d40f 8f3d 2c03 743d 109f 193c 38d7 a03c
000001e0: fa99 c03d 8272 e33d 940d 8d3d 88d8 9b3c
000001f0: 2649 d6bd f8ba 29bd ac54 78bd 9e1c 80bd
00000200: 6b7b 48bd 189c fbbc 38d5 bbbc e099 e33d
00000210: 902e 3e3d 1094 933d f8f1 4fbd 64b6 71bd
00000220: 4050 26bb 8049 8fbb 1480 26bd 3899 6cbd
00000230: b0d8 6b3c 9cbd 783d e80d fcbc 1239 aa3d
00000240: 20ed 1bbc 6a80 e43d 40f4 66bc 9243 a83d
00000250: b895 a53c 1480 f13d 007c edb9 80f4 1d3d
00000260: 28c6 9bbd 5c91 8f3d f087 613c f8c3 ccbc
00000270: 1af4 81bd 4af1 ab3d e8ab 92bd 00e8 3abd
00000280: 6c8b 0f3d 7e63 b13d 649c 623d a072 d6bd
00000290: d6ff b93d f898 b83c 7627 d5bd 126c e4bd
000002a0: bcf0 9c3d 282d 963d 4013 b6bc bc44 f4bd
000002b0: b428 28bd be7e f4bd d832 f63d 64db 88bd
000002c0: 0030 913a a876 acbc 205e bdbc 1015 5bbc
000002d0: 10d6 fe3c 249b fcbd 2040 63bc 0c8d e5bd
000002e0: c2ed 9fbd 3018 9dbd 44ad c33d ba6d c3bd
000002f0: ea3d d2bd 9869 f2bc 7262 c4bd 6e3d 86bd
00000300: 266e b5bd e285 cb3d ca13 813d 9c32 cb3d
00000310: a49d fd3d 5cb4 0e3d 6c6a d6bd 9ebc eabd
00000320: 4845 2abd 8080 32bd 00d1 203c 507b 853d
00000330: 50e0 953d 881a d3bd 48f1 a63d bc8a 0bbd
00000340: 107c 3b3c 84bf c13d 4663 e2bd c83b 87bc
00000350: 2cbe 353d b03e 4bbd 863f b23d 581c aebd
00000360: 6c2a 2c3d 2881 89bd 60e2 673c 8241 d9bd
00000370: 8cfa 7ebd 12d5 d6bd e40c 8f3d 5002 483d
00000380: 4883 bdbc c0c7 de3b 289b 373d d0dc 3ebc
00000390: ca70 a73d 10ed 87bc 0a30 fdbd d688 c5bd
000003a0: 3a2b fbbd c874 6ebd 9068 643d 96c4 f53d
000003b0: 7255 84bd c07a 663d 68dc b53c 247f 843d
000003c0: c04b 0fbb c03d 93bc 760c b2bd 80fa f53d
000003d0: b0d4 f53c f49f 70bd aa82 a0bd b689 913d
000003e0: 787e f7bc 984d bcbd 4032 133d 503d 013d
000003f0: b8ff cebc b4bb a3bd a0ef a73d f277 eabd
0.032600593 -0.06256384 0.054791883 -0.07914384 0.045152202 0.08166611 -0.047225043 -0.020531341
0.081226274 -0.06706001 0.05761394 -0.11605482 0.025357217 0.06022741 0.009021044 0.09450987
-0.08151905 -0.05798836 -0.013988942 -0.04908012 0.0032542944 0.022501394 -0.052167848 -0.088330895
0.011815965 -0.08488451 0.09221166 -0.043881804 -0.11115754 0.11702533 -0.1148064 -0.07227497
-0.017023787 0.08301258 -0.0065781027 -0.010554329 -0.122486636 0.036387876 0.115992025 0.0049521625
-0.06226839 -0.112956345 0.021809146 -0.07651454 0.016988128 0.014251664 -0.102883145 0.10742392
0.10244177 0.115344346 0.0043189526 -0.103636175 0.08564775 -0.008448154 -0.071980506 -0.0034863949
-0.068618044 -0.029361665 0.11825551 0.10269025 0.03386624 0.021728054 0.08404496 -0.0705156
-0.121938735 -0.008578777 -0.09604044 0.033049345 -0.08952235 0.0933276 -0.035737067 0.049491435
-0.092120335 0.028360963 0.10603155 -0.1071883 0.049676836 0.10612135 -0.022304058 0.050963625
-0.1212071 -0.06975302 -0.021160245 -0.004470393 -0.11023645 0.077108264 0.04566832 0.07437299
0.09843041 -0.08658999 0.10847917 0.036738917 -0.013570517 -0.0033051819 -0.096012935 0.010749623
0.0339358 -0.00013826787 0.035933435 -0.07687549 0.016459689 0.11624722 0.052060306 -0.07028638
0.020899743 -0.038808495 0.08816384 -0.122323364 0.005816549 -0.0453317 -0.010365933 0.037985697
0.122665316 -0.069535896 -0.027396902 -0.10102652 0.06985441 0.059573337 0.009376302 0.019633874
0.09404369 0.11105825 0.068873554 0.019024149 -0.10463171 -0.041438073 -0.060627624 -0.06255458
-0.048945826 -0.03071408 -0.022928819 0.11113334 0.046431124 0.07205975 -0.05076787 -0.059011832
-0.0025377423 -0.0043727756 -0.04064949 -0.05776331 0.014394924 0.0607277 -0.03076835 0.083116665
-0.009516984 0.111573055 -0.01409632 0.08216013 0.020212993 0.11792007 -0.0004529655 0.03856325
-0.07606155 0.07010147 0.01376532 -0.024995789 -0.06345387 0.083956316 -0.07161695 -0.04563141
0.035045072 0.08661555 0.055324927 -0.10471082 0.09082 0.022533879 -0.10407917 -0.11153425
0.07663104 0.073328316 -0.022225976 -0.119271725 -0.041054443 -0.11938237 0.120214164 -0.066824704
0.0011076927 -0.021052673 -0.023116171 -0.013371721 0.031107932 -0.12334278 -0.013870269 -0.11208543
-0.078090206 -0.07670629 0.09554532 -0.09542413 -0.102657154 -0.029591367 -0.095890895 -0.065546855
-0.088589 0.099376455 0.063026026 0.09921762 0.12383583 0.034839973 -0.10469517 -0.11461757
-0.041569978 -0.04357958 0.0098154545 0.065176606 0.07318175 -0.10307795 0.081514895 -0.034067854
0.011443153 0.09460357 -0.11054091 -0.016507998 0.044370815 -0.04962033 0.087035224 -0.085015
0.042032644 -0.06714088 0.014153093 -0.10608198 -0.06225066 -0.10489859 0.069848806 0.04883033
-0.023133889 0.0067987144 0.044825703 -0.0116493255 0.0817581 -0.016592532 -0.12362678 -0.0964524
-0.12264104 -0.05821684 0.05576378 0.120003864 -0.0646161 0.056269407 0.022199824 0.06469563
-0.002186522 -0.01797378 -0.08693783 0.1201067 0.030008644 -0.058746293 -0.07837422 0.071063444
-0.030211672 -0.09194487 0.035936594 0.031552613 -0.02526842 -0.07994786 0.08200002 -0.11448659

conv_layers.0.w_1.bias f4 [64]
00000000: 1a7f 8f3d 1c38 09be 4366 b1bd 8153 fe3d
00000010: ecbf 903e d696 4bbe 8a13 fa3d 8382 84bd
00000020: 3f33 88bd 47bf 1cbe e02c 13be 6591 873d
00000030: 3061 45bd aec1 32bd 65ca 2ebe 693b 35bf
00000040: 13ba 02be aff9 d43d 4f1a 183e be4b 373e
00000050: 9a8d 4f3e 994b 4dbd 0b64 48be 8c92 8a3d
00000060: bb94 78bd b81f 513c 42c8 0abe 3e81 9f3d
00000070: 4fa5 90bd 6520 603d bbfa a4be 62e7 1bbf
00000080: 7fe7 d6bd 7350 2c3e ac59 bbbd 43f9 10bd
00000090: a2bf 48be f7c2 4bbc 6c2e b8bd 9e2e 02bf
000000a0: e409 61be a94b ca3c 1afe 203e 5e9f f83d
000000b0: 0f5d 15be 1119 563d 986f ac3d 2530 09bd
000000c0: 453e 35bf a87d 213e 6e6a 55bc dbed bebd
000000d0: 3ce3 c43c 060f d13d 6d66 8abd 4795 423d
000000e0: 616a 22bd 0b38 113e 8634 483e 5372 da3c
000000f0: 66cf 3c3d 52b0 bc3d e497 283e c0d1 8cbe
0.070066646 -0.1340031 -0.08662083 0.12418271 0.28271425 -0.19881758 0.12210758 -0.06470206
-0.066503994 -0.15307342 -0.14372587 0.06619529 -0.04818839 -0.04364174 -0.17069395 -0.7079378
-0.12766294 0.10399186 0.14853786 0.17899987 0.2026886 -0.050120924 -0.19569413 0.06766233
-0.060688715 0.01276391 -0.13552955 0.07788323 -0.0706278 0.054718394 -0.32222542 -0.6089994
-0.10493373 0.16827564 -0.09147963 -0.035393964 -0.19604352 -0.01243662 -0.08993229 -0.5085238
-0.21976429 0.02469428 0.15721932 0.12139772 -0.1458628 0.05227 0.08419722 -0.03349318
-0.7079814 0.1577059 -0.013025863 -0.09322711 0.024034135 0.102079436 -0.067578174 0.047505643
-0.039652232 0.14181535 0.19551286 0.026665842 0.046096228 0.09213318 0.16464192 -0.27503777

conv_layers.0.w_2.weight f4 [64, 64]
00000000: c062 543d e2ae 783b ed1b 1bbc 415f b3bd
00000010: 13e3 c5bd 5478 633e ae65 a9bd 2c0e 153c
00000020: 1089 833d 76c8 f33d bdc7 933d 3380 8ebd
00000030: 06b0 bfbd be2f 2d3d bb5d 863d b183 49bb
00000040: f33d a1bd 10fc 7fbb b038 863c bd42 61bc
00000050: 4442 04bd 6cbe b0bd 89ab 63bd 87d2 883d
00000060: 48be d73d 4a6f 2fbe f0cc 3d3d 8064 013d
00000070: d974 143e afa4 f5bd 9024 b83b 3dc1 7fbd
00000080: 2329 5dbc d90d eabc 96b2 6ebd 52a3 0b3e
00000090: bd6b 1fbd 3629 f4bd a872 9c3d dfa2 c2bd
000000a0: d561 e63c 69e5 223c 1bc3 86bd 6eec 623d
000000b0: 186e 653d 01e8 f3bd 89b9 f1bd 741f 9f3c
000000c0: 1745 993d 35a9 edbd 7aa9 8a3a 71fb 9b3d
000000d0: 0a36 08bd 2d85 bb3c 196e 01be bb61 873b
000000e0: 7533 9dbc e74f 273d 9463 23bd b958 19be
000000f0: 996d 563d 787c cebd 3194 2f3c 8c9a 3b3d
00000100: 6365 ae3c a955 583d 84aa 68bd 46d3 4fbb
00000110: dfca f4bc 608b f9bd 4e78 bdbc a41a fdbc
00000120: ff05 dfbd 3143 0dbe 424a ae3a 73a5 b83c
00000130: d687 ac3c a6fa 21be c7bd 2c3d 8384 f53d
00000140: a650 e03c 5ea6 e0bd bd57 01bd ddfb 9cbc
00000150: 9258 933d c3fe 9fbd c319 033e 8f68 a8bd
00000160: 889c 51bd e804 81be 3fab a2bd 30c9 05bd
00000170: 8ee9 733d 786f d23c b7af 1a3d 7673 52bc
00000180: 34c1 d63d 5dfa 9fbd 0ea1 abbd a1cd 983d
00000190: 0866 18bd 39ae 2f3d 1274 1c3e ea7d b63d
000001a0: 6e78 c5bd b5e6 8dbd 9682 0abd 30f0 0c3d
000001b0: 41bb 8abc 43a5 8f3d cb4a bc3d cc5a ee3c
000001c0: f731 183d 0cb9 37bd 0c35 dc3d e0a6 1a3c
000001d0: 69f2 e7bd 020f b03d 3cc3 c83d 95cd e5bd
000001e0: a731 ea3d d44c bebd 650f 21be b02c ca3d
000001f0: 7772 88bd a388 3bbe 26da d73d 541f 0c3e
00000200: c59f 8139 77bc 48bd 9fb7 523c 31bc c13d
00000210: 1500 fb3c 617b 143e 18f9 253e 59fe b2bd
00000220: 2f4c 383c 4aa2 bcbd 2d9e 163c 0153 fbbd
00000230: 96b5 f2bc e76b 8f3c b6c8 ca3d d9ba e0bb
00000240: 48aa b7bd c6fc 473d 9388 c0bd 1511 87bd
00000250: 4888 ce3c 842c 13bd 6ea4 9ebc c80b 1a3e
00000260: 67c8 bb3d 4886 0cbe 37cf 9ebd d9ab cdbd
00000270: b918 5ebc aac6 8abd 6b43 d53d 7c60 953d
00000280: 1eca 1d3d 5f42 203c f5ba cf3d 5ae9 e33c
00000290: 1426 533d 9337 1e3d 3240 64bc a81f cf3b
000002a0: 998f 413d 89c5 d13b 84fc debc 5491 9fbd
000002b0: 3c23 203e 66cd f0bd 636b cebd 9587 9b3d
000002c0: 3acf d73b 28c5 88be 9ff4 5c3d 569d 673d
000002d0: ff2c 93bd 3508 b3bd e0b3 07bd 604e a9bd
000002e0: f52c 66bb d2c0 2ebe 5377 27be b186 9fbd
000002f0: 3927 9dbc 04e0 98be 940e 7dbd 4e66 42bc
00000300: f9a7 37bc 6550 c53d c715 6bbd 4657 d4bc
00000310: ee33 3d3d 6096 0f3e f51a d1bc 5f96 b7bd
00000320: bcc7 50bd e978 533c 6012 eb3d cbdf 893c
00000330: 4cb6 d63d 1352 9a3d addc 7c3d 2355 4c3d
00000340: 3260 66bd 7812 403d 38ba e43d 25a1 84bd
00000350: 94fb 9a3d 53c5 d0bb 7f1e a73c 5dbb 68bd
00000360: b6fc 103d 1502 5dba de64 dcbd 1f87 583c
00000370: 87ff 07bd ab98 413c 9aa1 bd3d fba5 95bc
00000380: 0d39 95bc 3e96 693d 68af 083d 35fe 25bc
00000390: aa1d e73d 26cf 9e3d 7f23 a2bd 5936 513e
000003a0: de07 9bbd 7223 d2bc abdb b3bc 0fd7 b7bd
000003b0: 0208 b43d aa91 5cbd edda ff3d 8320 a93d
000003c0: 309a 0a3e dd45 813e 2e35 e33d bc73 febd
000003d0: ca1c d03d 6cfa 88bb 30ac 223d 1401 ee3d
000003e0: ac18 b8bd 31a2 443e 9b91 1bbd 19d5 d2bd
000003f0: fab0 8abd b8fd d93d 4b43 a03b 55bf cebd
0.051851988 0.0037946035 -0.009467107 -0.087584026 -0.096624516 0.2221387 -0.08271347 0.009097617
0.06422627 0.11903469 0.072158314 -0.06958046 -0.09359746 0.04228186 0.065608464 -0.003074866
-0.07873144 -0.0039060153 0.016384453 -0.013748822 -0.03228976 -0.0863007 -0.05558351 0.0668078
0.1053434 -0.17132297 0.04633802 0.031589985 0.14497699 -0.119943015 0.005619593 -0.062440146
-0.013498577 -0.028571056 -0.05827578 0.1363652 -0.038921107 -0.11921923 0.076390564 -0.095037214
0.028122822 0.009942391 -0.06580182 0.05540126 0.056013197 -0.119094856 -0.11802966 0.019424178
0.07483881 -0.11604539 0.0010579072 0.07616318 -0.03325466 0.022890652 -0.12639655 0.0041315234
-0.019189576 0.040847685 -0.039889887 -0.14975251 0.052350614 -0.10082334 0.010716484 0.045801684
0.02128858 0.052816067 -0.05680324 -0.0031711622 -0.029881893 -0.12184787 -0.023128655 -0.030896492
-0.108898155 -0.13795163 0.0013297277 0.02253983 0.021060865 -0.15818271 0.042173173 0.11988165
0.027382206 -0.10969232 -0.031577814 -0.019163067 0.07194628 -0.07812264 0.12802796 -0.08223068
-0.05117467 -0.25199056 -0.07942819 -0.03266257 0.059548907 0.025687918 0.03776523 -0.012844911
0.10486069 -0.07811425 -0.08380328 0.074610956 -0.03720668 0.04289076 0.15278652 0.08910735
-0.09642111 -0.069287695 -0.033815943 0.03440875 -0.016934993 0.07013943 0.09193953 0.02909603
0.037157025 -0.04485421 0.107523054 0.0094392 -0.11325533 0.085966125 0.09802863 -0.11220852
0.11435252 -0.092919976 -0.15728529 0.09871805 -0.066624574 -0.18313842 0.105396554 0.13683826
0.00024723835 -0.04900786 0.0128611615 0.09459723 0.030639688 0.1450019 0.16208303 -0.08739919
0.011248632 -0.09210642 0.0091929855 -0.12271691 -0.029627603 0.017507507 0.09901564 -0.0068582115
-0.089680254 0.048825048 -0.094010495 -0.06595055 0.025211468 -0.035931125 -0.019365516 0.15043557
0.09169083 -0.13723099 -0.07754367 -0.10042543 -0.013555699 -0.067761734 0.104132496 0.072937936
0.038522832 0.009781449 0.10143081 0.027821232 0.051549986 0.03862722 -0.013931321 0.0063209124
0.047256086 0.006401722 -0.027220018 -0.07791391 0.15638441 -0.11757927 -0.10079076 0.075942196
0.0065859826 -0.26712918 0.053944226 0.05654653 -0.07186317 -0.087418 -0.033130527 -0.08266902
-0.0035122011 -0.17065743 -0.16354112 -0.07789362 -0.019183742 -0.2985841 -0.06178148 -0.011865212
-0.011209481 0.09634475 -0.057393815 -0.025920521 0.046192102 0.14022207 -0.02552555 -0.08964228
-0.05097173 0.012907245 0.11478114 0.016830346 0.10483989 0.07535186 0.06173389 0.04988588
-0.056244083 0.046892613 0.11168331 -0.064760484 0.07567516 -0.006371179 0.020400284 -0.05681931
0.035397254 -0.0008430791 -0.107614264 0.013215809 -0.033202674 0.011816184 0.09259339 -0.018267622
-0.01821568 0.057028048 0.033370405 -0.010131408 0.11284955 0.07754354 -0.079169266 0.20430888
-0.0756986 -0.025651667 -0.021955332 -0.08976566 0.0879059 -0.053849854 0.12492929 0.08258154
0.1353538 0.25248614 0.110941276 -0.12424418 0.10161741 -0.0041802432 0.039714992 0.116212994
-0.08989081 0.19202496 -0.037980657 -0.102945514 -0.06772037 0.10644096 0.0048908344 -0.100950874

conv_layers.0.w_2.bias f4 [64]
00000000: 8ec5 d63d 9bbe 48be 700c 86bd fc6a 0c3e
00000010: 4a11 523d e4bd 973c 0207 133b fe80 fe3d
00000020: e6c2 0f3d 4f48 53be 91ef 74bd a3ff 05be
00000030: bf4c b3bd 0709 083e c67d 39be 31f7 49bf
00000040: 01e8 073c 4914 093d d0ba 89bd 8919 093e
00000050: 0e02 873e 991a 1cbe 1b41 90be 8d9b 88bd
00000060: 94b3 753d 5058 1bbd b488 41bd c09b e3bd
00000070: 7bf8 31ba e90c 913d 2f3d c0be b5e4 1bbf
00000080: 9572 993d 8da5 593d c4d0 eabc 5994 f6bd
00000090: 0f74 3cbe 41ae 54be f112 41be b3b8 15bf
000000a0: 8943 b2be 3665 633e f520 2e3e e4db 6b3d
000000b0: ba2c 2abe bbe1 df3d 8746 c6ba 8851 23be
000000c0: 8e84 22bf a517 4b3e a93e c43d 0f93 b43d
000000d0: 7c4b ae3d fd34 c43d 0daf b53b 24f1 0a3e
000000e0: 52bb 4dbe 4ef2 8f3e 85c3 ad3d 7e49 18be
000000f0: 49bf 3ebe 4445 623e dec2 1d3e 28b1 b0be
0.10486899 -0.1960396 -0.06545341 0.13712686 0.05128602 0.018523164 0.0022434597 0.12426947
0.03509798 -0.20633052 -0.05979878 -0.13085799 -0.087548725 0.13284694 -0.18114385 -0.7889281
0.00829506 0.03346661 -0.06725085 0.13388647 0.26368755 -0.15244521 -0.28174672 -0.06670294
0.059985712 -0.03792602 -0.04724951 -0.11113691 -0.00067890406 0.070825405 -0.3754668 -0.60895854
0.07492558 0.053136397 -0.028664 -0.12040014 -0.18403648 -0.20769598 -0.18854882 -0.58484954
-0.3481715 0.22206578 0.1700476 0.05758275 -0.16618624 0.109317265 -0.001512722 -0.1594907
-0.6348351 0.19833238 0.09582264 0.08817112 0.08510491 0.09580419 0.0055445493 0.1356855
-0.20090988 0.2811455 0.08484558 -0.14871785 -0.18627657 0.22096735 0.15406367 -0.3451016
