experiments/02_tune_models/selected_trained_models/s2v_rel_mc/model_state_dict.pt (torch_old, 102386 bytes, 13 tensors)

mlp_layers.0.weight f4 [64, 64]
0.123228386 -0.006139019 -0.11932414 0.06218932 -0.018690072 0.057753257 0.048072606 0.115015656
-0.07440116 0.15261313 0.16246411 0.05383438 -0.10378388 -0.11796466 -0.043088287 -0.027769765
-0.08629876 -0.040757973 -0.019433536 -0.09047136 0.12468213 -0.015471703 -0.12223386 0.063802645
-0.004539493 -0.06440675 0.014319368 0.031463187 0.053349964 0.021762773 -0.09413852 0.06213091
-0.029978 0.07048488 0.004317853 0.04231096 -0.0051332605 -0.1825932 0.03606176 0.037020095
-0.0538876 0.0019583334 0.032164346 0.11609754 -0.07901167 -0.03356409 -0.11439655 -0.006589087
-0.012513604 -0.07527397 -0.12918015 0.016721241 0.029901033 0.11984624 -0.09263143 -0.0418966
0.09380717 -0.059691273 -0.09898398 0.15858112 -0.092990234 -0.08598058 -0.04067051 -0.011535782
-0.11320587 -0.11055334 -0.039089907 -0.10431814 -0.16204779 -0.035536528 -0.23698854 0.12610017
0.21526794 -0.12781104 -0.072216064 -0.052097097 0.10612117 0.1552601 0.1556101 0.07259495
0.25574306 -0.114080474 -0.16242705 0.06147479 0.2223508 0.14835575 0.22455531 0.13893354
-0.06403811 -0.09420671 0.24679188 0.2562114 0.11152678 0.11799716 0.0062275673 0.026418434
0.22318049 0.21947265 -0.120873496 0.109581895 -0.032832455 -0.12933558 -0.146958 -0.02429142
0.034179587 0.22093262 -0.050558984 -0.085984856 -0.043094892 0.14987665 -0.04224455 0.028326899
-0.032065623 -0.071098104 0.051077038 0.057842977 -0.043674298 0.0070988783 0.020049708 0.031175975
0.23949808 -0.043831263 -0.06205757 0.09534035 0.017743561 -0.02074023 0.06052442 -0.07859437
0.066176474 0.14572787 0.010999047 -0.11660973 -0.087522656 0.0009207541 0.0015128691 -0.12050906
0.13929836 0.04466522 0.07446734 0.03994586 0.13883409 0.15549448 0.18501748 0.10824548
-0.039931383 -0.040049657 -0.06455548 -0.047385205 -0.01762686 -0.0729041 -0.05224904 0.015531837
0.009700406 0.17381234 0.0033095228 -0.008991666 -0.020893134 0.1268548 0.097749114 -0.0017113958
0.09377567 -0.059622966 0.009897223 0.0625957 0.053481497 0.19139394 0.06482193 -0.111278355
0.03268398 0.007304207 0.04752978 -0.021563299 -0.11672105 -0.09882431 -0.017904045 0.04059888
0.05916754 -0.0023171585 0.025214436 0.012731057 0.0725382 -0.0645368 -0.062491845 -0.08771985
0.1568149 -0.12454302 -0.0066268155 -0.09989325 0.14187472 -0.070482224 0.10845981 0.21542326
0.017171517 0.029211562 -0.10970705 -0.09643949 0.16456467 0.104205996 -0.09843203 0.01558695
0.0019158202 0.008804443 0.093077764 -0.1241776 0.2579001 -0.004143908 0.088978864 0.043420654
0.12804486 -0.045911334 0.05245268 0.09676837 0.009262193 0.15164204 0.071652375 0.10142509
0.27186352 0.13906528 0.13579427 0.22880514 0.14921094 0.040443417 -0.106553346 0.0048005763
0.05172583 0.06808953 -0.041232947 0.19348942 -0.09399509 0.17687821 0.07405924 -0.01459946
-0.03818795 -0.10828681 -0.071349755 -0.13664079 -0.050858345 -0.07374972 0.12373021 0.13439493
0.15080343 0.07040312 0.12944154 0.073417455 -0.036399666 0.02014547 0.11927375 -0.07406091
0.010647985 -0.025158215 -0.014671509 0.07268281 -0.022790775 0.25270638 0.1836554 0.26989633
00000000: 2a5f fc3d d329 c9bb 3760 f4bd 3aba 7e3d
00000010: ec1b 99bc ae8e 6c3d c8e7 443d 548d eb3d
00000020: a35f 98bd 9e46 1c3e fe5c 263e 7081 5c3d
00000030: a58c d4bd 7597 f1bd 587d 30bd 6b7d e3bc
00000040: 67bd b0bd d5f1 26bd 1433 9fbc 0c49 b9bd
00000050: 5859 ff3d 077d 7dbc bf55 fabd f6aa 823d
00000060: 07c0 94bb b0e7 83bd c89b 6a3c 8bdf 003d
00000070: 7e85 5a3d d847 b23c b2cb c0bd fb7c 7e3d
00000080: 6c94 f5bc 605a 903d c77c 8d3b 424e 2d3d
00000090: e934 a8bb b6f9 3abe 7fb5 133d 62a2 173d
000000a0: 3eb9 5cbd 6257 003b c3be 033d 8cc4 ed3d
000000b0: dfd0 a1bd 807a 09bd bd48 eabd 45e9 d7bb
000000c0: dc05 4dbc 3d29 9abd cd47 04be fcfa 883c
000000d0: 03f3 f43c f271 f53d 8cb5 bdbd c59b 2bbd
000000e0: f91d c03d d67e 74bd 1db8 cabd 1763 223e
000000f0: aa71 bebd 9616 b0bd 1f96 26bd 9400 3dbc
00000100: 7bd8 e7bd ca69 e2bd bd1c 20bd c0a4 d5bd
00000110: dbef 25be c08e 11bd 20ad 72be 6720 013e
00000120: 336f 5c3e e6e0 02be 04e6 93bd c463 55bd
00000130: 0e56 d93d 81fc 1e3e 4158 1f3e a9ac 943d
00000140: c1f0 823e 06a3 e9bd 4753 26be fdcc 7b3d
00000150: eeaf 633e 92ea 173e d4f1 653e 9844 0e3e
00000160: 6a26 83bd 73ef c0bd 03b7 7c3e 242e 833e
00000170: 2768 e43d 7fa8 f13d 9f10 cc3b 796b d83c
00000180: 6d89 643e 70bd 603e 868c f7bd 796c e03d
00000190: 537b 06bd 8c70 04be 287c 16be cdfe c6bc
000001a0: e5ff 0b3d 293c 623e f016 4fbd d418 b0bd
000001b0: 4584 30bd 4479 193e 9f08 2dbd d00d e83c
000001c0: 3e57 03bd e29b 91bd 2836 513d c2ec 6c3d
000001d0: d2e3 32bd b59d e83b 493f a43c c264 ff3c
000001e0: fc3e 753e 6988 33bd 1430 7ebd cd41 c33d
000001f0: f25a 913c 6ae7 a9bc 74e8 773d 16f6 a0bd
00000200: 8887 873d b039 153e 5935 343c 15d1 eebd
00000210: 143f b3bd c35e 713a 774b c63a 74cd f6bd
00000220: 3ba4 0e3e e1f2 363d 5582 983d 459e 233d
00000230: 862a 0e3e f239 1f3e 3975 3d3e ceaf dd3d
00000240: 178f 23bd 1c0b 24bd aa35 84bd fd16 42bd
00000250: 3466 90bc bf4e 95bd 1703 56bd 3f79 7e3c
00000260: 74ee 1e3c ddfb 313e 94e4 583b c851 13bc
00000270: 1428 abbc 3ae6 013e b030 c83d ea50 e0ba
00000280: 750d c03d 3637 74bd f627 223c 2d32 803d
00000290: 6a0f 5b3d c6fc 433e 5cc1 843d e8e5 e3bd
000002a0: a3df 053d 2158 ef3b 96ae 423d 84a5 b0bc
000002b0: 720b efbd 6664 cabd 81ab 92bc 034b 263d
000002c0: aa59 723d 78db 17bb 818e ce3c ec95 503c
000002d0: e88e 943d df2b 84bd 73f7 7fbd 77a6 b3bd
000002e0: 1694 203e 6910 ffbd c225 d9bb d594 ccbd
000002f0: 9b47 113e fc58 90bd 2d20 de3d ea97 5c3e
00000300: 48ab 8c3c 164d ef3c 17ae e0bd 1182 c5bd
00000310: a483 283e f469 d53d bb96 c9bd 6860 7f3c
00000320: 421c fb3a 8340 103c 8e9f be3d d350 febd
00000330: 7b0b 843e 9fc9 87bb 8d3a b63d dbd9 313d
00000340: 311e 033e 860d 3cbd 9fd8 563d 7f2e c63d
00000350: 74c0 173c 0d48 1b3e 7bbe 923d f5b7 cf3d
00000360: b231 8b3e 2167 0e3e a70d 0b3e e54b 6a3e
00000370: c1ca 183e ffa7 253d a438 dabd 274e 9d3b
00000380: 77de 533d 8672 8b3d e1e3 28bd 1722 463e
00000390: 7f80 c0bd 901f 353e 5fac 973d 9332 6fbc
000003a0: f86a 1cbd 7ac5 ddbd d21f 92bd 90eb 0bbe
000003b0: d750 50bd 180a 97bd 4466 fd3d d39e 093e
000003c0: 376c 1a3e 832f 903d 538c 043e e45b 963d
000003d0: d117 15bd 1d08 a53c cc45 f43d 3fad 97bd
000003e0: e374 2e3c 9a18 cebc c560 70bc bada 943d
000003f0: b8b3 babc bb62 813e 2910 3c3e da2f 8a3e

mlp_layers.0.bias f4 [64]
-0.2044548 -0.2487093 -0.12259644 -0.19933732 -0.0150208855 0.048092656 0.018737698 -0.023973558
0.112266146 -0.14905277 -0.11584052 0.42171672 -0.13176066 0.034866765 0.032147508 0.63855207
-0.07173114 -0.18264915 0.52454793 -0.33430704 -0.13561346 0.11105048 0.020145897 0.17186834
0.380766 0.019252136 -0.1443034 -0.1891744 -0.23092328 -0.1642439 -0.34711897 -0.1664957
0.43746743 -0.16169979 -0.07184645 -0.11700028 -0.015098285 -0.5685834 0.06109869 0.21062529
-0.29997534 -0.332564 -0.5629809 0.056661993 -0.039563425 -0.015465714 -0.32808656 0.018431336
-0.0782622 -0.3994577 -0.08894257 -0.1966884 -0.040292263 -0.052407466 -0.32767788 -0.25549334
-0.033943806 -0.24589953 -0.23712653 -0.2390067 -0.38026753 -0.0003211676 0.23374732 0.30730408
00000000: 995c 51be a7ad 7ebe d813 fbbd 151f 4cbe
00000010: 291a 76bc cefc 443d cd7f 993c 3264 c4bc
00000020: cbeb e53d 4aa1 18be cb3d edbd 41eb d73e
00000030: 44ec 06be 74d0 0e3d 1bad 033d 2678 233f
00000040: c7e7 92bd 6108 3bbe c648 063f 4b2a abbe
00000050: 41de 0abe 6f6e e33d 0209 a53c 41fe 2f3e
00000060: c3f3 c23e a8b6 9d3c 45c4 13be efb6 41be
00000070: 2777 6cbe 8e2f 28be 94b9 b1be d97d 2abe
00000080: bbfb df3e a194 25be 3b24 93bd d89d efbd
00000090: cc5e 77bc af8e 11bf 9f42 7a3d 28ae 573e
000000a0: 5e96 99be d445 aabe 841f 10bf 6816 683d
000000b0: 420d 22bd e863 7dbc f6fa a7be 50fd 963c
000000c0: ef47 a0bd b885 ccbe 8627 b6bd af68 49be
000000d0: 8009 25bd 36a9 56bd 65c5 a7be 06d0 82be
000000e0: a908 0bbd 16cd 7bbe 4cd1 72be 2cbe 74be
000000f0: 6db2 c2be 6362 a8b9 755b 6f3e f656 9d3e

mlp_layers.1.weight f4 [64, 64]
0.04176641 -0.009208864 -0.0008252971 0.02187002 0.08749151 0.025926957 -0.032744262 -0.079949446
-0.045070406 -0.051172327 0.0762532 -0.2170288 0.023742186 0.03800233 0.1304783 -0.044283606
0.16261208 -0.016863588 -0.076236956 -0.05808214 -0.044797845 -0.09617264 -0.13507491 -0.0027867816
-0.027560735 0.09794967 0.1840515 -0.034527715 -0.044112854 0.028183201 -0.0032431176 -0.07678533
-0.10920219 0.018672299 -0.035250925 -0.065177046 0.06093924 0.04682651 0.15423928 -0.014731417
0.169088 0.110457316 -0.106047705 0.0022205561 -0.048810806 0.06773506 -0.008182676 -0.025681803
-0.11853144 0.038895387 -0.065519124 -0.06422584 0.060945038 0.06604046 -0.07959646 0.06972869
-0.028300771 0.14232175 -0.013775894 -0.034060866 -0.062248733 0.05540182 0.05671403 0.12534757
0.1255268 0.021129262 0.031728942 -0.014709056 -0.019331688 0.083990045 0.1463611 -0.116165906
-0.1663717 0.03729518 -0.029190551 -0.26231796 -0.1657893 -0.063226916 -0.01421273 -0.11342983
0.105957605 -0.009039614 -0.03006559 0.13992497 -0.07325295 -0.17601246 0.0019326647 -0.19116084
0.09558838 -0.05880138 0.09018898 0.00046489632 0.023491437 0.10843523 -0.04739016 0.08098577
-0.035043683 0.062391754 -0.0045784167 0.06914083 0.07754367 0.07209944 0.040182143 0.23811528
0.00077753334 0.14493431 0.0035052204 0.13917376 0.10306495 -0.036241125 0.13022377 0.006785438
0.031615768 0.1629427 0.15593202 0.036916792 -0.016357109 0.10071078 0.059246287 0.07230474
-0.13025956 0.06525185 -0.044078678 0.18097165 0.12638701 0.1487948 -0.12939751 -0.05004169
-0.08097348 0.10191055 0.10120101 -0.022805119 0.06509239 -0.047969755 -0.17804265 -0.099447854
-0.013236036 0.05245275 0.23286876 0.032218628 -0.081800446 0.011878705 -0.07562427 -0.041438997
0.029174052 0.028871149 -0.046192124 0.07200174 -0.15627913 -0.08151396 0.08279436 0.0064924615
-0.08613875 -0.09962626 0.037452713 0.06763924 -0.045774102 -0.010857156 -0.045938034 0.17082949
0.048778884 0.016978482 0.10059944 -0.17064777 0.26682433 -0.18272384 0.16708769 0.064359106
-0.06817584 0.21020715 -0.009040415 0.109687015 -0.03190279 -0.0613333 0.09723787 0.08629269
0.0706528 -0.016943835 0.007504056 0.01902446 -0.026363008 -0.07911101 -0.11190033 0.06389236
0.067110136 -0.004878231 -0.12999812 0.0047019767 -0.09239062 -0.08653459 -0.15611534 0.052005142
0.050102822 0.05612643 -0.0089082 -0.07561791 -0.03593865 -0.06565877 -0.07597264 -0.27486837
-0.21351963 -0.038052674 0.052478246 -0.15650013 -0.14462504 -0.012368658 0.1149146 0.06468011
0.1281291 0.053755727 -0.008433152 0.07066796 0.17011774 -0.13209221 -0.01186107 -0.29074666
-0.09558952 -0.068773456 0.0015033104 0.004198512 0.17284246 -0.05757736 -0.0539263 0.09739031
-0.1352645 0.05558855 0.04154474 0.0074555464 0.016968863 -0.07929682 -0.015731402 0.023135908
-0.07730396 0.15886743 0.01750115 0.08857468 0.14030837 0.083171435 0.14603703 0.009156821
0.1350692 -0.02769122 0.047491983 -0.060516067 0.0020419203 0.009468806 0.22792742 0.0070347586
-0.1745339 0.015661255 -0.039483976 0.15676899 0.20130438 0.100369886 -0.05161502 0.17274252
00000000: 4113 2b3d c6e0 16bc c058 58ba c228 b33c
00000010: c02e b33d c564 d43c d91e 06bd 89bc a3bd
00000020: bf9b 38bd 139a 51bd a32a 9c3d cc3c 5ebe
00000030: f97e c23c 55a8 1b3d 1a9c 053e ba62 35bd
00000040: c883 263e 8225 8abc 1f22 9cbd 8ae7 6dbd
00000050: f27d 37bd 29f6 c4bd 1451 0abe 70a2 36bb
00000060: 0dc7 e1bc d699 c83d ff77 3c3e ef6c 0dbd
00000070: aeaf 34bd 75e0 e63c 7c8a 54bb a141 9dbd
00000080: 66a5 dfbd a6f6 983c 4663 10bd 8b7b 85bd
00000090: 6d9b 793d 28cd 3f3d e7f0 1d3e 0b5c 71bc
000000a0: 6825 2d3e 7237 e23d 8a2f d9bd c086 113b
000000b0: d7ed 47bd aeb8 8a3d a110 06bc a562 d2bc
000000c0: 9dc0 f2bd c550 1f3d e42e 86bd d688 83bd
000000d0: 81a1 793d 3840 873d 7803 a3bd eacd 8e3d
000000e0: 05d7 e7bc cbbc 113e 4ab4 61bc 6883 0bbd
000000f0: 87f8 7ebd 05ed 623d f94c 683d 1d5b 003e
00000100: 198a 003e 4617 ad3c 35f6 013d 41fe 70bc
00000110: 7d5d 9ebc f902 ac3d afdf 153e 64e8 edbd
00000120: 585d 2abe d5c2 183d 0621 efbc 8a4e 86be
00000130: acc4 29be 1d7d 81bd 83dc 68bc e64d e8bd
00000140: 4d00 d93d e41a 14bc 1d4c f6bc 7e48 0f3e
00000150: a505 96bd 9c3c 34be 7751 fd3a abbf 43be
00000160: d7c3 c33d b7d9 70bd 00b5 b83d 54bd f339
00000170: 1d71 c03c 4a13 de3d 2f1c 42bd dedb a53d
00000180: f789 0fbd 7f8e 7f3d 8b06 96bb b599 8d3d
00000190: 37cf 9e3d dfa8 933d 0896 243d 7ed4 733e
000001a0: 61d3 4b3a a969 143e d7b7 653b 9183 0e3e
000001b0: b713 d33d 9371 14bd 6159 053e 6158 de3b
000001c0: 897f 013d 73da 263e a5ac 1f3e 1036 173d
000001d0: 58ff 85bc 7441 ce3d 3cac 723d 8214 943d
000001e0: c362 05be c3a2 853d d88b 34bd a250 393e
000001f0: 996b 013e aa5d 183e c880 04be 84f8 4cbd
00000200: 6dd5 a5bd 7ab6 d03d 7a42 cf3d cdd1 babc
00000210: 294f 853d ef7b 44bd d050 36be 51ab cbbd
00000220: f5db 58bc b2d8 563d 2675 6e3e aef7 033d
00000230: fe86 a7bd e69e 423c e6e0 9abd f0bb 29bd
00000240: 6cfe ee3c 3083 ec3c f433 3dbd a675 933d
00000250: a307 20be cbf0 a6bd 1790 a93d b7be d43b
00000260: 8369 b0bd da08 ccbd 0468 193d 7186 8a3d
00000270: a07d 3bbd 36e2 31bc 8529 3cbd eded 2e3e
00000280: 5ecc 473d 7516 8b3c 1407 ce3d 4abe 2ebe
00000290: 339d 883e f51b 3bbe 0919 2b3e b5ce 833d
000002a0: c69f 8bbd 8b40 573e 401e 14bc 96a3 e03d
000002b0: 80ac 02bd a038 7bbd a624 c73d 39ba b03d
000002c0: 6ab2 903d cccd 8abc 96e4 f53b 2fd9 9b3c
000002d0: 3cf7 d7bc f404 a2bd 002c e5bd ffd9 823d
000002e0: 0a71 893d 91d9 9fbb 3a1e 05be 0a13 9a3b
000002f0: 4b37 bdbd 0c39 b1bd b3dc 1fbe 5803 553d
00000300: 9e38 4d3d d4e4 653d b3f3 11bc 90dd 9abd
00000310: 6834 13bd 1b78 86bd 8b97 9bbd 8cbb 8cbe
00000320: e4a4 5abe 1fdd 1bbd 6ef3 563d 9241 20be
00000330: 9618 14be e9a5 4abc 5958 eb3d 0177 843d
00000340: 4634 033e f72e 5c3d 342b 0abc 5dba 903d
00000350: 5833 2e3e 2e43 07be ef54 42bc bfdc 94be
00000360: 70c4 c3bd 19d9 8cbd ba0a c53a ac93 893b
00000370: 9dfd 303e 3dd6 6bbd d3e1 5cbd 9274 c73d
00000380: c782 0abe d2b0 633d d12a 2a3d a84d f43b
00000390: 4902 8b3c 5f66 a2bd 24df 80bc 8487 bd3c
000003a0: 8a51 9ebd 25ae 223e 925e 8f3c a466 b53d
000003b0: ffac 0f3e c955 aa3d bb8a 153e 7e06 163c
000003c0: 954f 0a3e b3d8 e2bc f486 423d b2df 77bd
000003d0: bdd1 053b 0d23 1b3c ce65 693e d583 e63b
000003e0: 04b9 32be 084c 803c f3b9 21bd 0d88 203e
000003f0: bc22 4e3e ba8e cd3d 456a 53bd 6ae3 303e

mlp_layers.1.bias f4 [64]
-0.005516822 -0.16484474 0.15549847 0.013149234 -0.13689373 0.041261945 0.06379404 0.014057651
-0.37306243 -0.17577213 0.23691928 -0.114814095 0.56002516 -0.13639414 -0.047751665 0.31086776
-0.13685444 0.09167859 -0.025789209 0.3754367 0.05886127 0.09927249 -0.1579287 0.07203426
0.18801695 0.014346092 -0.16435327 -0.15689494 -0.028610148 -0.08039643 0.1554141 0.2874357
0.09527829 0.12883385 -0.05854587 -0.12824142 0.15509285 -0.27813646 -0.055126272 0.04049027
-0.11914646 0.020995952 -0.19450732 -0.197245 -0.21700294 0.05031865 -0.108408034 0.02131758
-0.13918848 -0.113150395 -0.04415444 -0.15022026 -0.12429547 0.3733953 -0.036547624 -0.31370446
0.13398287 0.48752856 -0.15660155 -0.12805328 0.0043393364 0.0033512688 0.48598644 -0.04798881
00000000: 75c6 b4bb 0fcd 28be fe3a 1f3e e26f 573c
00000010: df2d 0cbe 4902 293d 73a6 823d 1052 663c
00000020: 0a02 bfbe 9cfd 33be f89a 723e a723 ebbd
00000030: cf5d 0f3f e8aa 0bbe 4097 43bd 0f2a 9f3e
00000040: 9223 0cbe fcc1 bb3d e443 d3bc 3d39 c03e
00000050: 8418 713d 604f cb3d 10b8 21be b386 933d
00000060: 8487 403e df0b 6b3c 394c 28be 11a9 20be
00000070: d45f eabc e2a6 a4bd e024 1f3e c62a 933e
00000080: 4421 c33d 05ed 033e cbcd 6fbd b851 03be
00000090: a9d0 1e3e e767 8ebe 16cc 61bd 20d9 253d
000000a0: 0f03 f4bd b4ff ab3c ed2c 47be 98fa 49be
000000b0: 0536 5ebe ee1a 4e3d 0805 debd 35a2 ae3c
000000c0: 6d87 0ebe 65bb e7bd 49db 34bd 57d3 19be
000000d0: a08e febd ab2d bf3e f6b2 15bd df9d a0be
000000e0: ce32 093e 589d f93e 285c 20be 6620 03be
000000f0: fe30 8e3b f6a0 5b3b 37d3 f83e ea8f 44bd

mlp_layers.2.weight f4 [64, 64]
-0.11404331 -0.12311672 -0.034296274 0.032277357 -0.15311623 0.02619454 -0.12138367 -0.0017592454
0.09891087 -0.013381365 0.0015184041 0.051628727 0.008427515 -0.1453701 0.21189496 -0.051358487
0.1684375 0.026954312 -0.06423432 -0.09368391 0.020287318 0.102257855 0.13572016 -0.1414638
-0.0064649126 0.2229237 -0.059539303 0.028549349 -0.026800545 0.00782788 0.25275373 0.0014028954
-0.043191534 0.18587787 0.17071094 -0.19349939 -0.0883678 -0.032395624 -0.009481743 0.15779494
0.08536965 -0.012139049 -0.083170734 0.023619361 0.0841075 0.043261755 0.07502307 0.0886509
0.2472403 0.19936255 -0.084627174 -0.020141855 -0.03455897 0.0006258027 0.14143445 0.05235579
0.072838224 0.13947614 0.108676784 -0.07743922 -0.1918058 -0.073642194 0.016217278 -0.08489604
0.01909279 0.12231286 -0.15874581 -0.03757653 0.08409849 0.12518452 -0.04910392 -0.069195926
0.1676092 0.11611811 -0.040741406 0.061760183 0.8357444 -0.1295944 0.22191308 0.52959925
-0.074437276 0.12906453 -0.05113488 0.2585434 0.07106591 -0.0033887047 -0.023249546 0.07487628
0.18830118 0.16129647 -0.111689135 0.058687232 0.07446993 0.009505843 0.1111176 -0.011980726
0.08398411 0.06152653 -0.058026325 -0.079153456 0.15445583 -0.034962434 -0.14018096 0.1698521
0.077095985 0.016772516 -0.25743973 0.099424146 0.051346842 0.17082325 -0.043862946 0.04942306
-0.011945829 0.260477 -0.0061494582 -0.2300354 -0.22856973 -0.18363559 0.032701727 0.095338225
0.13408993 0.49871126 0.014259953 -0.1660226 -0.06275869 -0.059206348 0.35146347 0.18802527
0.14102903 -0.017883448 -0.16309409 0.15735553 0.1018444 0.061336033 -0.02637581 -0.0019879236
-0.049548198 -0.060425043 -0.09758403 -0.023729902 0.01797376 0.07680498 0.06398991 -0.0007933308
-0.0002713875 0.084182076 0.14932565 0.15762289 0.048977453 -0.04628361 0.11722303 0.005627401
-0.0060973 0.086245954 0.06685535 -0.034842733 0.047287203 0.17438948 -0.08953266 -0.16869937
-0.044042103 -0.10542604 0.047015794 0.079683736 -0.20596495 0.058560662 0.09358292 -0.10197207
0.12532961 -0.17594157 0.07611894 0.03688937 -0.059157412 -0.09823995 0.13022256 -0.08541146
0.1393943 0.0811473 0.06653077 0.13600133 -0.053879008 -0.26345697 0.19711447 0.03690295
-0.015645344 -0.062302638 -0.072699696 0.11248544 0.094908044 0.05677345 0.10597071 -0.06635153
0.0026818896 0.0735501 0.14664195 0.01256428 -0.14611457 -0.08211602 0.106233895 0.2134337
-0.07181475 -0.14953098 0.12557983 0.01543622 -0.03351465 -0.08042632 0.08467314 -0.09126408
0.17605926 0.016600246 0.17023514 -0.062105913 0.039987944 -0.040325582 -0.091358975 0.090152875
0.031714004 0.03865947 -0.17033806 0.11719298 0.09355167 0.10966151 -0.14754537 0.005056816
-0.035673797 0.06426173 0.23124877 -0.04158549 -0.07576715 0.08489593 0.057914652 -0.06851441
0.026955443 0.11826758 0.06186147 0.052021604 0.05964929 0.043862365 0.08951001 -0.106804505
0.1331427 0.12010785 0.07370165 0.1517559 0.0046175844 0.060508966 0.035033017 -0.1068276
0.08355135 -0.0190406 0.05630168 0.05723361 -0.023272965 0.19389479 -0.15037778 0.0050288695
00000000: 8a8f e9bd 9e24 fcbd 407a 0cbd 4335 043d
00000010: 80ca 1cbe ef95 d63c 0098 f8bd 7b96 e6ba
00000020: c891 ca3d 833d 5bbc 3005 c73a a578 533d
00000030: 8f13 0a3c e6db 14be fefa 583e 475d 52bd
00000040: e17a 2c3e 4acf dc3c 488d 83bd 5add bfbd
00000050: 9731 a63c 916c d13d 3afa 0a3e e3db 10be
00000060: 9ed7 d3bb 1c46 643e 7cdf 73bd 53e0 e93c
00000070: d18c dbbc 8240 003c f068 813e 5ce1 b73a
00000080: 9be9 30bd c556 3e3e d9ce 2e3e b424 46be
00000090: 2dfa b4bd 46b1 04bd 5059 1bbc ff94 213e
000000a0: 48d6 ae3d dde2 46bc 6b55 aabd 647d c13c
000000b0: 8e40 ac3d 3d33 313d b2a5 993d 9a8e b53d
000000c0: 902c 7d3e b225 4c3e 0351 adbd 8800 a5bc
000000d0: b58d 0dbd e90c 243a 31d4 103e 0673 563d
000000e0: 352c 953d d5d2 0e3e ef91 de3d 7498 9ebd
000000f0: bd68 44be b8d1 96bd 19da 843c fadd adbd
00000100: 7c68 9c3c 2a7f fa3d 438e 22be d9e9 19bd
00000110: d43b ac3d 5f30 003e 3121 49bd 98b6 8dbd
00000120: bfa1 2b3e 55cf ed3d 76e0 26bd 3ff8 7c3d
00000130: 58f3 553f 65b4 04be 2f3d 633e d193 073f
00000140: 9272 98bd 7e29 043e cf72 51bd cd5f 843e
00000150: 018b 913d 0815 5ebb d575 bebc bc58 993d
00000160: 06d2 403e e72a 253e 46bd e4bd 0662 703d
00000170: b183 983d 65be 1b3c a091 e33d cf4a 44bc
00000180: dcff ab3d 3e03 7c3d 03ad 6dbd 351b a2bd
00000190: ab29 1e3e c534 0fbd 998b 0fbe b5ed 2d3e
000001a0: 80e4 9d3d 8466 893c 24cf 83be e39e cb3d
000001b0: 1151 523d 4aec 2e3e a2a9 33bd d66f 4a3d
000001c0: 70b8 43bc 3e5d 853e 6581 c9bb 668e 6bbe
000001d0: 2f0e 6abe f80a 3cbe 3ff2 053d b040 c33d
000001e0: df4e 093e 1557 ff3e 94a2 693c d401 2abe
000001f0: a187 80bd 5b82 72bd 05f3 b33e b289 403e
00000200: ea69 103e 4f80 92bc 2302 27be cf21 213e
00000210: cc93 d03d 7e3b 7b3d 1512 d8bc d347 02bb
00000220: 0df3 4abd 4080 77bd 23da c7bd 3665 c2bc
00000230: b53d 933c ee4b 9d3d 240d 833d 87f7 4fba
00000240: 0349 8eb9 a767 ac3d d3e8 183e e567 213e
00000250: 959c 483d e293 3dbd a112 f03d 1066 b83b
00000260: dccb c7bb b8a1 b03d 75eb 883d 41b7 0ebd
00000270: 3ab0 413d 2893 323e e65c b7bd 87bf 2cbe
00000280: 7e65 34bd 9ce9 d7bd a293 403d 3a31 a33d
00000290: 7ae8 52be 4edd 6f3d 67a8 bf3d bcd6 d0bd
000002a0: 6856 003e 072a 34be 3fe4 9b3d 4f19 173d
000002b0: 0b4f 72bd 0732 c9bd 1059 053e 34ec aebd
000002c0: 61bd 0e3e 8e30 a63d 4941 883d ef43 0b3e
000002d0: 3cb0 5cbd d5e3 86be 60d8 493e 8c27 173d
000002e0: aa2a 80bc 0d31 7fbd 94e3 94bd c45e e63d
000002f0: 265f c23d 478b 683d 2c07 d93d 50e3 87bd
00000300: a4c2 2f3b 6fa1 963d 4f29 163e 69da 4d3c
00000310: 0f9f 15be 722c a8bd 2891 d93d 5d8e 5a3e
00000320: 9d13 93bd a61e 19be 0098 003e 33e8 7c3c
00000330: a846 09bd 8eb6 a4bd 1c69 ad3d a9e8 babd
00000340: e148 343e 3dfd 873c 1f52 2e3e c562 7ebd
00000350: 66ca 233d 702c 25bd 6a1a bbbd 12a2 b83d
00000360: 8be6 013d 6459 1e3d 1a6d 2ebe e002 f03d
00000370: 0598 bf3d 3796 e03d 2216 17be a6b3 a53b
00000380: b01e 12bd a79b 833d 7acc 6c3e 8c55 2abd
00000390: cf2b 9bbd ebdd ad3d ea37 6d3d 4851 8cbd
000003a0: a9d1 dc3c 4636 f23d 7462 7d3d 9b14 553d
000003b0: d052 743d 06a9 333d 0651 b73d 52bc dabd
000003c0: 8f56 083e 1bfb f53d e4f0 963d e665 1b3e
000003d0: 1b4f 973b 40d8 773d c87e 0f3d 6ec8 dabd
000003e0: f81c ab3d 08fb 9bbc 979c 663d ca6d 6a3d
000003f0: f2a6 bebc 5b8c 463e a2fc 19be 37c9 a43b

mlp_layers.2.bias f4 [64]
-0.108631454 0.28880024 -0.22068061 0.081460126 -0.1926731 0.02160655 -0.10325754 0.06500198
-0.030276416 -0.1726265 0.7758338 0.2130656 0.12381389 -0.03428379 -0.051264457 -0.116812035
0.51704776 -0.17486638 -0.30539218 0.20174834 -0.14411189 -0.11526329 0.17893337 -0.09780031
0.23559408 -0.05283114 0.037962217 0.0402538 0.04395066 0.0031315887 -0.018282162 0.31305534
-0.1391577 -0.028759016 -0.11634718 0.0037198272 -0.13110057 -0.14924464 0.109738596 0.13155422
-0.074054 0.094926395 -0.123993784 0.05658679 -0.08363265 -0.1632462 -0.038312916 0.39752677
0.14510565 -0.16303873 -0.085739814 -0.2520896 -0.24039133 0.15092184 0.19480318 -0.0356565
-0.08114206 -0.08152826 -0.060685918 0.010108127 -0.09574685 -0.10851018 0.3624937 -0.0498836
00000000: 2b7a debd a0dd 933e 19fa 61be 91d4 a63d
00000010: 194c 45be 3800 b13c b078 d3bd c21f 853d
00000020: 3f06 f8bc 00c5 30be 0b9d 463f de2d 5a3e
00000030: 2392 fd3d 296d 0cbd aefa 51bd 263b efbd
00000040: 3e5d 043f 2c10 33be 5d5c 9cbe 1e97 4e3e
00000050: 1192 13be 290f ecbd 4f3a 373e 874b c8bd
00000060: 933f 713e 7765 58bd 457e 1b3d 2be1 243d
00000070: 9b05 343d 573b 4d3b 79c4 95bc ca48 a03e
00000080: 5b7f 0ebe 0798 ebbc 6e47 eebd 58c8 733b
00000090: 3a3f 06be 96d3 18be a1be e03d 26b6 063e
000000a0: a0a9 97bd c568 c23d 74f0 fdbd 8dc7 673d
000000b0: 9847 abbd 032a 27be 01ee 1cbd a188 cb3e
000000c0: 9396 143e a0f3 26be 5b98 afbd e311 81be
000000d0: 2529 76be 418b 1a3e 7c7a 473e 8d0c 12bd
000000e0: cf2d a6bd 4af8 a6bd cc91 78bd 8f9c 253c
000000f0: ed16 c4bd 963a debd c698 b93e bf52 4cbd

mlp_layers.3.weight f4 [64, 64]
-0.15465836 -0.1477958 -0.0062043536 -0.3864842 -0.10715362 -0.14395212 0.061777476 -0.058154456
0.16489094 0.07343488 -0.13698366 0.02861388 0.14556132 -0.00080718903 -0.13580595 0.025748596
-0.1193415 -0.035387922 -0.123520516 -0.15265661 0.056128193 -0.1166627 -0.16782345 -0.08107627
0.06928933 -0.13164511 -0.14379777 -0.017705731 -0.08874486 -0.015606154 0.039939534 0.05898976
-0.11346994 -0.08111379 -0.075927585 -0.14909811 0.161121 0.026321683 0.07757315 -0.16899449
0.010026284 -0.23179923 0.097625844 -0.024283784 0.044655185 0.14690402 -0.071721844 -0.11898512
-0.23477988 0.031723678 0.013744091 0.124245696 0.022710718 -0.23966798 -0.095088795 -0.018509006
0.02869619 -0.1007829 0.16756175 0.07501228 0.09864819 0.054192226 -0.23108853 0.009844174
0.05024521 0.07754805 0.08668766 -0.037679307 0.015329301 0.13643542 -0.0014473919 -0.120054305
-0.1477048 0.05126255 -0.076397985 0.046076708 0.076603286 0.11414792 -0.036085747 0.02126005
-0.05154501 -0.029155768 0.062041596 0.11215624 -0.018262118 0.050035737 0.11441749 0.13138434
-0.03360622 -0.024508853 -0.12174578 0.0103032645 -0.076705545 -0.07346484 0.0875407 -0.12925737
0.059221614 -0.06736806 0.10635298 -0.042557213 0.024769034 -0.14308433 -0.07608814 0.053248633
0.15043332 0.09421706 -0.0100266645 0.07735965 0.03313632 0.007407644 -0.091204934 0.012650634
0.17630714 0.053709067 0.013053634 0.026903687 -0.16839059 -0.010339776 0.00014160978 0.0068264105
-0.121300116 0.0018327393 -0.09733398 0.05750379 -0.01238887 0.009242539 -0.07193914 0.04918192
-0.0054353415 -0.008870415 -0.041914005 0.068144746 0.22874443 0.11783793 -0.038584635 -0.035635017
-0.17842345 -0.0029659888 -0.25440827 0.14206809 0.20102416 0.06811555 -0.07022337 -0.086162835
0.07290675 0.010007871 0.049077943 0.019963318 0.0419246 0.03893883 -0.028427055 -0.03476324
-0.10135605 0.04975366 -0.099289864 0.057001233 -0.19110699 -0.16143158 0.25286898 -0.05545174
-0.046508007 0.054349877 0.0961545 0.053633124 -0.21466553 -0.25377667 0.048638955 -0.03271947
0.03453002 -0.05895596 0.008324104 -0.16428094 0.18611825 0.077673964 -0.13250639 0.07650405
-0.05348883 0.17639469 -0.20256385 -0.13756582 -0.16074042 0.09874245 0.053091537 0.20847015
-0.22130482 -0.11186851 -0.01858116 0.008446484 -0.15213272 0.17781612 -0.0035010031 -0.025597034
-0.060142096 0.0039067445 -0.09934853 0.07401598 -0.09408798 0.12764423 -0.06924604 -0.0818592
0.038453206 0.1626531 0.22713399 0.021507103 0.017884078 -0.03333927 -0.14066403 0.020797776
-0.10144246 0.051995162 -0.054056633 0.19503048 0.016713003 0.18339169 -0.096230716 -0.03168075
-0.02170683 0.031281423 0.10943503 -0.024179671 0.046952136 0.08802587 -0.04227332 0.19559169
0.020828318 -0.15639709 0.06517513 0.111501805 -0.0065082214 -0.10383828 -0.010188846 -0.027441492
0.11640786 0.02902905 -0.060856823 -0.085490815 0.14084181 0.051317737 -0.061579473 0.07930131
0.044424333 -0.09402443 -0.06745197 0.061244294 0.08095668 -0.06732506 0.123683676 0.021177286
-0.037822943 0.08067477 -0.0011792367 -0.0027303474 -0.015136906 -0.07532539 0.025382312 -0.048359603
00000000: c35e 1ebe c857 17be e44d cbbb 42e1 c5be
00000010: 5b73 dbbd 2f68 13be 610a 7d3d 5e33 6ebd
00000020: 2cd9 283e 0765 963d 7245 0cbe a867 ea3c
00000030: 070e 153e 8a99 53ba b710 0bbe b8ee d23c
00000040: 5169 f4bd edf2 10bd 53f8 fcbd 0452 1cbe
00000050: ade6 653d dbec eebd e9d9 2bbe 510b a6bd
00000060: 90e7 8d3d facd 06be b93f 13be 9c0b 91bc
00000070: ddbf b5bd f4b0 7fbc a397 233d 3f9f 713d
00000080: ee62 e8bd fd1e a6bd ec7f 9bbd 2dad 18be
00000090: e7fc 243e 92a0 d73c acde 9e3d e40c 2dbe
000000a0: 4845 243c c75c 6dbe 0ff0 c73d c9ee c6bc
000000b0: 5be8 363d 026e 163e e7e2 92bd 78ae f3bd
000000c0: 236a 70be b0f0 013d e52e 613c 8774 fe3d
000000d0: d40b ba3c 866b 75be eabd c2bd 33a0 97bc
000000e0: 4614 eb3c 4467 cebd 4f95 2b3e 0aa0 993d
000000f0: 1008 ca3d abf8 5d3d 79a2 6cbe 7549 213c
00000100: eccd 4d3d 83d1 9e3d 4d89 b13d 9e55 1abd
00000110: c027 7b3c bab5 0b3e 6ab6 bdba 08df f5bd
00000120: ed3f 17be aef8 513d 8c76 9cbd eeba 3c3d
00000130: 2fe2 9c3d 62c6 e93d a6ce 13bd 8e29 ae3c
00000140: dc20 53bd 14d8 eebc 541f 7e3d 2cb2 e53d
00000150: 709a 95bc 46f2 4c3d b853 ea3d 9e89 063e
00000160: ada6 09bd cac6 c8bc da55 f9bd 06cf 283c
00000170: cc17 9dbd bc74 96bd 8a48 b33d 0b5c 04be
00000180: 5d92 723d 44f8 89bd 97cf d93d 7950 2ebd
00000190: 6ee8 ca3c b384 12be 19d4 9bbd 3d1b 5a3d
000001a0: 310b 1a3e e0f4 c03d e146 24bc bc6e 9e3d
000001b0: f3b9 073d d2bb f23b a7c9 babd 9b44 4f3c
000001c0: dc89 343e 0afe 5b3d e9de 553c 1f65 dc3c
000001d0: 956e 2cbe 2a68 29bc 167d 1439 15b0 df3b
000001e0: 326c f8bd 8738 f03a 0a57 c7bd 1889 6b3d
000001f0: b0fa 4abc 056e 173c d454 93bd fb72 493d
00000200: f31a b2bb 3855 11bc 05ae 2bbd 798f 8b3d
00000210: fb3b 6a3e 0355 f13d ec0a 1ebd 06f6 11bd
00000220: a3b4 36be 0961 42bb cd41 82be 4c7a 113e
00000230: 47d9 4d3e 2a80 8b3d 45d1 8fbd 2476 b0bd
00000240: 2250 953d 0ef8 233c f405 493d 1d8a a33c
00000250: 21b9 2b3d 537e 1f3d dbdf e8bc e663 0ebd
00000260: c393 cfbd 7eca 4b3d 7c58 cbbd 207a 693d
00000270: 8db1 43be 524e 25be 0b78 813e 5d21 63bd
00000280: 2e7f 3ebd fa9d 5e3d a7ec c43d 68ae 5b3d
00000290: 48d1 5bbe 04ef 81be a439 473d da04 06bd
000002a0: 5a6f 0d3d ce7b 71bd d361 083c 4339 28be
000002b0: c895 3e3e 8713 9f3d c1af 07be 28ae 9c3d
000002c0: 1a17 5bbd cfa0 343e e66c 4fbe 0ede 0cbe
000002d0: 2399 24be 7b39 ca3d 8376 593d 3379 553e
000002e0: bb9d 62be 511b e5bd 8437 98bc 1f63 0a3c
000002f0: aec8 1bbe 6e15 363e 1671 65bb dfb0 d1bc
00000300: 8f57 76bd 2604 803b 3e77 cbbd b195 973d
00000310: 33b1 c0bd 2bb5 023e ded0 8dbd cca5 a7bd
00000320: 1c81 1d3d 898e 263e d095 683e aa2f b03c
00000330: a181 923c c28e 08bd 3b0a 10be 1960 aa3c
00000340: 11c1 cfbd e1f8 543d 7d6a 5dbd 12b6 473e
00000350: b5e9 883c 08cb 3b3e 9c14 c5bd adc3 01bd
00000360: 86d2 b1bc f320 003d 791f e03d 7214 c6bc
00000370: e250 403d e846 b43d ca26 2dbd 3049 483e
00000380: 26a0 aa3c 8f26 20be 8a7a 853d 0f5b e43d
00000390: eb42 d5bb 2aa9 d4bd 1eef 26bc fbcc e0bc
000003a0: 3e67 ee3d 55ce ed3c 0145 79bd cf15 afbd
000003b0: d638 103e 8c32 523d c23a 7cbd ba68 a23d
000003c0: 4af6 353d e18f c0bd 4224 8abd 4cdb 7a3d
000003d0: 9ecc a53d b9e1 89bd de4d fd3d fd7b ad3c
000003e0: 3bec 1abd d038 a53d 9e90 9aba a1ef 32bb
000003f0: c900 78bc 3344 9abd 91ee cf3c b814 46bd

mlp_layers.3.bias f4 [64]
0.035838705 -0.0955268 -0.052294035 0.009931626 -0.09431519 0.15444349 -0.03638858 -0.12357138
-0.13460106 -0.21384497 -0.23472808 0.06494794 -0.09698329 -0.002724938 -0.056445975 -0.0029407123
-0.10358272 -0.24349529 -0.04800399 -0.118146434 -0.1364889 -0.15108661 0.06274844 0.024157329
0.034199942 0.045577407 -0.076413296 -0.1300911 -0.11758032 -0.091847464 0.015793173 0.035013527
0.008296814 0.1315987 -0.05463868 -0.18433124 0.01674839 0.12910636 -0.2177026 -0.030320235
0.062417913 0.0054271678 -0.14208768 -0.12578921 0.005936068 -0.051463574 -0.04883263 -0.17158154
0.04321397 -0.012968926 0.20510882 0.02435546 -0.12330707 0.118462816 -0.13835387 -0.06274538
0.072084 -0.07058492 -0.0068465048 0.071734965 0.6139591 0.050852858 0.08191969 0.0036182285
00000000: 9bcb 123d 8ea3 c3bd 4532 56bd 42b8 223c
00000010: 5328 c1bd 6f26 1e3e 310c 15bd fe12 fdbd
00000020: dcd4 09be 2dfa 5abe 8f5c 70be 6d03 853d
00000030: 2d9f c6bd e094 32bb e533 67bd f7b8 40bb
00000040: 2d23 d4bd d456 79be d59f 44bd c2f6 f1bd
00000050: bfc3 0bbe 73b6 1abe 4182 803d 97e5 c53c
00000060: 3d15 0c3d 60af 3a3d 937e 9cbd 9a36 05be
00000070: f3cd f0bd 861a bcbd af60 813c 586a 0f3d
00000080: 5cef 073c cfc1 063e cfcc 5fbd 54c1 3cbe
00000090: eb33 893c 7534 043e 6eed 5ebe 2462 f8bc
000000a0: eda9 7f3d 62d6 b13b 6f7f 11be e3ce 00be
000000b0: 5983 c23b 78cb 52bd b904 48bd 12b3 2fbe
000000c0: 2201 313d 9e7b 54bc 0c08 523e 1a85 c73c
000000d0: 6b88 fcbd a29c f23d a3ac 0dbe a680 80bd
000000e0: c7a0 933d d48e 90bd a558 e0bb c8e9 923d
000000f0: 6c2c 1d3f 164b 503d 83c5 a73d cd1f 6d3b

mlp_layers.4.weight f4 [1, 64]
0.1382732 0.011632071 0.059620224 -0.0025936745 0.0055537666 0.07873245 0.14530149 0.07190907
-0.005956284 -0.13869943 -0.041955777 -0.009822637 0.061851844 0.014498374 0.026225975 -0.030402618
0.035220552 0.022448447 0.051775835 0.039792117 -0.0006419038 -0.20104565 0.018491711 -0.08300478
0.022944484 0.01144809 -0.38009512 -0.08003455 0.010896905 0.13991581 0.08062876 0.19384107
-0.096785404 0.06972897 0.032108914 0.04016601 -0.18925104 0.021749485 -0.05968521 0.119144775
0.033423565 0.010837349 0.04385149 -0.03156994 -0.019440688 -0.059247293 0.047394425 -0.07891603
0.10448297 0.097954646 -0.10065159 0.05667375 -0.18495923 -0.067690425 -0.055311333 0.019362466
0.17293684 -0.29145277 0.01515912 0.1268423 -0.52046376 0.03621021 0.07105234 -0.08879198
00000000: 7d97 0d3e 7194 3e3c 5634 743d a3fa 29bb
00000010: 5ffc b53b 7b3e a13d eac9 143e 1045 933d
00000020: ee2c c3bb 3907 0ebe d2d9 2bbd 20ef 20bc
00000030: 5c58 7d3d 978a 6d3c dbd7 d63c e90e f9bc
00000040: 6d43 103d cee5 b73c e612 543d 0ffd 223d
00000050: 6f45 28ba e9de 4dbe ee7b 973c 69fe a9bd
00000060: 12f6 bb3c c590 3b3c d49b c2be 27e9 a3bd
00000070: ef88 323c 1746 0f3e b120 a53d 467e 463e
00000080: 6d37 c6bd 10ce 8e3d a384 033d 1d85 243d
00000090: 06cb 41be fa2b b23c 7b78 74bd 2d02 f43d
000000a0: 26e7 083d 238f 313c 9f9d 333d 7b4f 01bd
000000b0: 1442 9fbc 4aad 72bd a820 423d ba9e a1bd
000000c0: 2bfb d53d 729c c83d 6c22 cebd bc22 683d
000000d0: f465 3dbe 47a1 8abd 238e 62bd 099e 9e3c
000000e0: 5b16 313e 4c39 95be f55d 783c f3e2 013e
000000f0: 1d3d 05bf 2851 143d e483 913d 92d8 b5bd

conv_layers.0.w_1.weight f4 [64, 64]
-0.18122165 0.0055849254 -0.016983122 -0.12337929 0.025729835 0.010141298 0.03449683 -0.07679948
-0.1227376 -0.08968747 -0.11895709 -0.11062716 0.060815617 -0.09095763 0.12412973 -0.09140891
-0.11396612 -0.014422253 0.078155905 0.005634442 0.074819416 -0.12267412 -0.079221904 0.039971784
0.121126354 -0.062251374 -0.087577045 0.11107752 0.033840373 -0.08219032 -0.046435475 0.048931032
-0.08354138 -0.11510825 0.05704309 -0.045408472 -0.10379961 0.0042764693 0.059330285 0.057052538
0.022134215 0.073218584 0.007858232 0.052635327 -0.036250263 0.10357916 -0.044809073 -0.014321774
-0.005690962 -0.03794758 0.09151137 -0.08958562 0.0005608201 0.052509755 0.015901983 0.053283677
-0.07717559 0.07006535 0.11565174 -0.022315621 0.04809226 0.11322102 0.112073675 -0.067742884
-0.24147832 0.043570906 0.01629667 -0.022176579 -0.08832592 0.07705633 -0.07939921 -0.1234141
-0.119388014 0.08444585 0.04475981 0.04005158 0.032855123 0.0006136447 0.044283733 0.060077816
-0.060585976 0.0838612 0.03268969 -0.05272314 0.06836702 0.116208434 0.0054166913 -0.026306793
0.12377404 -0.05282058 -0.043182164 0.05319929 0.041267842 -0.07003927 0.07872969 -0.11851692
-0.028633624 0.006250873 0.0026843399 0.012861788 0.06488393 0.1235923 0.0045268387 -0.07291472
-0.008421436 -0.10123496 -0.014981896 0.026782602 0.024678767 0.050651357 0.027187899 -0.08159791
-0.111972794 -0.044773206 0.05137293 0.09593797 0.11627635 0.04234281 0.043419614 -0.1151101
-0.06398989 0.071854666 -0.069458485 0.12318213 0.043137744 0.014938086 -0.060588226 0.031835437
0.045423932 0.054401234 0.061147615 0.0004799366 -0.08656512 0.098278 0.09679729 -0.021095082
0.08061904 0.060614258 -0.052033946 -0.047118813 0.017520994 -0.103429615 0.0063788146 -0.052572817
0.10079743 -0.033937573 -0.048158064 -0.0063102096 -0.10440378 -0.064202845 -0.10418983 0.1121171
0.0164586 0.04273005 0.11546253 0.0762991 0.045889765 0.08912717 -0.035475045 -0.0065440685
-0.121145934 0.06727621 -0.06211649 -0.0639424 -0.09966782 -0.05569431 0.027244508 0.036967367
-0.07693702 0.025547206 -0.061560676 -0.029838786 -0.07929814 -0.028363705 0.123275176 -0.089508384
0.11339261 0.08013204 0.0773332 -0.084465995 0.09874746 -0.11789426 -0.102950394 0.12197541
-0.058610365 0.006988585 0.021182567 0.097444504 -0.10647255 -0.045302585 -0.0143369585 -0.091861546
0.35772723 -0.03695722 -0.051544204 0.03470178 0.09676522 -0.07465531 -0.063338995 -0.032924056
0.032088414 -0.11167888 0.0690562 -0.04242851 0.083966255 -0.08742316 -0.0028060377 -0.043817773
-0.099789515 0.09340018 0.117825806 0.051184207 0.09131542 0.000957191 -0.02712433 -0.043771237
-0.050880015 -0.083471194 -0.0855992 -0.07278742 0.028550506 0.08181529 -0.052688003 0.009799585
0.056586802 0.09206636 0.026930153 0.057839125 0.11699529 0.109228075 -0.0004195124 0.07761802
-0.094263434 -0.08045712 -0.026662484 -0.09748915 0.079840705 -0.00994207 -0.063051194 0.035672918
0.077578396 -0.06196986 0.081826255 -0.10498595 -0.022106826 -0.0114225 0.06606676 -0.062747836
-0.12493287 -0.039435223 0.068887606 0.09352708 0.023127332 0.06764522 -0.08810185 -0.061679512
00000000: 2b92 39be c001 b73b 3020 8bbc 48ae fcbd
00000010: 60c7 d23c b027 263c 8c4c 0d3d 0c49 9dbd
00000020: da5d fbbd 10ae b7bd c69f f3bd 7e90 e2bd
00000030: cc19 793d fe47 babd ba37 fe3d 9834 bbbd
00000040: 1267 e9bd 504b 6cbc 3410 a03d 20a1 b83b
00000050: ec3a 993d 923c fbbd 183f a2bd 74b9 233d
00000060: 1811 f83d 4cfb 7ebd 985b b3bd 9c7c e33d
00000070: 349c 0a3d 6653 a8bd 2033 3ebd e86b 483d
00000080: be17 abbd e0bd ebbd 04a6 693d 3cfe 39bd
00000090: e494 d4bd a021 8c3b 5004 733d ecaf 693d
000000a0: d052 b53c a0f3 953d d0bf 003c 2498 573d
000000b0: 287b 14bd 5021 d43d b889 37bd e0a5 6abc
000000c0: 407b babb ec6e 1bbd 506a bb3d aa78 b7bd
000000d0: 0004 133a 7814 573d e044 823c fc3f 5a3d
000000e0: 3c0e 9ebd 6c7e 8f3d d2da ec3d 40cf b6bc
000000f0: 64fc 443d 6ce0 e73d e286 e53d c8bc 8abd
00000100: 1846 77be 6877 323d 9880 853c a8ab b5bc
00000110: 38e4 b4bd b6cf 9d3d 0e9c a2bd 88c0 fcbd
00000120: b481 f4bd f2f1 ac3d 1056 373d 200d 243d
00000130: 1893 063d 00dd 203a dc62 353d 2814 763d
00000140: 0029 78bd 6cbf ab3d a0e5 053d 38f4 57bd
00000150: 0204 8c3d b0fe ed3d 807e b13b 5881 d7bc
00000160: 3e7d fd3d 645a 58bd c8df 30bd 80e7 593d
00000170: 7808 293d c070 8fbd 083d a13d 00b9 f2bd
00000180: 1091 eabc 20d4 cc3b c0eb 2f3b 40ba 523c
00000190: dee1 843d f61d fd3d e055 943b 5054 95bd
000001a0: 10fa 09bc 4654 cfbd a076 75bc 3067 db3c
000001b0: 202b ca3c cc77 4f3d 28b9 de3c ce1c a7bd
000001c0: fe51 e5bd 1c64 37bd 6c6c 523d 207b c43d
000001d0: 4c22 ee3d a86f 2d3d c4d8 313d d8be ebbd
000001e0: 220d 83bd 8a28 933d 4040 8ebd ea46 fc3d
000001f0: 34b1 303d e0be 743c 5c2b 78bd e065 023d
00000200: 720e 3a3d d4d3 5e3d ec75 7a3d 00a0 fb39
00000210: 0e49 b1bd fa45 c93d a83d c63d 98cf acbc
00000220: 981b a53d a846 783d 8c21 55bd a8ff 40bd
00000230: 3088 8f3c e8d2 d3bd 6005 d13b 9856 57bd
00000240: e26e ce3d 2002 0bbd 6441 45bd e0c5 cebb
00000250: a6d1 d5bd c87c 83bd 7a61 d5bd a69d e53d
00000260: 30d4 863c b405 2f3d 9e77 ec3d b442 9c3d
00000270: e8f6 3b3d 4e88 b63d 484e 11bd a06f d6bb
00000280: 5c1b f8bd 1cc8 893d dc6d 7ebd 3cf4 82bd
00000290: a41e ccbd b81f 64bd e02f df3c 186b 173d
000002a0: 2891 9dbd 6048 d13c 0c27 7cbd 7870 f4bc
000002b0: 1067 a2bd 005b e8bc b277 fc3d 2c50 b7bd
000002c0: 623a e83d 441c a43d de60 9e3d 82fc acbd
000002d0: 1c3c ca3d 8c72 f1bd a8d7 d2bd 3ece f93d
000002e0: 6c11 70bd 8000 e53b 1087 ad3c fc90 c73d
000002f0: 480e dabd 348f 39bd 90e5 6abc e821 bcbd
00000300: 0628 b73e 7460 17bd 0420 53bd 7423 0e3d
00000310: d82c c63d e2e4 98bd e0b7 81bd 60db 06bd
00000320: 246f 033d e6b7 e4bd 566d 8d3d 84c9 2dbd
00000330: 80f6 ab3d ea0a b3bd 80e5 37bb 447a 33bd
00000340: 725e ccbd 9848 bf3d a84e f13d 88a6 513d
00000350: 9403 bb3d 00ec 7a3a d833 debc 7849 33bd
00000360: 9067 50bd f2f2 aabd a24e afbd 9211 95bd
00000370: c0e2 e93c c68e a73d 60cf 57bd 708e 203c
00000380: 90c7 673d 4a8d bc3d a09c dc3c b8e8 6c3d
00000390: 3a9b ef3d f8b2 df3d 00f2 dbb9 32f6 9e3d
000003a0: 300d c1bd b4c6 a4bd 486b dabc 64a8 c7bd
000003b0: 8683 a33d 10e4 22bc fc20 81bd c41d 123d
000003c0: 6ce1 9e3d 1cd4 7dbd 8694 a73d e002 d7bd
000003d0: 6019 b5bc 7025 3bbc 024e 873d f081 80bd
000003e0: cedc ffbd d486 21bd f214 8d3d 208b bf3d
000003f0: 8875 bd3c 9489 8a3d be6e b4bd a8a3 7cbd

conv_layers.0.w_1.bias f4 [64]
-0.041778903 -0.17692377 -0.0030150886 0.32950068 -0.09611191 -0.04611141 0.07643963 -0.013121477
0.08022434 0.10575087 -0.26505652 -0.2132133 -0.06609975 -0.14322534 -0.19424896 0.06657032
0.1115856 -0.24538618 0.10544411 -0.12817933 -0.11967068 -0.07325018 -0.09432819 0.1235388
0.0736218 -0.14909829 -0.00014268432 -0.13208555 -0.022221893 0.077490695 0.34658954 0.008273801
-0.03865273 -0.056701846 0.14915586 0.19239596 0.05456105 -0.09448859 -0.3056517 0.06280845
-0.39471596 -0.01947284 -0.1657525 0.10871164 0.11034529 -0.22564402 -0.12284312 -0.12007601
-0.07669711 -0.2373267 0.16939889 -0.098375 0.13722771 -0.04850409 -0.0152546605 -0.018780475
-0.14429413 -0.21044868 0.073297486 -0.032323964 -0.004488336 -0.18940899 0.05729122 -0.2771227
00000000: 5b20 2bbd 812b 35be cb98 45bb 50b4 a83e
00000010: 52d6 c4bd 51df 3cbd 618c 9c3d 77fb 56bc
00000020: a94c a43d ea93 d83d 7db5 87be 9654 5abe
00000030: 4e5f 87bd aaa9 12be 33e9 46be 0556 883d
00000040: fe86 e43d 8446 7bbe 15f3 d73d 7141 03be
00000050: e715 f5bd 3104 96bd 232f c1bd e901 fd3d
00000060: 07c7 963d 39ad 18be 889d 15b9 6f41 07be
00000070: b00a b6bc 71b3 9e3d 2f74 b13e d68e 073c
00000080: 5352 1ebd 3240 68bd 50bc 183e 7203 453e
00000090: 687b 5f3d 3c83 c1bd 617e 9cbe b7a1 803d
000000a0: 3618 cabe 8185 9fbc 06bb 29be 35a4 de3d
000000b0: b6fc e13d 3a0f 67be 2c95 fbbd 69ea f5bd
000000c0: 6013 9dbd c505 73be e776 2d3e d578 c9bd
000000d0: 6c85 0c3e 3aac 46bd afee 79bc 83d9 99bc
000000e0: d7c1 13be dc7f 57be fe1c 963d 2266 04bd
000000f0: e412 93bb 6ef4 41be 33aa 6a3d 07e3 8dbe

conv_layers.0.w_2.weight f4 [64, 64]
0.09521836 0.024959229 0.02701796 -0.09245324 -0.010069282 -0.062313803 0.07552613 0.028255437
0.09691469 -0.1118316 -0.20063035 0.029032854 0.21373771 0.0016759499 0.19576977 0.042245086
0.099209234 -0.09874359 0.021611253 -0.08709652 0.1745767 0.12843017 -0.038080387 -0.052973937
0.1448589 0.1776008 0.23833512 -0.06333936 0.15320267 0.03183374 0.13121009 -0.051497106
0.053205997 -0.08293448 -0.20882505 0.057117548 0.029521089 0.0032977269 -0.13238126 0.0990148
-0.049824048 0.049091358 -0.13758166 0.0049537867 -0.057301413 -0.13152178 -0.09944958 0.11879741
-0.05537069 0.09580285 -0.17977722 -0.014210815 -0.22844504 0.00076558546 0.11458323 0.07314666
-0.059044696 -0.06475355 -0.114274174 0.061634574 0.03034635 0.05175805 0.12294869 0.09589367
0.05841083 0.0041150046 -0.08914753 -0.11896043 -0.05157315 -0.06818366 -0.074815944 0.03949684
0.120975845 -0.06908087 -0.09947129 0.11112952 -0.09997644 -0.09737508 -0.08731671 -0.18182735
-0.05184638 0.0034846729 0.001002997 -0.090673424 -0.13147244 0.0035499004 -0.048127342 -0.11594439
0.15264457 0.21904661 0.23425363 0.051013127 0.08468845 -0.0015970187 -0.1200571 -0.12984198
0.07710917 -0.15145554 0.018581012 0.05599349 0.049209975 0.10719018 -0.061315123 0.16676177
0.15048885 0.19773965 -0.14268523 -0.14772329 -0.26212102 -0.10351791 0.05409457 0.08554543
0.06446356 0.21306518 0.0652765 -0.009396397 0.051430542 -0.11548256 -0.11215081 0.06453555
0.10084631 0.06280979 0.0072468487 -0.08679815 -0.06650269 -0.063236006 0.019271137 -0.04544615
-0.05958008 0.024343926 -0.02998506 -0.19469357 0.036441963 0.012147496 0.13621046 0.13120463
0.035462644 -0.015672687 0.0037100245 0.17175947 0.04699819 0.1001243 0.34377858 0.06582738
0.020016462 -0.22924241 -0.12072746 -0.1328552 0.119460925 0.17557381 0.0023816805 0.06802234
-0.0121227205 0.0858316 0.15465108 0.031890426 0.040208813 0.047764145 0.13719122 -0.025007095
0.12805995 -0.004132264 -0.13965356 0.005650392 0.10728313 0.11650546 -0.00077336165 -0.03630166
0.18370797 0.098177515 0.11626002 0.008702278 -0.14386606 -0.12482352 0.05009849 0.09598123
0.030854927 0.2708815 -0.019164875 0.004157214 -0.113373384 0.08554852 -0.047784477 0.043388654
-0.034545988 -0.014002059 0.019367881 -0.109091155 0.13381082 0.08675322 -0.037649 0.11256213
-0.053277317 -0.10955614 -0.04465623 -0.0068526603 0.009486516 -0.11932654 0.14238712 0.2361422
0.030291146 0.08182435 0.05329053 0.124730505 -0.12362294 0.048386652 0.12488194 -0.19783746
0.120532095 -0.002383284 0.049266797 -0.00731494 0.034028906 0.12988514 0.00261533 0.027395638
-0.082002066 0.032767974 0.045990504 -0.09965649 0.2301268 -0.048177727 0.21320313 -0.18365097
0.058108937 -0.0015524683 0.15685038 0.07915614 -0.1890576 0.09186468 0.109756894 0.035252374
-0.06800584 0.15089254 0.0502665 -0.10666305 -0.10217684 0.124836676 0.040758964 0.111315615
0.12938368 0.039375693 0.009976274 -0.055388883 0.11835634 -0.008700021 0.020270765 -0.10266038
0.15536301 0.07269648 0.106070004 -0.0138454465 0.14770068 0.11468619 0.1727085 0.060886372
00000000: d801 c33d 4c77 cc3c c554 dd3c 2058 bdbd
00000010: a1f9 24bc c23c 7fbd 72ad 9a3d f277 e73c
00000020: 367b c63d f707 e5bd 0b72 4dbe 4fd6 ed3c
00000030: 0fde 5a3e 8cab db3a df77 483e 2f09 2d3d
00000040: 362e cb3d 143a cabd 150a b13c a95f b2bd
00000050: 3cc4 323e 3383 033e 2efa 1bbd 33fb 58bd
00000060: e455 143e fcdc 353e 1f0e 743e 11b8 81bd
00000070: 29e1 1c3e 1964 023d f05b 063e a1ee 52bd
00000080: 88ee 593d 8dd9 a9bd 3cd6 55be 17f4 693d
00000090: 36d6 f13c ad1e 583b f48e 07be 45c8 ca3d
000000a0: 4d14 4cbd 0514 493d 35e2 0cbe 6053 a23b
000000b0: e3b4 6abd a5ad 06be 39ac cbbd 0e4c f33d
000000c0: 60cc 62bd 4934 c43d 8517 38be 7ad4 68bc
000000d0: 7fed 69be 92b1 483a 9daa ea3d ebcd 953d
000000e0: dad8 71bd 829d 84bd 9408 eabd 8974 7c3d
000000f0: e998 f83c 4000 543d 86cc fb3d e763 c43d
00000100: 3240 6f3d 29d7 863b fb92 b6bd 87a1 f3bd
00000110: 5e3e 53bd e0a3 8bbd 1a39 99bd 70c7 213d
00000120: 2fc2 f73d 457a 8dbd 9bb7 cbbd e097 e33d
00000130: 73c0 ccbd 966c c7bd 1ad3 b2bd f330 3abe
00000140: df5c 54bd 1c5f 643b ff76 833a fdb2 b9bd
00000150: b6a0 06be 72a5 683b 2d21 45bd 4174 edbd
00000160: dc4e 1c3e c14d 603e 2fe0 6f3e 24f3 503d
00000170: 2371 ad3d 0e53 d1ba 7fe0 f5bd 4cf5 04be
00000180: 6aeb 9d3d 2917 1bbe 3537 983c 6e59 653d
00000190: 6690 493d 8686 db3d 9125 7bbd 99c3 2a3e
000001a0: c019 1a3e 437c 4a3e 141c 12be c644 17be
000001b0: ba34 86be 3301 d4bd 4592 5d3d 7132 af3d
000001c0: 7905 843d c22d 5a3e b0af 853d 58f3 19bc
000001d0: d5a8 523d 1f82 ecbd 53af e5bd 372b 843d
000001e0: 8388 ce3d 6ba2 803d f976 ed3b 3ac3 b1bd
000001f0: 9032 88bd e181 81bd 81de 9d3c be25 3abd
00000200: 3e0a 74bd ea6c c73c 3ba3 f5bc c05d 47be
00000210: 2b44 153d 4b06 473c c17a 0b3e 825a 063e
00000220: 4741 113d 0264 80bc e223 733b b7e1 2f3e
00000230: 2d81 403d f80d cd3d bf03 b03e 81d0 863d
00000240: 90f9 a33c 86be 6abe f53f f7bd 320b 08be
00000250: eea7 f43d 9fc9 333e f815 1c3b 4c4f 8b3d
00000260: 609e 46bc 7ac8 af3d da5c 1e3e 899f 023d
00000270: ffb1 243d 56a4 433d db7b 0c3e aedb ccbc
00000280: 2622 033e f167 87bb 5801 0fbe ec26 b93b
00000290: 42b7 db3d 6a9a ee3d 6cbb 4aba 0db1 14bd
000002a0: f11d 3c3e 4b11 c93d bc19 ee3d 0094 0e3c
000002b0: a051 13be 79a3 ffbd 1334 4d3d cf91 c43d
000002c0: 79c3 fc3c fbb0 8a3e a8ff 9cbc 3d39 883b
000002d0: 4e30 e8bd 1034 af3d a8b9 43bd 4db8 313d
000002e0: 1880 0dbd e468 65bc 64a9 9e3c 2f6b dfbd
000002f0: b405 093e acab b13d d635 1abd f986 e63d
00000300: 5139 5abd f85e e0bd 73e9 36bd 488c e0bb
00000310: 556d 1b3c 7961 f4bd eecd 113e 43cf 713e
00000320: 2325 f83c 8693 a73d 2c47 5a3d b572 ff3d
00000330: 062e fdbd 1531 463d 1ac2 ff3d e795 4abe
00000340: 88d9 f63d df30 1cbb fbcb 493d 2ab2 efbb
00000350: e561 0b3d 9c00 053e f565 2b3b d16c e03c
00000360: b3f0 a7bd b637 063d 8a60 3c3d b418 ccbd
00000370: 5ca6 6b3e 0256 45bd ec51 5a3e 000f 3cbe
00000380: a303 6e3d 317c cbba 639d 203e 9d1c a23d
00000390: 5198 41be 8d23 bc3d 39c8 e03d cb64 103d
000003a0: a546 8bbd 9383 1a3e 3fe4 4d3d 2872 dabd
000003b0: 1742 d1bd 5faa ff3d dff2 263d 71f9 e33d
000003c0: 287d 043e 6848 213d 8773 233c 74df 62bd
000003d0: cf64 f23d 888a 0ebc e00e a63c 9b3f d2bd
000003e0: 7b17 1f3e e4e1 943d 3b3b d93d 03d8 62bc
000003f0: d93e 173e 98e0 ea3d 7fda 303e fd63 793d

conv_layers.0.w_2.bias f4 [64]
-0.14966029 -0.28244796 -0.11226245 0.19664706 -0.17345437 -0.19704062 0.14024371 0.13396378
-0.021491077 0.11229027 -0.117986165 -0.16117975 -0.11401913 0.021418868 -0.2517836 0.044234756
0.08310058 -0.14101015 0.29679427 0.021451274 -0.1252005 -0.044137605 -0.02377137 0.11307008
-0.006014141 -0.025359103 -0.038565185 -0.090614356 -0.08470146 0.1448487 0.331562 0.014418455
0.001283654 -0.17805393 0.21675475 0.024699083 -0.06671186 -0.1900412 -0.20502126 0.1395622
-0.476611 -0.0054890015 -0.20102753 -0.09449139 0.24152443 0.008683872 0.061678205 0.10150491
-0.16508849 -0.43604645 -0.024202053 -0.11501132 -0.011931145 -0.120805696 -0.004822064 0.14495184
-0.054516442 -0.07274502 0.00080197875 0.001285307 0.010090179 -0.2790038 -0.17405026 -0.10951295
00000000: 8c40 19be 059d 90be dbe9 e5bd d95d 493e
00000010: 069e 31be 04c5 49be 0c9c 0f3e cd2d 093e
00000020: 0e0e b0bc 71f8 e53d bba2 f1bd 4e0c 25be
00000030: dd82 e9bd 9f76 af3c c8e9 80be 812f 353d
00000040: a330 aa3d f764 10be 6bf5 973e 95ba af3c
00000050: 8f34 00be a2c9 34bd 2dbc c2bc 4991 e73d
00000060: 4512 c5bb e5bd cfbc 87f6 1dbd 0594 b9bd
00000070: f677 adbd 3853 143e 7fc2 a93e 623b 6c3c
00000080: 4840 a83a c553 36be f5f4 5d3e bb55 ca3c
00000090: 3aa0 88bd 299a 42be 18f1 51be 65e9 0e3e
000000a0: 5b06 f4be 15dd b3bb 29da 4dbe b484 c1bd
000000b0: 2e52 773e cd46 0e3c 49a2 7c3d cee1 cf3d
000000c0: f50c 29be 7b41 dfbe 6243 c6bc 0e8b ebbd
000000d0: d97a 43bc fa68 f7bd 6802 9ebb 416e 143e
000000e0: a24c 5fbd 57fb 94bd e23b 523a bf77 a83a
000000f0: 4751 253c 96d9 8ebe 3b3a 32be 5348 e0bd
