experiments/02_tune_models/selected_trained_models/chebnet_rel_mc/model_state_dict.pt (torch_old, 168942 bytes, 15 tensors)

mlp_layers.0.weight f4 [64, 64]
-0.035253003 -0.039714187 -0.14814284 -0.13678889 0.15826218 -0.1370844 -0.023167828 0.051013526
-0.070555106 -0.14955787 0.10177591 -0.1343084 0.15447253 -0.10844271 0.30672625 0.16191214
-0.069492176 0.035212826 0.153287 -0.12616967 -0.008416811 -0.078882314 -0.03592723 -0.14015678
-0.115577914 -0.010556544 -0.076612204 0.17622314 0.05900426 0.014520576 0.05946543 0.008658337
0.01765522 -0.11243375 0.23174103 -0.022507012 0.16866207 0.13996117 0.10069479 0.059553865
0.013882166 0.30489329 0.16671617 -0.20182733 0.18458018 -0.12955469 0.0924278 0.12863442
0.07114183 0.12392063 0.1416006 -0.023819564 0.0047179824 0.04203137 0.13612008 0.12096287
0.035644215 0.07596465 0.17684828 0.26605302 0.03909956 -0.24184841 0.08429504 0.22460942
-0.026966684 0.13411333 -0.098591596 0.007644085 -0.06526839 0.040667746 0.006510049 -0.09761429
0.021368232 -0.16501868 0.10518216 -0.092103295 -0.025004726 -0.106140524 0.13918896 0.1315774
-0.050122607 0.034000646 0.044933654 -0.07213021 -0.04930103 0.01017202 0.07398774 -0.14439714
-0.11204556 0.030704625 -0.13901798 -0.029340306 0.05008613 -0.099705406 -0.03900096 -0.033750042
-0.11506649 -0.044450242 -0.012741135 0.0411884 0.10133478 0.1210691 -0.021188485 -0.08491239
-0.09071172 0.028520333 -0.08867275 -0.14915346 -0.019147284 0.028836275 -0.02187362 0.10578292
-0.05288479 0.07758846 0.022610696 0.011847282 0.08326213 0.12700441 0.06390919 0.033640977
-0.14020586 0.047208436 0.0180464 0.08560326 -0.09077252 -0.12861733 0.09417086 0.070210315
0.0015826715 -0.03794501 -0.10522055 -0.14853863 0.092834674 -0.10918277 -0.039957497 -0.030520445
-0.11085651 -0.17109856 0.16742377 -0.07273935 0.2362734 -0.012491574 0.16974993 0.15611723
-0.027880607 0.07980585 0.15094222 -0.08529036 0.1530082 -0.20779717 -0.13835204 -0.18469743
-0.0878959 0.08703071 -0.07397772 0.2072656 0.078251764 -0.020271096 0.017262748 -0.08552438
-0.117387384 0.07263576 0.22587326 -0.0648347 0.117493615 -0.031447608 0.038086385 -0.058989152
0.020271558 0.11259081 -0.095030606 0.036083516 0.19079156 -0.12795098 -0.012543735 0.07124571
-0.09553301 0.21201836 -0.002199733 0.066359736 0.054713704 0.0018411856 0.20681675 0.115303434
0.08209625 0.20002384 0.153661 0.1757573 -0.0760247 0.006160816 0.0023120232 0.101815976
-0.10786215 -0.14352915 -0.12445716 0.07937234 0.03541573 -0.038023714 -0.08152225 -0.07343561
-0.039315253 -0.011751638 -0.10903961 -0.019526217 -0.048669953 -0.02812042 0.03989163 -0.05479912
-0.025287505 -0.060412113 -0.11517475 0.14450793 0.012249548 0.032526657 0.029203778 0.08448054
0.017448593 -0.014620094 0.063582934 -0.14413689 0.023930771 -0.05787915 0.038031653 -0.09795462
0.1398548 0.15824677 0.070221335 0.16340035 -0.093795024 0.059204362 0.096330285 -0.09013368
-0.04260543 0.007563827 -0.075868584 -0.036265597 0.03497831 0.13542028 -0.058061257 -0.07931765
-0.05271754 -0.10784241 -0.038551383 0.09755824 -0.07063243 -0.057603266 -0.10646721 0.010693798
-0.062912814 0.07540294 0.06909002 -0.032343853 0.16666424 0.11285381 -0.01652418 -0.04888265
00000000: 7465 10bd 58ab 22bd c2b2 17be 6312 0cbe
00000010: 7b0f 223e da5f 0cbe 75ca bdbc 8ff3 503d
00000020: 327f 90bd b325 19be e36f d03d 2488 09be
00000030: 0c2e 1e3e 3617 debd 390b 9d3e 4ccc 253e
00000040: ea51 8ebd 533b 103d 44f7 1c3e 9f32 01be
00000050: aae6 09bc 0d8d a1bd 6e28 13bd 4285 0fbe
00000060: 1db4 ecbd 5bf5 2cbc dce6 9cbd d773 343e
00000070: 73ae 713d b6e7 6d3c 0692 733d b3db 0d3c
00000080: aea1 903c aa43 e6bd 854d 6d3e a060 b8bc
00000090: c0b5 2c3e fb51 0f3e 1239 ce3d c1ee 733d
000000a0: 0672 633c f91a 9c3e a5b7 2a3e d3ab 4ebe
000000b0: 9602 3d3e fca9 04be c94a bd3d beb8 033e
000000c0: cfb2 913d 19ca fd3d bfff 103e 3f21 c3bc
000000d0: 4e99 9a3b 1629 2c3d 1063 0b3e 62bb f73d
000000e0: abff 113d 5b93 9b3d b717 353e 1a38 883e
000000f0: dc26 203d 1ca7 77be e1a2 ac3d 0300 663e
00000100: 3ce9 dcbc 0155 093e 64ea c9bd 3c7b fa3b
00000110: 6fab 85bd 3993 263d 4052 d53b 00ea c7bd
00000120: 6e0c af3c a8fa 28be bf69 d73d a7a0 bcbd
00000130: b6d6 ccbc 3460 d9bd 8d87 0e3e 3abc 063e
00000140: 5d4d 4dbd 4344 0b3d 5a0c 383d 01b9 93bd
00000150: e0ef 49bd 8ba8 263c e286 973d d8dc 13be
00000160: 2478 e5bd 4488 fb3c bb5a 0ebe 155b f0bc
00000170: 1d27 4d3d 5932 ccbd 78bf 1fbd 7c3d 0abd
00000180: fba7 ebbd 7511 36bd 32c0 50bc 2bb5 283d
00000190: 9c88 cf3d 14f3 f73d 7993 adbc 8ce6 adbd
000001a0: 11c7 b9bd 79a3 e93c 0f9a b5bd afbb 18be
000001b0: c4da 9cbc 0d3a ec3c 4e30 b3bc b7a4 d83d
000001c0: b99d 58bd b3e6 9e3d 113a b93c 1a1b 423c
000001d0: 5685 aa3d 720d 023e d2e2 823d 1fcb 093d
000001e0: 2092 0fbe a25d 413d 0bd6 933c c350 af3d
000001f0: f1e6 b9bd 43b4 03be a7dc c03d 6dca 8f3d
00000200: a571 cf3a 3a6c 1bbd df7d d7bd 831a 18be
00000210: 1b20 be3d 379b dfbd 79aa 23bd 0306 fabc
00000220: bd08 e3bd 7634 2fbe 2371 2b3e 5ef8 94bd
00000230: a7f1 713e 75a9 4cbc edd2 2d3e 32dd 1f3e
00000240: df65 e4bc 4071 a33d 9990 1a3e b6ac aebd
00000250: 2eae 1c3e c8c8 54be 28ac 0dbe 5321 3dbe
00000260: c402 b4bd 283d b23d a281 97bd 6f3d 543e
00000270: 7642 a03d 920f a6bc 9b6a 8d3c 6827 afbd
00000280: cc68 f0bd 0fc2 943d 524b 673e 0ec8 84bd
00000290: 7ea0 f03d 35cf 00bd 7800 1c3d 9c9e 71bd
000002a0: 8a10 a63c 0396 e63d 689f c2bd 4fcc 133d
000002b0: dd5e 433e 9505 03be 3d84 4dbc 45e9 913d
000002c0: d0a6 c3bd 571b 593e 6529 10bb 9de7 873d
000002d0: 7a1b 603d f053 f13a c5c7 533e 3524 ec3d
000002e0: 1422 a83d 0dd3 4c3e 4f59 1d3e b9f9 333e
000002f0: d7b2 9bbd ace0 c93b 5085 173b e584 d03d
00000300: d5e6 dcbd 4ef9 12be 65e3 febd f78d a23d
00000310: 1610 113d c1be 1bbd 23f5 a6bd 6965 96bd
00000320: 0809 21bd f189 40bc 2950 dfbd 72f5 9fbc
00000330: 255a 47bd cc5c e6bc 6865 233d 0b75 60bd
00000340: be27 cfbc b172 77bd bde0 ebbd e3f9 133e
00000350: 54b2 483c ac3a 053d c33c ef3c 2204 ad3d
00000360: 5af0 8e3c 1e89 6fbc c537 823d 9f98 13be
00000370: 770a c43c b012 6dbd 14c7 1b3d 6f9c c8bd
00000380: 1936 0f3e 710b 223e 34d0 8f3d 6c52 273e
00000390: 9b17 c0bd 4680 723d d048 c53d 0298 b8bd
000003a0: 0883 2ebd fbd9 f73b fd60 9bbd 3c8b 14bd
000003b0: 6b45 0f3d 9dab 0a3e a4d1 6dbd 4b71 a2bd
000003c0: 59ee 57bd 7bdc dcbd 0ee8 1dbd 9dcc c73d
000003d0: bca7 90bd 67f1 6bbd 7b0b dabd 0a35 2f3c
000003e0: 6fd8 80bd db6c 9a3d 127f 8d3d fd7a 04bd
000003f0: 08aa 2a3e e61f e73d b85d 87bc 2c39 48bd

mlp_layers.0.bias f4 [64]
-0.06802261 0.0867962 0.059693955 0.06458747 -0.12764747 -0.038544465 -0.045249008 -0.114313036
-0.16623409 0.15197517 0.077246755 -0.07610924 -0.035604008 -0.03665018 -0.08491575 0.09059243
0.081699 -0.0322412 0.11909777 0.08803896 0.17244944 0.01832745 0.011078394 0.069084495
-0.047136877 -0.09643036 -0.18035552 0.0037537739 -0.2014115 0.08225579 -0.17001015 0.027644135
-0.012939948 -0.07243963 0.06779767 0.15643771 0.032196607 0.058036674 -0.025005596 0.08858412
-0.113306016 -0.18522255 0.037940767 0.008154747 -0.14668424 -0.039776426 -0.13430473 -0.053526286
0.015657242 -0.15727444 -0.06452953 0.0757211 -0.16115549 0.058500264 -0.040264178 -0.054044917
0.11747711 -0.10212687 -0.10080549 -0.005731401 0.0401785 -0.123715416 0.16649634 -0.03318749
00000000: 704f 8bbd 35c2 b13d a681 743d 6f46 843d
00000010: 05b6 02be cde0 1dbd 0657 39bd f41c eabd
00000020: 4539 2abe 619f 1b3e 8c33 9e3d 29df 9bbd
00000030: 82d5 11bd 801e 16bd 4fe8 adbd 8688 b93d
00000040: ce51 a73d 590f 04bd 88e9 f33d c54d b43d
00000050: 9696 303e 7323 963c 2782 353c 2c7c 8d3d
00000060: 9912 41bd 487d c5bd 1eaf 38be e001 763b
00000070: d13e 4ebe b975 a83d 2417 2ebe f475 e23c
00000080: 1302 54bc 3b5b 94bd 81d9 8a3d 3531 203e
00000090: 97e0 033d ddb7 6d3d 89d8 ccbc 976b b53d
000000a0: fc0c e8bd fbaa 3dbe c767 1b3d 7d9b 053c
000000b0: 6534 16be 9bec 22bd 2e87 09be 613e 5bbd
000000c0: 9e43 803c 8d0c 21be 0f28 84bd aa13 9b3d
000000d0: f205 25be f99d 6f3d 0dec 24bd 345e 5dbd
000000e0: d797 f03d e427 d1bd 1c73 cebd 7ace bbbb
000000f0: 3692 243d 825e fdbd 047e 2a3e 9bef 07bd

mlp_layers.1.weight f4 [64, 64]
0.26649007 0.042839482 -0.015414624 -0.1378442 0.09644314 -0.110630356 -0.06985662 -0.105231486
-0.13870755 -0.07818525 0.07934544 -0.024331672 -0.07145053 0.122964114 -0.15427154 -0.0721214
-0.08178497 0.022893926 0.017820137 -0.14107132 -0.07494847 0.016138827 0.039006382 0.005622429
-0.015844649 0.09087227 0.079122916 0.03757406 0.22451426 0.07199241 0.10901163 0.033434957
0.104836136 0.17367233 0.068175174 -0.022577949 0.031993244 -0.07113045 0.033428494 -0.0043430803
-0.14796959 0.281675 0.062429197 -0.10108564 0.092623904 0.09046171 0.07019099 0.017706731
-0.12494274 0.061975703 0.02791836 -0.012185507 0.15866537 -0.08288002 0.06930688 -0.012755267
-0.118383765 -0.14840506 0.00036738339 -0.038452562 0.027198441 -0.09035672 -0.07770715 0.02844947
0.15470926 0.10628174 0.065074205 -0.16806772 0.29979032 -0.04050953 0.015941484 0.03790073
-0.14262661 -0.21070454 -0.090986714 -0.018540189 -0.10934224 0.14086802 0.022947097 -0.17198703
0.023153666 0.114925005 -0.22484806 -0.12465042 -0.15490922 0.03827415 0.028274752 -0.09184194
0.018563682 0.34785116 0.33143908 -0.10528689 0.35800886 0.021300308 0.28075585 -0.05906738
0.30312496 0.20190476 -0.14724395 -0.10377878 -0.08014547 -0.043448586 0.16142844 0.0309045
0.019059215 0.3004245 -0.16550575 -0.075775065 0.15888666 -0.044863082 0.14543517 0.13402213
0.011636465 -0.08538458 0.29026785 -0.12376777 0.15651123 -0.12706944 0.31340933 0.07505529
-0.13447714 0.096315965 0.09872487 -0.10502158 -0.10478445 -0.1074603 -0.2146007 -0.103290446
-0.047507122 -0.06189099 0.00689726 -0.09635306 -0.037381526 -0.0025695658 0.039144076 0.10838764
-0.034048487 -0.034069136 -0.05562911 -0.10745788 -0.11607867 0.060024805 0.035868753 -0.019674774
0.035291698 -0.09033974 0.075307965 -0.033748563 -0.091001585 0.083158225 0.076086394 0.018708551
-0.10152291 -0.026695963 -0.014589621 -0.019548912 0.0535545 0.010530841 0.01028307 -0.0039988807
0.103082575 -0.054749355 0.029029122 -0.03915249 -0.076055676 0.037881665 -0.08828865 -0.08237237
-0.080735356 0.090042055 -0.03425668 -0.09683368 0.06127364 0.07861736 -0.052370433 -0.11107796
0.07203688 -0.034945335 0.008790483 0.08391308 -0.039852675 0.043017086 -0.098129265 -0.06653379
0.02280297 -0.009524012 -0.04029011 0.08108313 -0.025343493 -0.025263118 0.02125345 -0.11253524
-0.21479239 0.106325805 0.013988 0.0651882 -0.02357683 0.1198001 -0.13786139 0.06872509
0.21977267 0.087855496 0.20305015 0.082435906 0.03966476 0.008316588 0.10024524 0.14600173
0.026424108 0.137114 -0.04277401 -0.04766913 -0.059875455 -0.11185554 0.022241373 0.10299746
-0.027373563 0.071758695 -0.060933195 -0.10561025 -0.0007394015 -0.089655794 -0.027128002 0.009497892
0.0098252855 -0.042163067 -0.07535843 0.13850471 -0.06118814 -0.111106195 -0.12459172 0.03745044
-0.1281651 0.104260564 -0.0005562648 0.0047282865 -0.07488865 0.039400607 -0.060965683 0.0025023138
-0.04384912 -0.027914025 0.018305082 0.1265851 0.0678664 -0.011306003 0.06106854 -0.021799304
-0.06199664 0.047459412 -0.012886406 0.09426054 -0.08234285 0.12253023 0.03062522 0.068429306
00000000: 6371 883e 7478 2f3d 9e8d 7cbc 0827 0dbe
00000010: fb83 c53d 2b92 e2bd fd10 8fbd 9b83 d7bd
00000020: 5a09 0ebe 971f a0bd dd7f a23d 3753 c7bc
00000030: a854 92bd 9cd4 fb3d 5cf9 1dbe 62b4 93bd
00000040: e17e a7bd 0b8c bb3c 89fb 913c 0075 10be
00000050: 957e 99bd 9335 843c 28c5 1f3d 5a3c b83b
00000060: a3cc 81bc 3e1b ba3d 320b a23d 42e7 193d
00000070: 11e7 653e c270 933d 7d41 df3d 18f3 083d
00000080: 54b4 d63d 29d7 313e 6d9f 8b3d 64f5 b8bc
00000090: 590b 033d d7ac 91bd 51ec 083d 6650 8ebb
000000a0: 5785 17be b537 903e c2b5 7f3d fd05 cfbd
000000b0: 9ab1 bd3d fd43 b93d 4bc0 8f3d b50d 913c
000000c0: fbe1 ffbd 3cda 7d3d 0bb5 e43c b9a5 47bc
000000d0: 2d79 223e 00bd a9bd c4f0 8d3d 78fb 50bc
000000e0: 3073 f2bd 7ff7 17be 5d9d c039 6f80 1dbd
000000f0: 44cf de3c f20c b9bd ed24 9fbd dd0e e93c
00000100: 1b6c 1e3e 3eaa d93d a045 853d f219 2cbe
00000110: 1e7e 993e 52ed 25bd b797 823c cc3d 1b3d
00000120: b60c 12be eec2 57be 3e57 babd 98e1 97bc
00000130: d3ee dfbd b53f 103e 8dfb bb3c 5e1d 30be
00000140: c2ac bd3c cd5d eb3d 923e 66be b848 ffbd
00000150: 86a0 1ebe 5bc5 1c3d 74a0 e73c a117 bcbd
00000160: dd12 983c 8c19 b23e 62b2 a93e a7a0 d7bd
00000170: f04c b73e fc7d ae3c 3bbf 8f3e a3f0 71bd
00000180: 3233 9b3e 1fc0 4e3e 1ec7 16be f889 d4bd
00000190: 4f23 a4bd 25f7 31bd 7f4d 253e 6f2b fd3c
000001a0: 1222 9c3c 3dd1 993e 577a 29be f52f 9bbd
000001b0: 2fb3 223e 5ac2 37bd f5ec 143e 193d 093e
000001c0: dfa6 3e3c 1cde aebd fd9d 943e f579 fdbd
000001d0: 7b44 203e 7e1e 02be 3077 a03e 96b6 993d
000001e0: 60b4 09be 4e41 c53d 4430 ca3d 8e15 d7bd
000001f0: 3b99 d6bd 2514 dcbd 49c0 5bbe f189 d3bd
00000200: d496 42bd 6881 7dbd 6902 e23b c154 c5bd
00000210: 5f1d 19bd 2966 28bb 8a55 203d 57fa dd3d
00000220: 6d76 0bbd 148c 0bbd 5adb 63bd e112 dcbd
00000230: a7ba edbd 92dc 753d 1deb 123d fe2c a1bc
00000240: 078e 103d 0b04 b9bd 103b 9a3d ef3b 0abd
00000250: 0a5f babd dc4e aa3d 2fd3 9b3d ad42 993c
00000260: 3eeb cfbd 7eb1 dabc 4e09 6fbc 0a25 a0bc
00000270: f75b 5b3d 8c89 2c3c 527a 283c 0b09 83bb
00000280: f51c d33d dc40 60bd 7bce ed3c 5d5e 20bd
00000290: 14c3 9bbd ce29 1b3d aed0 b4bd d8b2 a8bd
000002a0: 9458 a5bd f867 b83d bc50 0cbd bd50 c6bd
000002b0: 11fa 7a3d 2302 a13d 6182 56bd d77c e3bd
000002c0: 1288 933d d722 0fbd f505 103c 9fda ab3d
000002d0: 8f3c 23bd af32 303d fff7 c8bd de42 88bd
000002e0: 4bcd ba3c 9a0a 1cbc 3e07 25bd e90e a63d
000002f0: 289d cfbc 99f4 cebc b71b ae3c e078 e6bd
00000300: 89f2 5bbe 58c1 d93d ed2d 653c 6481 853d
00000310: 3224 c1bc c159 f53d 892b 0dbe bdbf 8c3d
00000320: 160c 613e 95ed b33d 61ec 4f3e 28d4 a83d
00000330: 8477 223d 4c42 083c 604d cd3d 7a81 153e
00000340: 5f77 d83c 9d67 0c3e cd33 2fbd b540 43bd
00000350: f73f 75bd 8414 e5bd 8a33 b63c 55f0 d23d
00000360: 863e e0bc 39f6 923d 1695 79bd 304a d8bd
00000370: 65d4 41ba 759d b7bd 8b3b debc 0c9d 1b3c
00000380: 3cfa 203c 2eb3 2cbd 8555 9abd 2ed4 0d3e
00000390: 6aa0 7abd a58b e3bd f229 ffbd a265 193d
000003a0: b63d 03be 9086 d53d 4cd2 11ba beef 9a3b
000003b0: 385f 99bd 8862 213d 27b7 79bd dcfd 233b
000003c0: 239b 33bd f4ab e4bc 8af4 953c 869f 013e
000003d0: 8afd 8a3d d03c 39bc 0123 7a3d 7494 b2bc
000003e0: 30f0 7dbd cd64 423d 8121 53bc ac0b c13d
000003f0: 5ea3 a8bd 21f1 fa3d bee1 fa3c aa24 8c3d

mlp_layers.1.bias f4 [64]
0.040505175 -0.12112626 -0.09963229 -0.06819532 0.0018318879 -0.04775286 0.011485209 -0.09079029
-0.23379037 0.043590102 -0.061428215 0.06061715 -0.07153046 -0.20017374 -0.0108844135 0.030273015
0.0013229519 0.04476318 -0.015142082 0.12081664 0.08802726 -0.1268898 0.09943302 0.16186336
-0.23652673 -0.008590434 0.06621249 -0.047953468 0.11706857 -0.17404127 -0.023484416 0.07319583
0.05723829 0.09764033 0.044577494 -0.08446772 0.038657133 -0.021758836 0.04435399 0.1697886
-0.13380696 0.16745034 -0.024079615 0.06848092 -0.0567329 -0.0028542723 0.13077688 0.08104999
-0.2089467 -0.052838124 0.07069679 -0.034819797 -0.04567921 -0.047033153 -0.20602143 0.08954977
0.06496549 0.074338265 0.04721459 0.14113511 -0.048287295 0.043537736 -0.05154091 0.07445453
00000000: c1e8 253d 0b11 f8bd 040c ccbd fda9 8bbd
00000010: f51b f03a 8198 43bd 752c 3c3c 42f0 b9bd
00000020: be66 6fbe 898b 323d 279c 7bbd b049 783d
00000030: 907e 92bd 58fa 4cbe 8a54 32bc 1dff f73c
00000040: e666 ad3a 9959 373d 7f16 78bc b76e f73d
00000050: a347 b43d 66ef 01be 8aa3 cb3d 82bf 253e
00000060: 1034 72be e4be 0cbc 6a9a 873d db6a 44bd
00000070: a5c1 ef3d e037 32be 6462 c0bc b2e7 953d
00000080: b272 6a3d a7f7 c73d e496 363d 69fd acbd
00000090: f156 1e3d 963f b2bc 88ac 353d 10dd 2d3e
000000a0: b104 09be 1a78 2b3e 9d42 c5bc b93f 8c3d
000000b0: c260 68bd be0e 3bbb 60ea 053e 8afd a53d
000000c0: 20f6 55be ca6c 58bd 7bc9 903d 349f 0ebd
000000d0: 201a 3bbd d6a5 40bd 48f7 52be df65 b73d
000000e0: a00c 853d a93e 983d 1664 413d b985 103e
000000f0: e6c8 45bd a054 323d 901c 53bd 9e7b 983d

mlp_layers.2.weight f4 [1, 64]
-0.12111079 -0.32180825 -0.022730486 0.02404365 -0.06863933 0.05761166 -0.15755749 -0.009702013
-0.26669884 0.1308606 0.14835961 -0.001036477 -0.0115496805 -0.21696642 0.06524604 0.03910705
0.044469647 0.012185918 -0.059178993 0.117705606 0.1570543 0.08023287 0.037942376 0.09428578
-0.23237546 -0.11788581 -0.029390886 0.0074183554 0.13859305 -0.1074386 -0.14672844 -0.02072136
0.019901883 0.066682905 0.00039860976 0.07549273 0.1758695 -0.10515303 0.0012604457 0.07911809
-0.21060677 0.14495967 0.026013967 0.1598453 -0.03389538 0.117365874 0.12218204 0.04874363
-0.23444635 0.07426033 -0.0719091 0.11181904 0.023121314 0.05455236 -0.21528693 -0.014367108
0.13307434 -0.042563777 0.07747031 0.17646602 0.07034383 0.094634116 0.011203152 0.14751977
00000000: ef08 f8bd 0dc4 a4be 4935 babc 30f7 c43c
00000010: c792 8cbd 34fa 6b3d c056 21be 31f5 1ebc
00000020: c08c 88be 5200 063e 95eb 173e 66da 87ba
00000030: df3a 3dbc 722c 5ebe b79f 853d b72e 203d
00000040: ce25 363d 72a7 473c ac65 72bd a30f f13d
00000050: d8d2 203e 2251 a43d 7769 1b3d e718 c13d
00000060: d5f3 6dbe 1e6e f1bd 28c5 f0bc ad15 f33b
00000070: 56eb 0d3e c508 dcbd fb3f 16be d7bf a9bc
00000080: 4609 a33c 0c91 883d 7ffc d039 ef9b 9a3d
00000090: 2217 343e 795a d7bd 8a35 a53a aa08 a23d
000000a0: 4da9 57be 4f70 143e 3e1b d53c 7cae 233e
000000b0: e2d5 0abd 855d f03d 943a fa3d 67a7 473d
000000c0: b412 70be cd15 983d 1445 93bd 6101 e53d
000000d0: e968 bd3c 4c72 5f3d 2d74 5cbe 0564 6bbc
000000e0: a444 083e 5b57 2ebd c1a8 9e3d 82b3 343e
000000f0: 6d10 903d 88cf c13d 6d8d 373c 6c0f 173e

conv_layers.0.weight f4 [2, 1, 64]
0.12952022 0.19121319 0.54670644 -0.36650136 -0.29070422 -0.18462086 -0.12875675 -0.13714097
0.41670382 0.6141258 0.22664444 0.09582336 -0.37255284 -0.606709 -0.68051016 -0.5823948
0.1550025 -0.542798 -0.039384753 0.18738565 0.5229039 0.4425339 0.23267281 -0.23031145
0.1409593 -0.48841292 -0.28972015 0.57221717 0.22759387 -0.18020883 -0.46409133 0.26499802
-0.42691663 0.014926577 -0.54410654 0.3491644 0.6773587 0.23556532 -0.2750257 0.0049272007
-0.12680297 -0.2834092 0.03007629 0.22906768 0.079599194 -0.40073842 -0.05812199 0.43573457
-0.17688535 -0.45937982 -0.6518138 0.43192846 0.5702396 0.24084413 -0.56430906 0.16955459
-0.5393072 0.038650326 0.34085763 0.48656407 0.14203005 -0.30617496 -0.29672503 -0.042840566
-0.24277224 0.23826665 -0.02295074 -0.49056718 -0.046288233 -0.3628319 0.6457068 0.26197872
-0.31473944 0.609926 0.037365735 -0.61767817 -0.20060141 -0.7485274 -0.3940089 -0.4838741
-0.16295871 -0.5410903 0.15683751 -0.22928809 0.4144069 0.21129355 -0.12796474 0.22073098
0.45501825 0.3369887 0.077830784 -0.5089946 0.31992456 0.35397354 -0.39055777 -0.48415074
-0.48558554 -0.2127843 -0.5528802 0.38407508 0.018298227 -0.034148857 0.4350408 0.43511
-0.5999069 -0.15045947 0.48042586 -0.33357742 0.052555747 -0.65237117 -0.011333308 -0.018698875
0.021996971 0.16152745 -0.40269276 0.5246949 0.15893099 -0.5884512 -0.10531431 0.6305464
-0.737006 -0.1853701 -0.3777825 0.6123925 0.50778776 0.39237067 0.20954168 -0.40318885
00000000: f3a0 043e 64cd 433e f4f4 0b3f 11a6 bbbe
00000010: 2fd7 94be 400d 3dbe cfd8 03be af6e 0cbe
00000020: 345a d53e 5937 1d3f 7b15 683e 0a3f c43d
00000030: 3fbf bebe 4851 1bbf ea35 2ebf d317 15bf
00000040: fab8 1e3e cff4 0abf e851 21bd 06e2 3f3e
00000050: 08dd 053f ce93 e23e c841 6e3e c4d6 6bbe
00000060: a257 103e 4211 fabe 3356 94be d37c 123f
00000070: 5e0e 693e aa88 38be 619d edbe d2ad 873e
00000080: d194 dabe 9a8e 743c 914a 0bbf adc5 b23e
00000090: 6167 2d3f 0938 713e 2bd0 8cbe 5b74 a13b
000000a0: a3d8 01be 031b 91be 8d62 f63c b890 6a3e
000000b0: e704 a33d 962d cdbe 5311 6ebd 9a18 df3e
000000c0: 6f21 35be d533 ebbe 45dd 26bf ba25 dd3e
000000d0: 39fb 113f d89f 763e 8f76 10bf b89f 2d3e
000000e0: 0910 0abf ce4f 1e3d e484 ae3e ed1e f93e
000000f0: 5370 113e f7c2 9cbe 58ec 97be 9779 2fbd
00000100: 4999 78be 2cfc 733e 3103 bcbc 9f2b fbbe
00000110: bb98 3dbd 1ac5 b9be 0a4d 253f 1322 863e
00000120: 8725 a1be 1c24 1c3f d00c 193d 2820 1ebf
00000130: 756a 4dbe 7e9f 3fbf 89bb c9be 59be f7be
00000140: a6de 26be e584 0abf 039a 203e 7fca 6abe
00000150: 242d d43e 565d 583e 3009 03be 4d07 623e
00000160: 27f8 e83e c889 ac3e bf65 9f3d 784d 02bf
00000170: 27cd a33e 053c b53e 30f7 c7be 9be2 f7be
00000180: ab9e f8be 21e4 59be 8f89 0dbf 7da5 c43e
00000190: 2ae6 953c acdf 0bbd abbd de3e bdc6 de3e
000001a0: 8093 19bf 0c12 1abe 61fa f53e a9ca aabe
000001b0: b244 573d cc01 27bf 57af 39bc 622e 99bc
000001c0: fe32 b43c 7467 253e bf2d cebe 6852 063f
000001d0: cebe 223e bda4 16bf 07af d7bd 7d6b 213f
000001e0: 6dac 3cbf a9d1 3dbe b56c c1be c1c5 1c3f
000001f0: 61fe 013f cfe4 c83e 1892 563e c56e cebe

conv_layers.0.bias f4 [64]
-0.122179106 0.6647703 0.40038154 -0.60426116 0.12184971 -0.4757715 -0.20555955 0.1475357
-0.5844218 -0.46068022 0.30554262 0.6571158 0.09759706 -0.21806687 0.41972992 -0.41998935
-0.3411421 0.0729078 0.48118985 -0.3287777 0.324614 0.33846363 -0.47887516 -0.2803142
-0.31367427 -0.159125 0.34575316 -0.45609406 0.10320568 0.07740197 0.38889092 0.045350283
-0.6662647 -0.4092867 0.046631124 -0.34949997 -0.6776173 -0.29928103 0.72721845 0.45531633
0.17441957 0.111701265 0.07732589 -0.40344286 -0.43812817 -0.017848652 0.034829278 -0.51399314
-0.50979555 0.6821843 0.5783031 0.11460709 0.017745255 -0.3767217 0.47647437 0.6901834
-0.11963241 -0.2099276 -0.6123126 0.1485831 -0.023567302 0.28776628 -0.118256174 0.5759375
00000000: 0a39 fabd 632e 2a3f cffe cc3e dcb0 1abf
00000010: 578c f93d 5298 f3be 347e 52be 9913 173e
00000020: ab9c 15bf 47de ebbe 1570 9c3e be38 283f
00000030: f8e0 c73d ec4c 5fbe d7e6 d63e d808 d7be
00000040: 2daa aebe af50 953d 845e f63e 8d55 a8be
00000050: ce33 a63e 1b4b ad3e 202f f5be 5885 8fbe
00000060: ea99 a0be aaf1 22be 8f06 b13e 2985 e9be
00000070: 805d d33d ed84 9e3d b61c c73e 38c1 393d
00000080: 5390 2abf 078e d1be 4700 3f3d a9f1 b2be
00000090: 5478 2dbf 5d3b 99be fd2a 3a3f 391f e93e
000000a0: 0b9b 323e a2c3 e43d 095d 9e3d 1090 cebe
000000b0: 5652 e0be 5637 92bc 25a9 0e3d 0e95 03bf
000000c0: f681 02bf a1a3 2e3f ac0b 143f 1fb7 ea3d
000000d0: 7f5e 913c abe1 c0be 73f4 f33e dcaf 303f
000000e0: d601 f5bd 43f7 56be 85c0 1cbf 2b26 183e
000000f0: 3710 c1bc 1a56 933e 4b30 f2bd a470 133f

conv_layers.1.weight f4 [2, 64, 64]
-0.10416704 0.05126865 0.027801814 -0.040215444 -0.020390201 0.061172813 -0.0334377 0.019388225
-0.0012641932 0.048347317 0.02740255 0.025724836 0.04425597 -0.048064917 -0.13760884 -0.024472147
0.018054232 -0.022612695 -0.092552274 0.0017443007 0.07499564 0.0072839856 0.045446288 0.025183452
-0.004924867 -0.03711542 -0.010445492 -0.07653189 0.030805204 -0.0027359752 -0.004501136 0.077957086
0.038010422 0.06431213 0.072538376 0.015651254 -0.057393815 -0.09794562 0.07825846 -0.030015387
0.09981247 0.0109975375 -0.016417056 -0.072893806 -0.037280314 0.08525123 0.0419831 0.053564545
0.0687386 0.086050674 -0.076216936 -0.05532045 0.046413634 0.074843116 0.016254734 0.052116178
-0.0152937295 -0.08982991 0.0017223358 -0.06935777 0.113018356 0.004524176 -0.06829342 -0.058063775
0.008629878 0.0010338755 -0.06864509 -0.08986513 -0.060297936 0.071419455 0.07239053 0.1476912
-0.052229032 -0.056965265 -0.07484742 0.016768994 -0.060833465 0.017014153 -0.0068324804 0.003099902
-0.022221224 0.027289243 -0.06655994 -0.06831487 -0.032311138 -0.069952525 -0.037523367 0.044938058
0.079613686 -0.027196439 0.0936066 0.009279939 0.011489514 -0.0022083686 -0.018270368 0.04733044
-0.026439656 0.08298512 -0.06777236 -0.0007285254 -0.0011111932 0.04586058 0.08026378 -0.112293266
0.083578974 -0.08072914 -0.096050255 0.042308524 -0.03292823 0.035356607 0.0374969 -0.028510664
0.03147118 -0.05824351 0.010169648 -0.08352196 0.027142053 -0.046655346 0.02400856 -0.053398833
0.02399348 0.041470833 0.057718195 -0.020388873 0.14622314 -0.02118845 0.05795796 0.02495878
0.040561322 -0.05902769 -0.106816605 -0.015314195 -0.03942928 0.03919293 0.034959514 0.014749769
0.05592761 -0.06523589 -0.033377543 0.011458225 0.004737083 0.05105577 -0.02925837 -0.043553434
-0.052207656 0.07572798 -0.071895376 -0.041291248 0.028540876 0.0137065165 0.078118764 -0.07023833
0.0790092 -0.048185024 0.025565771 0.0071624755 -0.09251657 0.15560521 -0.11016603 0.055551443
-0.059349664 0.04938999 -0.022940287 -0.05976521 -0.05853322 -0.0588373 0.1084838 0.06108616
0.036190614 0.022324443 0.035073377 -0.031034851 -0.038051788 -0.072810896 -0.008237284 0.06595629
-0.08630448 -0.010822133 0.016618576 -0.014148207 -0.02298395 -0.009529453 0.046298686 -0.059823107
-0.05684478 -0.016744992 0.023620756 0.06535994 0.048333585 -0.11067318 -0.015149454 -0.057997067
-0.018936343 -0.02576963 0.06037867 0.005585015 -0.025923762 -0.0809711 -0.06413848 -0.019073408
-0.085859165 0.10013661 0.04756918 0.060957406 0.011934723 0.043662477 -0.08812219 0.09092687
0.051024042 -0.022983795 -0.09442473 -0.058996927 0.07858382 -0.026212472 0.060934648 0.100862175
-0.056401048 0.04733175 -0.053850643 0.08837706 -0.053662248 -0.079135865 -0.054832425 0.012287512
0.037966117 -0.045222014 0.013058629 0.030946536 -0.057031825 0.10267863 -0.05413537 0.04221854
-0.06701161 0.03177911 0.04503594 0.06461265 0.09239044 0.07119785 -0.056122683 -0.0058449656
0.024886142 -0.102392696 -0.01557338 0.09299307 -0.045823555 -0.015802445 0.030042838 0.0312771
0.060334146 0.09066963 -0.07388967 0.018253604 -0.15762231 0.0823926 -0.073803514 -0.027040025
00000000: 8755 d5bd 13ff 513d a1c0 e33c f3b8 24bd
00000010: 5a09 a7bc 5890 7a3d f8f5 08bd 0ed4 9e3c
00000020: 49b3 a5ba d607 463d 507b e03c e4bc d23c
00000030: bf45 353d b8df 44bd 55e9 0cbe d079 c8bc
00000040: 78e6 933c 423e b9bc 0c8c bdbd 05a1 e43a
00000050: 5097 993d 80ae ee3b e325 3a3d 874d ce3c
00000060: c760 a1bb 5706 18bd 9223 2bbc c0bc 9cbd
00000070: 325b fc3c 0c4e 33bb 447e 93bb f7a7 9f3d
00000080: d1b0 1b3d 14b6 833d 008f 943d 0f37 803c
00000090: c715 6bbd b797 c8bd f945 a03d d4e2 f5bc
000000a0: 7b6a cc3d 042f 343c 107d 86bc 5949 95bd
000000b0: 3eb3 18bd 3298 ae3d 79f6 2b3d 7f66 5b3d
000000c0: d3c6 8c3d 563b b03d a017 9cbd b297 62bd
000000d0: 391c 3e3d 5947 993d a628 853c c677 553d
000000e0: 8d92 7abc bef8 b7bd 00c0 e13a 720b 8ebd
000000f0: 2b76 e73d 8a3f 943b 6cdd 8bbd 48d4 6dbd
00000100: 5564 0d3c 1b83 873a cc95 8cbd 360b b8bd
00000110: f8fa 76bd 5d44 923d 7c41 943d 5d3c 173e
00000120: 1cee 55bd 6954 69bd 9b49 99bd 215f 893c
00000130: 832c 79bd 4461 8b3c 00e3 dfbb ba27 4b3b
00000140: 4909 b6bc b18d df3c 9450 88bd abe8 8bbd
00000150: af58 04bd 4543 8fbd 1ab2 19bd f810 383d
00000160: 800c a33d 11cb debc d1b4 bf3d e30a 183c
00000170: 843e 3c3c 47ba 10bb bdab 95bc 90dd 413d
00000180: fa97 d8bc 1af4 a93d 3ccc 8abd 83fa 3eba
00000190: 75a5 91ba 4ed8 3b3d 5661 a43d 03fa e5bd
000001a0: 742b ab3d 5255 a5bd ffb5 c4bd b44b 2d3d
000001b0: c0df 06bd 17d2 103d 5996 193d 328f e9bc
000001c0: ede7 003d bf90 6ebd 989e 263c 900d abbd
000001d0: 0359 de3c ad19 3fbd 9aad c43c bcb8 5abd
000001e0: f98d c43c 52dd 293d ea69 6c3d 9106 a7bc
000001f0: 85bb 153e 6693 adbc 5365 6d3d 5b76 cc3c
00000200: a123 263d 05c7 71bd aac2 dabd 64e8 7abc
00000210: 9980 21bd c488 203d b531 0f3d 04a9 713c
00000220: 5914 653d 659a 85bd e4b6 08bd 47bb 3b3c
00000230: 8839 9b3b db1f 513d 40af efbc 1665 32bd
00000240: b2d7 55bd 4517 9b3d e23d 93bd 0321 29bd
00000250: 8ece e93c 4c91 603c bbfc 9f3d 1dd9 8fbd
00000260: 93cf a13d a95d 45bd 4f6f d13c 33b3 ea3b
00000270: 5479 bdbd f956 1f3e ba9e e1bd e989 633d
00000280: a218 73bd 284d 4a3d 45ed bbbc 5dcc 74bd
00000290: 88c0 6fbd 61ff 70bd c12c de3d 7b35 7a3d
000002a0: 9c3c 143d c0e1 b63c 1aa9 0f3d cd3c febc
000002b0: 31dc 1bbd e11d 95bd acf5 06bc 1714 873d
000002c0: 67c0 b0bd 514f 31bc ae23 883c e2cd 67bc
000002d0: d648 bcbc 6c21 1cbc b1a3 3d3d 1309 75bd
000002e0: 12d6 68bd cb2c 89bc 5180 c13c 6fdb 853d
000002f0: 70f9 453d 9fa8 e2bd 6a35 78bc 558e 6dbd
00000300: 6420 9bbc d51a d3bc a04f 773d 8002 b73b
00000310: 125e d4bc 2dd4 a5bd 095b 83bd d63f 9cbc
00000320: eed6 afbd 6c14 cd3d e7d7 423d 79ae 793d
00000330: db89 433c 6dd7 323d 6879 b4bd de37 ba3d
00000340: 96fe 503d 8348 bcbc c161 c1bd c3a6 71bd
00000350: 8ef0 a03d 8abb d6bc 9c96 793d d490 ce3d
00000360: c904 67bd f0de 413d 7e92 5cbd 08ff b43d
00000370: f2cc 5bbd fc11 a2bd f797 60bd 9051 493c
00000380: 5c82 1b3d b83a 39bd dcf3 553c 9783 fd3c
00000390: 349a 69bd 2c49 d23d 0dbd 5dbd 59ed 2c3d
000003a0: 623d 89bd d02a 023d 9b77 383d a353 843d
000003b0: 3337 bd3d 2ed0 913d e6e0 65bd 2087 bfbb
000003c0: 06de cb3c 43b3 d1bd 7d27 7fbc 2773 be3d
000003d0: 7bb1 3bbd 2174 81bc 661c f63c 6b1c 003d
000003e0: f020 773d 00b1 b93d 7853 97bd 9588 953c
000003f0: be67 21be 74bd a83d 4c26 97bd 0b83 ddbc

conv_layers.1.bias f4 [64]
0.055352718 -0.022936383 0.03770532 0.053544987 0.0700075 0.09559501 -0.0049629565 0.10136203
-0.03930971 -0.10753831 0.005423 -0.0038477194 -0.059836507 -0.07080617 0.0152552845 0.05022638
0.003534753 0.076374024 -0.013935753 0.055549208 0.021045458 -0.063857056 0.018407311 -0.09437563
-0.04221835 0.028219687 -0.008152727 0.027421715 -0.07579396 0.07294522 -0.00719068 0.099177085
0.07509699 0.049575638 -0.08584929 0.011817028 -0.06827361 -0.0260974 0.064602785 -0.036745004
0.13711776 -0.028011782 -0.03650915 -0.060778536 -0.101836994 -0.036879685 0.071453474 0.080512635
0.066338114 0.029317396 -0.027533079 -0.014563593 -0.038634796 0.01794949 -0.04172908 -0.025474181
0.051006872 -0.07777675 -0.07841363 0.023865666 0.12644166 -0.05388847 0.093872994 0.043890532
00000000: 88b9 623d 15e5 bbbc e570 1a3d fd51 5b3d
00000010: 1860 8f3d 51c7 c33d 4ca0 a2bb e596 cf3d
00000020: 3803 21bd 0c3d dcbd 6cb3 b13b 052a 7cbb
00000030: 2017 75bd d302 91bd 4df1 793c 2dba 4d3d
00000040: 51a7 673b fc69 9c3d c952 64bc 9187 633d
00000050: 8667 ac3c 7dc7 82bd eeca 963c 0348 c1bd
00000060: 26ed 2cbd f92c e73c 0493 05bc 81a3 e03c
00000070: dd39 9bbd 4e64 953d cc9f ebbb 5b1d cb3d
00000080: 73cc 993d d30f 4b3d c1d1 afbd 359c 413c
00000090: 09d3 8bbd 37ca d5bc 774e 843d ee81 16bd
000000a0: 9968 0c3e f778 e5bc 9e8a 15bd eaf2 78bd
000000b0: ea8f d0bd 270f 17bd 3356 923d cfe3 a43d
000000c0: 47dc 873d 092b f03c 0d8d e1bc 239c 6ebc
000000d0: 853f 1ebd cf0a 933c 1dec 2abd 3baf d0bc
000000e0: 95ec 503d 6b49 9fbd 5397 a0bd ee81 c33c
000000f0: ec79 013e 28ba 5cbd 7c40 c03d 8fc6 333d

conv_layers.2.weight f4 [2, 64, 64]
-0.004944588 -0.04701669 -0.021818036 0.040949874 -0.120446526 -0.00033117397 -0.04139178 0.059498794
-0.045775164 0.02377299 0.083899274 0.016827967 -0.055157073 0.008463881 -0.061480053 -0.0018302579
-0.054080594 0.050134394 -0.06950362 -0.10067319 0.054763332 -0.043192428 0.023451952 -0.014695581
-0.00869122 -0.060961615 -0.053805456 0.0329528 -0.04669363 0.05248164 -0.0050507253 0.02768925
-0.06827498 0.038253933 -0.039436918 -0.0408607 0.008080622 0.008117073 -0.079036035 -0.06980489
-0.066168256 -0.019616071 -0.099156804 -0.063372985 -0.0704279 0.071693264 -0.08817477 -0.04529863
-0.019985061 0.068067275 0.10038385 -0.03702769 -0.07281944 -0.0395392 -0.031603772 -0.051271055
-0.05104808 0.01144044 -0.10047227 0.07203622 0.06424099 0.098228455 0.04755583 -0.06649186
-0.07408761 0.1136791 0.074572176 0.024326619 -0.00033598856 -0.11218789 -0.01567685 0.018761015
-0.005580237 -0.06265228 0.005982726 -0.019678643 -0.054062504 -0.12032678 0.04349809 -0.048775308
-0.025856134 0.010643494 0.023226213 0.061223898 -0.06386782 0.035342306 -0.16196683 -0.08964104
-0.05199629 -0.07638835 -0.011357636 0.038759124 0.0033470038 -0.05610069 -0.0024061692 -0.014832562
0.012497696 0.05143915 -0.12052383 0.009365283 0.085710056 -0.09804048 -0.018433541 -0.057050813
0.05012318 -0.06806573 0.085172445 -0.0806267 -0.023166146 -0.057585374 0.08527425 0.09898739
-0.005277672 0.11675972 -0.052773442 0.05903852 -0.001283709 -0.037343442 -0.026835658 -0.08298149
0.12924841 -0.03429812 0.055459883 0.12413593 -0.06378383 0.0142452195 -0.048123702 0.0496706
0.0036361206 -0.101106465 0.0018315313 -0.018331807 0.04599831 0.07775825 -0.09575482 -0.019412838
-0.01643853 -0.002716085 -0.04917938 0.078584075 -0.020548092 -0.06635088 0.056742385 0.039293434
-0.12342108 0.0453958 -0.121445164 0.09490568 0.030984392 0.02432687 0.032186903 -0.12517409
0.071834534 0.04870649 0.16165413 -0.009965056 -0.001508447 -0.044171546 0.123126656 -0.04406116
-0.06991348 -0.0065357145 0.058526393 -0.058873117 -0.054019153 -0.006626545 0.07936423 0.114997454
-0.05819885 0.06067477 0.051640276 0.048555046 -0.015081394 -0.044993114 0.05062816 0.09706329
0.00638075 -0.06261609 -0.01964199 0.07715744 -0.04300909 0.037830725 -0.09526976 -0.12381163
-0.005076671 -0.059223395 -0.016708713 0.10979426 -0.055292673 0.025539737 0.0067763114 -0.035950378
0.032673404 -0.0397467 -0.0039025755 0.041767467 -0.013532178 -0.0780886 0.044584177 -0.099032484
-0.012905086 0.015194257 -0.058075607 0.018402252 0.035194978 -0.07552909 -0.019023083 -0.056521405
0.00887773 -0.0570542 0.050564017 0.031050108 0.008999118 0.058644485 -0.07522782 -0.084792085
0.09310611 0.012628268 0.02727591 -0.05459337 0.017507553 -0.058333065 -0.039100304 -0.06097537
0.08762741 0.044159167 -0.04963143 0.015465916 -0.05712258 -0.115088075 0.0049977414 0.049497295
-0.07033364 -0.07298436 -0.0709037 -0.12727542 0.085032456 0.030047167 0.09787938 0.11009987
0.06479911 0.03162143 0.003917565 0.09948474 -0.028748618 -0.012965977 -0.03545281 -0.009973116
-0.04250802 0.08694598 -0.03813961 0.04787212 -0.06018244 0.017508361 -0.15075906 -0.033994786
00000000: 3606 a2bb 9394 40bd bdbb b2bc 0ebb 273d
00000010: abac f6bd 6ba1 adb9 6d8a 29bd 02b5 733d
00000020: bd7e 3bbd 93bf c23c 62d3 ab3d ceda 893c
00000030: 62ec 61bd 17ac 0a3c 82d2 7bbd 44e5 efba
00000040: 9d83 5dbd b959 4d3d ea57 8ebd bf2d cebd
00000050: 844f 603d 8bea 30bd 4f1e c03c bcc5 70bc
00000060: 9e65 0ebc e3b2 79bd 1c63 5cbd 84f9 063d
00000070: d241 3fbd fdf6 563d 8e80 a5bb 91d4 e23c
00000080: c1d3 8bbd 28b0 1c3d 9b88 21bd 8d5d 27bd
00000090: 9664 043c 79fd 043c a5dd a1bd def5 8ebd
000000a0: 3983 87bd e2b1 a0bc b912 cbbd b2c9 81bd
000000b0: 813c 90bd ebd3 923d f994 b4bd 0e8b 39bd
000000c0: b6b7 a3bc db66 8b3d 0c96 cd3d 59aa 17bd
000000d0: 5c22 95bd dbf3 21bd f572 01bd 9901 52bd
000000e0: cb17 51bd af70 3b3c 68c4 cdbd ba87 933d
000000f0: c890 833d 002c c93d e7c9 423d e22c 88bd
00000100: 3fbb 97bd 97d0 e83d 4cb9 983d 9e48 c73c
00000110: 9f27 b0b9 c4c2 e5bd bd6c 80bc b3b0 993c
00000120: 6cda b6bb d74f 80bd be0a c43b 1b35 a1bc
00000130: a570 5dbd e36d f6bd 0e2b 323d 9ec8 47bd
00000140: 3ed0 d3bc 0d62 2e3c e644 be3c e9c5 7a3d
00000150: 22cd 82bd 18c3 103d a2da 25be b995 b7bd
00000160: 10fa 54bd 7f71 9cbd 6115 3abc e3c1 1e3d
00000170: 6859 5b3b d6c9 65bd d2b0 1dbb 4604 73bc
00000180: 23c3 4c3c dcb1 523d 33d5 f6bd d870 193c
00000190: c188 af3d 72c9 c8bd f001 97bc 1dae 69bd
000001a0: f74d 4d3d 0c66 8bbd e46e ae3d 9c1f a5bd
000001b0: eec6 bdbc a4de 6bbd 44a4 ae3d e7b9 ca3d
000001c0: 52f0 acbb b81f ef3d f728 58bd 60d2 713d
000001d0: 2042 a8ba 70f5 18bd 74d6 dbbc 33f2 a9bd
000001e0: b259 043e 2f7c 0cbd e729 633d fa3a fe3d
000001f0: 19a1 82bd c864 693c 5c1d 45bd 6673 4b3d
00000200: fb4b 6e3b e810 cfbd fe0f f03a 962c 96bc
00000210: b968 3c3d b83f 9f3d 1a1b c4bd ac07 9fbc
00000220: 19aa 86bc 5800 32bb 5170 49bd b0f0 a03d
00000230: 7954 a8bc f8e2 87bd b46a 683d 27f2 203d
00000240: 31c4 fcbd f2f0 393d 3eb8 f8bd e95d c23d
00000250: fbd2 fd3c 2549 c73c 6ad6 033d a32d 00be
00000260: fc1d 933d 7580 473d a988 253e 7944 23bc
00000270: 15b7 c5ba 39ed 34bd d429 fc3d 7a79 34bd
00000280: cc2e 8fbd 8c29 d6bb 5fb9 6f3d f024 71bd
00000290: 3043 5dbd 7d23 d9bb b789 a23d c983 eb3d
000002a0: eb61 6ebd 1c86 783d c184 533d a8e1 463d
000002b0: f417 77bc b34a 38bd 795f 4f3d 1ec9 c63d
000002c0: 9c15 d13b dd3c 80bd 3de8 a0bc b804 9e3d
000002d0: 4d2a 30bd 64f4 1a3d cb1c c3bd f490 fdbd
000002e0: 345a a6bb 3b94 72bd b6e0 88bc d0db e03d
000002f0: 927a 62bd b638 d13c d20b de3b b440 13bd
00000300: 8cd4 053d 70cd 22bd 5ac2 7fbb 5d14 2b3d
00000310: 11b6 5dbc eaec 9fbd e69d 363d 8bd1 cabd
00000320: db6f 53bc 55f1 783c b0e0 6dbd 52c0 963c
00000330: 9c28 103d ffae 9abd 4cd6 9bbc fd82 67bd
00000340: e673 113c aab1 69bd 371c 4f3d cc5c fe3c
00000350: 0971 133c 3335 703d 0b11 9abd 79a7 adbd
00000360: 6bae be3d cce6 4e3c bb71 df3c 4c9d 5fbd
00000370: 006c 8f3c a7ee 6ebd a427 20bd 4fc1 79bd
00000380: 0076 b33d 3ee0 343d 544a 4bbd c164 7d3c
00000390: 5ef9 69bd 4cb3 ebbd 18c4 a33b adbd 4a3d
000003a0: 150b 90bd d378 95bd f635 91bd 7d54 02be
000003b0: 7f25 ae3d 7a25 f63c fc74 c83d 0a7c e13d
000003c0: 65b5 843d 7985 013d eb5e 803b a8be cb3d
000003d0: 3982 ebbc 406f 54bc f736 11bd 4866 23bc
000003e0: e41c 2ebd bc10 b23d 4838 1cbd 8e15 443d
000003f0: dd81 76bd b26d 8f3c 9560 1abe 1e3e 0bbd

conv_layers.2.bias f4 [64]
-0.021026487 0.16889238 0.102499686 0.017922118 0.0011784084 -0.06676837 0.00094581774 -0.02550984
0.054710824 0.07818442 -0.04030171 0.084039524 -0.1209193 0.005518156 -0.09863816 0.13417616
0.12996148 -0.031399935 0.10722715 0.07227356 -0.08903841 -0.07973857 0.0016711908 0.034876477
-0.08895711 0.07266522 0.025937596 0.108883075 -0.07191267 0.022168936 0.07036712 0.07271649
0.09692474 0.0776604 -0.08733098 0.001696761 0.08418003 0.051065914 -0.032231275 0.0029361914
0.060047373 -0.07652803 0.022617888 0.069579884 0.031954113 0.079043195 -0.051133256 0.0097577805
-0.015756192 0.118229896 -0.043637753 -0.024834158 0.05773598 0.06228804 -0.0041507273 0.046042796
0.10260634 0.09409319 0.13619632 0.033078212 -0.054802105 -0.05813535 -0.03149978 -0.0057466263
00000000: bd3f acbc 20f2 2c3e 5beb d13d 68d1 923c
00000010: d374 9a3a dbbd 88bd c1f0 773a 03fa d0bc
00000020: 7518 603d 271f a03d 6813 25bd ea1c ac3d
00000030: 8aa4 f7bd a6d1 b43b ce02 cabd 7a65 093e
00000040: 9f14 053e 389d 00bd e899 db3d 2904 943d
00000050: c559 b6bd fa4d a3bd dc0b db3a a3da 0e3d
00000060: 252f b6bd 81d1 943d 157b d43c 17fe de3d
00000070: f346 93bd a19b b53c a31c 903d 62ec 943d
00000080: 7a80 c63d 6a0c 9f3d 96da b2bd da65 de3a
00000090: 9466 ac3d 7e2a 513d f104 04bd 1e6d 403b
000000a0: 3cf4 753d baba 9cbd 2649 b93c e67f 8e3d
000000b0: 51e2 023d 66e1 a13d 1b71 51bd 19df 1f3c
000000c0: 2113 81bc 8422 f23d 80bd 32bd 0171 cbbc
000000d0: 907c 6c3d be21 7f3d d302 88bb 5f97 3c3d
000000e0: 4623 d23d eeb3 c03d 0c77 0b3e 057d 073d
000000f0: 2c78 60bd 551f 6ebd ea05 01bd 324e bcbb

conv_layers.3.weight f4 [2, 64, 64]
-0.028891647 0.14918415 0.081740186 -0.011105975 -0.060248315 -0.12185515 0.20389469 0.09423489
-0.10301383 0.058423948 -0.09474679 -0.013386617 -0.043574538 0.032485157 -0.051094145 0.118272886
-0.034437165 0.2180294 -0.07593268 -0.012211349 0.048266582 -0.0050219 0.030544994 -0.06723264
0.14014828 0.052910075 0.12347759 -0.04021601 -0.081118636 0.11840218 0.04012164 0.07765912
-0.09747028 -0.04537681 0.05309744 -0.062905066 -0.0422979 0.04403386 -0.05957021 0.095945485
0.005765985 0.063156165 -0.008327985 0.06373551 -0.04205396 0.04553121 0.1490698 0.007418594
0.043123472 0.12276053 -0.03922688 0.05273696 0.0031101778 -0.064363636 -0.057066377 0.047574095
0.04233841 0.027128637 0.08604848 0.08351772 0.041824013 0.08061465 0.06925689 -0.013011484
-0.30129036 -0.0051826388 -0.0025347357 0.056705795 -0.05882046 0.0067061866 0.18303484 0.09805194
0.10726241 0.11091968 0.09445468 -0.110467546 -0.036806516 0.037915062 -0.095588915 0.13290673
0.059414472 0.07355407 0.10808307 0.19932006 -0.11741941 0.07273499 -0.012375524 -0.14111534
0.05552234 -0.23984884 0.1011602 -0.270105 -0.072522394 0.075613864 -0.006224318 -0.084950596
0.17484805 -0.1399761 0.011615967 -0.06800207 -0.09781053 0.2347269 0.011907684 -0.045919403
0.0077899643 0.1599162 -0.11368482 -0.08860442 -0.13650632 0.08296368 0.055505995 -0.022574611
0.1382515 0.05383864 -0.09523104 0.15649702 -0.026903719 -0.116132006 -0.13876325 -0.02218519
0.025134431 0.032876913 0.052575722 -0.1295969 0.18243632 0.0071675503 -0.051803626 -0.013435139
0.10351389 -0.043174814 0.0057538245 0.103566796 -0.09161792 0.07665213 -0.039864898 0.0143149765
0.022593264 -0.0350806 0.03374626 -0.052208785 0.06401819 -0.03585704 0.079826266 -0.1114431
0.031026512 -0.055550836 0.110276036 -0.051617168 0.06627251 0.065100566 -0.04925102 0.08634405
0.08795592 0.047026698 0.055640455 0.021804566 0.053909756 -0.13225761 -0.024851399 -0.053317305
-0.008688194 -0.047162537 0.06808727 0.073313326 0.018590447 -0.055499863 0.11190637 0.0719947
-0.00017336813 0.10222902 0.048159953 0.02622524 0.0915035 0.010519769 -0.022676552 0.05107478
-0.018315827 0.005682132 0.019518118 -0.060093436 0.01024933 -0.023619676 0.031632725 0.012160954
-0.07389957 0.11282136 0.066305116 0.0012365599 -0.039296005 -0.00880376 0.04944036 0.01845248
-0.12569034 0.12325199 0.07999649 0.033291824 0.025233146 -0.004473637 0.043070547 0.019626297
0.06284055 0.0012610358 -0.0063774153 0.054130297 0.032276757 0.04869037 -0.029677115 0.11543939
0.037620723 -0.03841139 -0.036321007 -0.046423525 0.042248793 -0.0056351433 -0.024674991 -0.030257365
-0.065229625 0.013649919 0.0048656994 -0.011216085 -0.08209989 -0.0438682 0.08513186 -0.1652941
-0.012672943 -0.13086902 -0.03217744 0.032201953 -0.10362477 0.032419056 0.16823955 -0.10944585
-0.024565957 0.004517967 -0.05269005 -0.05443455 -0.1278939 0.108919255 -0.036214232 -0.100359954
0.12402136 0.07371282 0.045277417 0.16599944 -0.0404759 0.0003732606 0.00040880372 -0.12824237
-0.045372013 -0.019796506 -0.015263665 -0.017854813 0.010161158 -0.023746526 0.018849405 0.031688258
00000000: 2dae ecbc bbc3 183e 6667 a73d d6f5 35bc
00000010: f0c6 76bd 318f f9bd c5c9 503e 39fe c03d
00000020: eaf8 d2bd f34d 6f3d 9b0a c2bd 8b53 5bbc
00000030: 377b 32bd 280f 053d 1848 51bd 0e39 f23d
00000040: fc0d 0dbd 1943 5f3e 9882 9bbd 1c12 48bc
00000050: 2eb3 453d c08e a4bb 7f39 fa3c 44b1 89bd
00000060: 0883 0f3e 3cb8 583d d2e1 fc3d 8bb9 24bd
00000070: 8721 a6bd d87c f23d 9756 243d bf0b 9f3d
00000080: 809e c7bd 09dd 39bd b47c 593d 5fd4 80bd
00000090: 9040 2dbd d95c 343d e4ff 73bd 117f c43d
000000a0: 97f0 bc3b 0558 813d 1a72 08bc c387 823d
000000b0: c640 2cbd ef7e 3a3d c1a5 183e ad17 f33b
000000c0: 3da2 303d df69 fb3d 5dac 20bd b602 583d
000000d0: 20d4 4b3b 15d1 83bd 6fbe 69bd 0edd 423d
000000e0: 0a6b 2d3d e03c de3c 2f3a b03d 570b ab3d
000000f0: a84f 2b3d 4b19 a53d 8ed6 8d3d 1f2e 55bc
00000100: bb42 9abe 20d3 a9bb cf1d 26bb 5644 683d
00000110: b9ed 70bd 92bf db3b 7c6d 3b3e 75cf c83d
00000120: 65ac db3d db29 e33d 7571 c13d cf3c e2bd
00000130: 6ec2 16bd d34c 1b3d 1fc4 c3bd b418 083e
00000140: 975c 733d 84a3 963d a85a dd3d 8f1a 4c3e
00000150: 9679 f0bd 15f6 943d b6c2 4abc 8a80 10be
00000160: 656b 633d ef9a 75be 142d cf3d 344b 8abe
00000170: 9f86 94bd 71db 9a3d 5df5 cbbb 94fa adbd
00000180: 5e0b 333e e555 0fbe e650 3e3c ab44 8bbd
00000190: e350 c8bd 405c 703e 7218 433c fc15 3cbd
000001a0: f542 ff3b 13c1 233e 96d3 e8bd 3c76 b5bd
000001b0: 50c8 0bbe dde8 a93d 415a 633d 64ee b8bc
000001c0: cd91 0d3e e885 5c3d 7e08 c3bd c140 203e
000001d0: 3065 dcbc 9ed6 edbd f417 0ebe b7bd b5bc
000001e0: b9e6 cd3c f1a9 063d a459 573d 0db5 04be
000001f0: 96d0 3a3e c5dd ea3b 0a30 54bd 0f1f 5cbc
00000200: 17ff d33d 13d8 30bd 948a bc3b d41a d43d
00000210: 2da2 bbbd cbfb 9c3d 6049 23bd 5d89 6a3c
00000220: 8215 b93c adb0 0fbd 8539 0a3d e1d8 55bd
00000230: f81b 833d d5de 12bd f47b a33d 483c e4bd
00000240: 502b fe3c 4689 63bd 67d8 e13d 866c 53bd
00000250: e2b9 873d 7253 853d 70bb 49bd 26d5 b03d
00000260: 3c22 b43d 119f 403d 3fe7 633d 7d9f b23c
00000270: 7ad0 5c3d 8a6e 07be 2995 cbbc 3f63 5abd
00000280: ed58 0ebc 812d 41bd 5771 8b3d 4c25 963d
00000290: fe4a 983c d353 63bd 2b2f e53d f571 933d
000002a0: 27ca 35b9 735d d13d 5f43 453d 51d6 d63c
000002b0: 3066 bb3d 1c5b 2c3c 2dc4 b9bc ca33 513d
000002c0: 130b 96bc 2e31 ba3b 76e4 9f3c 8924 76bd
000002d0: ceec 273c 0d7e c1bc 5191 013d bd3e 473c
000002e0: a858 97bd e30e e73d faca 873d 1114 a23a
000002f0: d9f4 20bd a53d 10bc fa81 4a3d a829 973c
00000300: f8b4 00be 8a6b fc3d 33d5 a33d 025d 083d
00000310: beb5 ce3c 9697 92bb be6a 303d 54c7 a03c
00000320: 8cb2 803d 5749 a53a a3f9 d0bb bbb7 5d3d
00000330: a234 043d 8e6f 473d 6c1d f3bc 7d6b ec3d
00000340: 3018 1a3d 4355 1dbd 56c5 14bd 9826 3ebd
00000350: 120d 2d3d 02a7 b8bb 3523 cabc 4bde f7bc
00000360: 1c97 85bd e9a3 5f3c 7270 9f3b acc3 37bc
00000370: fd23 a8bd 24af 33bd 9d59 ae3d db42 29be
00000380: 2da2 4fbc 8702 06be 7ecc 03bd 32e6 033d
00000390: 3939 d4bd d8c9 043d fd46 2c3e 2525 e0bd
000003a0: 8c3e c9bc 740b 943b 86d1 57bd c3f6 5ebd
000003b0: 9ef6 02be 0f11 df3d 6055 14bd 8589 cdbd
000003c0: e9fe fd3d bff6 963d d074 393d c2fb 293e
000003d0: 0fca 25bd 31b2 c339 b554 d639 f851 03be
000003e0: 01d8 39bd 482c a2bc 7314 7abc 4244 92bc
000003f0: fc7a 263c 1388 c2bc 116a 9a3c 8ccb 013d

conv_layers.3.bias f4 [64]
0.015376046 -0.012054018 -0.055672888 0.013335698 -0.14222787 0.11648909 -0.03599663 -0.06432117
0.034250088 -0.038594726 -0.09657509 -0.0780221 -0.06059536 0.10789606 -0.03856323 -0.06194058
0.006307323 -0.0631913 0.07288985 0.0039412384 0.02929614 -0.03679108 -0.031569306 0.082125746
-0.09473138 -0.08369157 -0.0951001 -0.12818454 0.108514644 -0.051332828 0.16629526 0.07660226
0.013359343 -0.03324813 0.09928215 0.09949602 -0.051783737 -0.066819906 0.11239334 -0.025810324
-0.12160299 0.063325115 0.08987041 0.008172153 0.052915465 0.0049465513 -0.12734698 0.14259852
0.091791704 -0.13888703 0.015221897 -0.03115515 -0.10252979 0.03654845 0.023561688 0.052870173
0.08004238 0.10981669 -0.103370495 0.034968015 0.017780904 -0.108220726 0.06985438 0.057874475
00000000: d0eb 7b3c 377e 45bc 4109 64bd f97d 5a3c
00000010: 2fa4 11be d591 ee3d 3471 13bd d1ba 83bd
00000020: d249 0c3d 8115 1ebd 29c9 c5bd 0dca 9fbd
00000030: d732 78bd 9cf8 dc3d 7af4 1dbd 68b5 7dbd
00000040: a9ad ce3b 716a 81bd 4647 953d 8125 813b
00000050: 75fe ef3c 3eb2 16bd d14e 01bd 8b31 a83d
00000060: 8702 c2bd 7c66 abbd d7c3 c2bd cf42 03be
00000070: ed3c de3d 5f42 52bd 4e49 2a3e a5e1 9c3d
00000080: 25e1 5a3c 312f 08bd 7154 cb3d 92c4 cb3d
00000090: 2f1b 54bd e0d8 88bd 7b2e e63d 2c70 d3bc
000000a0: fd0a f9bd 99b0 813d fa0d b83d 7ee4 053c
000000b0: e3bd 583d ae16 a23b 3f67 02be 5905 123e
000000c0: 4afd bb3d 6738 0ebe 4365 793c 1639 ffbc
000000d0: 23fb d1bd d4b3 153d 7104 c13c 658e 583d
000000e0: 42ed a33d 93e7 e03d e9b3 d3bd 9f3a 0f3d
000000f0: 42a9 913c d4a2 ddbd d00f 8f3d c90d 6d3d
