experiments/02_tune_models/selected_trained_models/chebnet_abs/model_state_dict.pt (torch_old, 152562 bytes, 15 tensors)

mlp_layers.0.weight f4 [64, 64]
0	0x3e021c19	0.12706031
1	0x3daa3c7e	0.08312319
2	0xbc18d4e0	-0.009328097
3	0xbdac4ccc	-0.08413085
4	0x3e24af03	0.16082387
5	0x3d8112fb	0.06302448
6	0xbd0b95fa	-0.034078576
7	0xbb128017	-0.002235418
8	0x3d077c37	0.033077445
9	0x3d2a4ca1	0.041576985
10	0xbdea65b9	-0.11445183
11	0xbe0b4a2c	-0.13602513
12	0x3db69337	0.08914798
13	0xbd51bd79	-0.051206086
14	0x3e17a86d	0.14810343
15	0xbd0edf04	-0.034880653
16	0x3e1b67c1	0.15176298
17	0xbdb3c6b5	-0.08778135
18	0xbce11a1c	-0.02747827
19	0x3e213253	0.15741853
20	0x3bb32571	0.00546711
21	0xbdc368d2	-0.09541477
22	0xbd2c9683	-0.042135727
23	0x3d97c7d9	0.07411165
24	0xbdf7a716	-0.12092416
25	0x3d33aaea	0.04386417
26	0xbd0413ab	-0.03224532
27	0xbdcefbe7	-0.1010664
28	0xbd8cb57e	-0.068705544
29	0xbe98d021	-0.2984629
30	0xbbf2afc2	-0.007406206
31	0x3d994663	0.07484128
32	0xbcd319cd	-0.025769139
33	0xbd89cde7	-0.06728726
34	0x3d8591f2	0.065219775
35	0xbe467535	-0.19380648
36	0xbc4bb3d1	-0.012433008
37	0x3cfe4099	0.031036662
38	0x3de8538c	0.1134406
39	0xbd4a7ea9	-0.0494372
40	0x3c09dc3e	0.008414326
41	0xbdc26ea8	-0.09493762
42	0x3d980025	0.074219026
43	0x3d267e42	0.040647753
44	0x3ddcf920	0.10789704
45	0xbd0f02ce	-0.034914784
46	0xbc6712fb	-0.014103646
47	0x3cec58a9	0.02885087
48	0xbd0323d4	-0.03201659
49	0xbe0ae2a8	-0.13563025
50	0xbe8748a1	-0.264226
51	0xbda208de	-0.079118475
52	0x3cc2ca76	0.023778182
53	0xbd9dc699	-0.07703895
54	0x3e2962ce	0.16541597
55	0x3dfab842	0.12242176
56	0xbd77299f	-0.060342427
57	0xbd4b07af	-0.049567875
58	0xbd90a122	-0.07061984
59	0x3cb27f90	0.021789342
60	0xbea80512	-0.32816368
61	0x3e8f7938	0.2802217
62	0xbdb4088a	-0.08790691
63	0x3d26f4b6	0.04076072
64	0xbed0d7bd	-0.40789595
65	0xbd6767ea	-0.056495585
66	0xbe6ef558	-0.23335779
67	0x3da725e1	0.08161522
68	0x3ea3fdd9	0.32029608
69	0xbe6b91c1	-0.2300482
70	0x3e9cb33f	0.30605504
71	0xbe26961c	-0.162682
72	0x3dd644de	0.10462354
73	0x3e278988	0.16361058
74	0x3e5c2ebc	0.21502203
75	0xbea9e9e9	-0.33186272
76	0xbe488ca9	-0.19584908
77	0xbe959792	-0.292172
78	0xbd878f22	-0.06619097
79	0xbde94c41	-0.113914974
80	0x3da8e66e	0.08247076
81	0x3e1e844d	0.15480156
82	0xbef1674f	-0.4714913
83	0x3cf1ce32	0.029517267
84	0x3e750b8d	0.23930188
85	0x3ee708fb	0.4512404
86	0x3f7d9417	0.9905409
87	0xbd3950c8	-0.045243055
88	0xbe73e7de	-0.23818919
89	0xbe62aba6	-0.22135791
90	0xbe3cbe87	-0.18432055
91	0x3dda7c00	0.106681824
92	0xbe6eac12	-0.23307827
93	0x3ea4b39f	0.3216829
94	0x3d99f94a	0.07518251
95	0x3f1632ee	0.5867146
96	0x3f0f71fe	0.56033313
97	0x3d4373f4	0.047718003
98	0x3e4b162e	0.1983268
99	0x3f0dbd6a	0.5536715
100	0x3e86ac53	0.26303348
101	0x3e4a49b7	0.19754682
102	0xbe297d4d	-0.16551705
103	0x3d7aef86	0.061263584
104	0xbd54d01d	-0.051956285
105	0xbef14b64	-0.4712783
106	0xbe24c00b	-0.16088884
107	0xbe16411b	-0.14673273
108	0x3e10b723	0.14132361
109	0x3e33f1f5	0.17572768
110	0x3da0c318	0.07849711
111	0x3e155bd4	0.14585811
112	0x3e53283f	0.20620821
113	0xbe6961d3	-0.22791223
114	0x3e9f79dc	0.3114766
115	0xbda44819	-0.08021564
116	0xbce81d12	-0.028334174
117	0xbdb737cb	-0.089461885
118	0xbd84f06f	-0.064911716
119	0xbe1bdde7	-0.15221368
120	0xbf05b007	-0.5222172
121	0x3e11bae2	0.14231446
122	0x3e848a04	0.25886548
123	0xbe15fe46	-0.14647779
124	0x3e5ceb3c	0.2157411
125	0x3c797024	0.01522449
126	0xbe82a527	-0.25516626
127	0x3dfe31df	0.12411856
128	0x3f11adab	0.5690562
129	0xbe03cd43	-0.1287127
130	0x3e9fee1c	0.3123635
131	0x3e694152	0.22778824
132	0x3e623d1d	0.22093625
133	0xbdddb4b5	-0.10825483
134	0xbcbda8da	-0.023151804
135	0x3e95cfd1	0.29260114
136	0x3ed48390	0.41506624
137	0x3ed077ae	0.40716308
138	0xbdb5847c	-0.0886316
139	0xbe77ad0d	-0.24187107
140	0x3dd7b166	0.10531883
141	0x3e8fe4b1	0.28104165
142	0x3f0b5e63	0.544409
143	0x3ecf4745	0.40484062
144	0x3ea45c72	0.3210178
145	0xbd8cae49	-0.0686918
146	0x3d1143a4	0.035464898
147	0x3ebdc7bd	0.3706645
148	0x3e1fd030	0.15606761
149	0x3d508413	0.050907206
150	0xbdb2789d	-0.087144114
151	0xbdcf1356	-0.1011111
152	0xbe18d425	-0.14924677
153	0xbc5f0c02	-0.013613703
154	0xbca997db	-0.020702293
155	0xbd93ef21	-0.072233446
156	0xbd9d9bf9	-0.07695765
157	0xbe5a252d	-0.21303244
158	0xbd884375	-0.066534914
159	0xbe068f45	-0.1314059
160	0xbe432c3c	-0.19059843
161	0xbde6004e	-0.11230527
162	0x3dab1d9f	0.08355259
163	0xbdace40a	-0.084419325
164	0xbd930612	-0.07178892
165	0x3f0864cc	0.53278804
166	0x3ebef6b2	0.3729759
167	0x3e0af566	0.13570175
168	0xbda765f2	-0.081737414
169	0x3e1ea23a	0.15491572
170	0xbd5ac9eb	-0.05341522
171	0xbeb3e358	-0.35134387
172	0x3d5ec6b6	0.054388724
173	0xbe6bedb8	-0.23039901
174	0xbe35a2a5	-0.17737825
175	0x3deeff7c	0.116698235
176	0xbe24729a	-0.16059342
177	0xbe16041a	-0.14650002
178	0xbe1d5a30	-0.15366435
179	0xbe6381c4	-0.2221747
180	0xbdc67d75	-0.09691898
181	0x3ed24aca	0.41072685
182	0x3e8d7b02	0.2763291
183	0x3dacf8ee	0.08445917
184	0xbd875467	-0.06607895
185	0xbe4ab757	-0.19796501
186	0xbf122761	-0.5709134
187	0xbd415c14	-0.047206953
188	0xbeab5775	-0.33465162
189	0x3f138f10	0.5764017
190	0xbd6d084d	-0.057869244
191	0xbd19aee1	-0.037520293
192	0xbd69d7a3	-0.057090413
193	0xbe02120b	-0.12702195
194	0x3df1f5ab	0.118144356
195	0x3e1ac05b	0.1511244
196	0xbe31a6ed	-0.17348833
197	0xbc8456d6	-0.016154688
198	0x3c4ae6dd	0.012384144
199	0xbcae251f	-0.021257935
200	0x3dfeff21	0.12451006
201	0x3e15866a	0.14602056
202	0xbe0d3127	-0.13788281
203	0xbe0d2e64	-0.13787228
204	0x3c905f69	0.01762362
205	0xbdc47ce4	-0.095941335
206	0xbe18d1e0	-0.14923811
207	0x3ef1853b	0.4717196
208	0x3e331c83	0.17491345
209	0x3e9597bc	0.29217327
210	0xbddcbbaa	-0.107779816
211	0x3dfdacf5	0.123865046
212	0xbe097761	-0.13424446
213	0x3e847373	0.2586933
214	0xbd025b9e	-0.031825654
215	0xbcdda1f6	-0.027054768
216	0xbdf12bae	-0.11775909
217	0x3dce2808	0.10066229
218	0x3cd9e8c6	0.026600253
219	0x3dcdd719	0.10050792
220	0xbe05d5c1	-0.13069822
221	0x3d92116e	0.07132231
222	0xbd9923be	-0.074775204
223	0xbe1bcce4	-0.15214878
224	0xbeec9059	-0.4620388
225	0x3e9ccaae	0.30623382
226	0x3d539ce4	0.051663294
227	0x3d32de57	0.04366907
228	0xbf0c5433	-0.5481598
229	0x3dfc754f	0.12327062
230	0xbe490494	-0.19630653
231	0xbe3b04d1	-0.18263556
232	0x3d6dfa80	0.058100224
233	0xbc2c01a6	-0.01049844
234	0x3d55c95e	0.05219399
235	0xbdbf745f	-0.09348368
236	0x3c1fe911	0.009760157
237	0xbea3bdaf	-0.31980655
238	0xbd63d7a6	-0.05562558
239	0x3e3a6953	0.1820424
240	0xbd09feef	-0.03369039
241	0xbd0393a0	-0.032123208
242	0x3cdae696	0.02672128
243	0xbbdc34b4	-0.00672015
244	0x3d8cacce	0.068688974
245	0x3e1116be	0.14168832
246	0x3df46138	0.119326055
247	0x3da19798	0.07890242
248	0x3da16cfa	0.07882114
249	0xbd988823	-0.07447841
250	0xbe1c8be5	-0.1528774
251	0x3d49f75e	0.049308173
252	0x3c318c23	0.010836634
253	0xbcfe3279	-0.031029927
254	0x3dea1413	0.1142961
255	0x3dc6b8b8	0.09703201

mlp_layers.0.bias f4 [64]
0	0x3c90c5dc	0.017672472
1	0xbe9df4dd	-0.30850878
2	0xbf5dd18e	-0.8664788
3	0x3e875ab8	0.264364
4	0x3e9edbc6	0.3102705
5	0xbe2468bc	-0.16055578
6	0xbca4aee2	-0.020102922
7	0xbefd5776	-0.4948079
8	0xbe94e75a	-0.29082757
9	0x3d9c9fec	0.0764769
10	0xbe931463	-0.2872649
11	0x3f038029	0.5136743
12	0xbf04d87c	-0.5189283
13	0x3e7ab94a	0.24484745
14	0x3cd0d42f	0.025491802
15	0x3d83cdd0	0.0643574
16	0x3e77f719	0.24215354
17	0xbe78cb4e	-0.24296305
18	0x3d9d1662	0.07670285
19	0xbdb9df37	-0.09075778
20	0xbe84e48f	-0.25955626
21	0x3e09991c	0.13437313
22	0xbf5f8146	-0.8730663
23	0xbd118491	-0.035526816
24	0xbeca0e75	-0.39464155
25	0xbd02cdc5	-0.03193452
26	0xbe5d3d75	-0.21605475
27	0x3f0e3454	0.55548596
28	0x3d06e00c	0.03292851
29	0x3e28daa5	0.16489656
30	0x3f0e651f	0.5562305
31	0xbe41c24b	-0.18921773
32	0xbe48769c	-0.19576496
33	0x3d076c43	0.03306223
34	0xbf5d4dde	-0.8644694
35	0x3eabd0b9	0.3355768
36	0x3cb9c949	0.022678988
37	0xbd984db5	-0.074366964
38	0xba152eb4	-0.0005690858
39	0x3efb98a0	0.4913988
40	0xbea0b6b1	-0.31389382
41	0xbed38ea8	-0.41319776
42	0xbd527065	-0.05137672
43	0xbf1847c5	-0.5948451
44	0x3eb4dfd5	0.3532702
45	0x3f0d31cb	0.55154103
46	0xbe8a0090	-0.26953554
47	0xbd44693f	-0.047951933
48	0xbe6aed18	-0.22942007
49	0x3e989581	0.29801562
50	0xbe5b619f	-0.21423958
51	0x3dcac059	0.09899969
52	0xbf1de4cc	-0.6167724
53	0x3e861536	0.26188058
54	0x3e73fdcd	0.23827286
55	0x3c82edff	0.015982626
56	0x3e03e5d0	0.12880635
57	0xbeec0a9d	-0.46101847
58	0x3ec7389d	0.3891038
59	0xbecc36e4	-0.39885628
60	0x3e50b801	0.20382692
61	0xbed4f5d4	-0.41593802
62	0xbeddc291	-0.43312505
63	0xbe13518f	-0.14386581

mlp_layers.1.weight f4 [64, 64]
0	0xbcd8b0b9	-0.026451455
1	0xbf0b511f	-0.54420656
2	0xbdc810d7	-0.09768837
3	0x3d2f88ce	0.042855076
4	0x3e93da50	0.28877497
5	0x3d376259	0.044771526
6	0xbd0495d1	-0.03236944
7	0xbdede22a	-0.11615403
8	0xbeaef856	-0.3417384
9	0xbc5d5dae	-0.0135111045
10	0xbe868b2c	-0.26278055
11	0x3e412731	0.18862607
12	0xbd94661b	-0.072460376
13	0xbd510fab	-0.051040333
14	0xbdccd047	-0.10000663
15	0x3ca96ea5	0.020682642
16	0x3dff77db	0.124740325
17	0xbe507878	-0.20358455
18	0xbe4c7798	-0.19967496
19	0xbdb9a3ae	-0.090644225
20	0x3e19e90d	0.15030308
21	0xbdc8940f	-0.09793865
22	0xbddde93d	-0.10835502
23	0xbf169f66	-0.5883697
24	0xbf2d5114	-0.6770184
25	0x3cf06508	0.02934505
26	0x3dd51bdd	0.10405705
27	0x3e245f9b	0.16052096
28	0xbc4c9c64	-0.012488458
29	0x3de16c18	0.11006945
30	0x3e5b9279	0.21442594
31	0xbdec6d41	-0.11544276
32	0xbf3d06aa	-0.73838294
33	0xbf6e4122	-0.93068135
34	0xbdb253da	-0.087074
35	0x3eb9da9e	0.36299604
36	0xbe3ac561	-0.18239357
37	0xbe332e63	-0.17498164
38	0xbdbab4fc	-0.09116551
39	0x3e26da3f	0.16294192
40	0x3e3bb641	0.18331243
41	0xbcd7f6f9	-0.026362883
42	0x3c90cb2f	0.01767501
43	0xbd8bb90f	-0.068224065
44	0x3e060305	0.1308709
45	0x3e147299	0.1449684
46	0x3dba0753	0.09083428
47	0xbd886070	-0.06659019
48	0x3e1dceeb	0.15410964
49	0x3e0e6e75	0.13909324
50	0x3d162e00	0.036664963
51	0x3e98dfb0	0.2985816
52	0xbd1bbb0a	-0.03802017
53	0x3e008991	0.12552477
54	0x3e1bf3de	0.15229747
55	0x3d7d8fff	0.061904904
56	0x3defeee6	0.11715488
57	0xbd6ac659	-0.057318065
58	0x3e4fa079	0.20276059
59	0x3de53ed6	0.11193626
60	0x3d9146c8	0.070935786
61	0xbd357e1a	-0.044309713
62	0x3dc8ba1e	0.09801124
63	0xbe2a6998	-0.16641843
64	0xbd0ce95b	-0.034402233
65	0xbee1d44b	-0.4410728
66	0xbd0c9910	-0.03432566
67	0x3d8cb210	0.068699
68	0x3cbd6525	0.023119519
69	0xbdb3b286	-0.08774285
70	0x3c035ffe	0.008018492
71	0xbe43141e	-0.19050643
72	0xbeac89c2	-0.3369885
73	0xbe28cc79	-0.1648425
74	0xbdf5e2e7	-0.12006169
75	0xbd222063	-0.039581668
76	0x3ba5e6b3	0.005062902
77	0xbd1540c5	-0.036438722
78	0x3d8f04b1	0.06983317
79	0xbd47ff7b	-0.04882763
80	0x3da53a97	0.08067816
81	0xbe0ff97e	-0.14060017
82	0x3dc406bc	0.09571597
83	0x3d1e8309	0.038699184
84	0x3dd1eed5	0.10250632
85	0xbd21c2a7	-0.039492276
86	0x3d892805	0.06697086
87	0xbe49ca2b	-0.19706027
88	0xbe1a241f	-0.15052842
89	0xbca73ccd	-0.020414734
90	0xbd5eaf3a	-0.054366328
91	0xbd7e81a4	-0.062135354
92	0xbd955ce2	-0.072931066
93	0xbd7d0c8b	-0.06177954
94	0xbddfd957	-0.10930126
95	0xbda9ee9e	-0.08297466
96	0xbc999a25	-0.01875026
97	0xbea1183b	-0.314638
98	0xbda721e7	-0.08160763
99	0xbdcf112d	-0.10110698
100	0xbc9ceced	-0.019155944
101	0xbde2687f	-0.11055087
102	0x3d922529	0.07135994
103	0x3d851f8f	0.0650016
104	0xbe564cb3	-0.20927696
105	0x3d08f032	0.033432193
106	0xbdb6d06f	-0.08926474
107	0x3d3c03a2	0.045901902
108	0xbc0de3df	-0.008660286
109	0xbcda4dcf	-0.02664843
110	0x3dd25a25	0.102711
111	0x3caca933	0.021076774
112	0xbddade3d	-0.1068692
113	0x3d83938a	0.06424625
114	0x3e17e563	0.14833598
115	0xbe72a2bb	-0.23694889
116	0xbda8f580	-0.082499504
117	0xbdc5ebe5	-0.09664134
118	0x3ce2945c	0.027658634
119	0xbd2664ee	-0.040623598
120	0x3d213435	0.03935643
121	0x3d9c4dd3	0.07632031
122	0x3db75ec8	0.08953625
123	0xbddf92e0	-0.10916686
124	0x3da4e70c	0.08051881
125	0x3cae050f	0.021242647
126	0xbddb002f	-0.106933944
127	0xbda7b033	-0.08187904
128	0xbcb198c3	-0.021679288
129	0xbecaaa0f	-0.3958287
130	0x3e2febf9	0.1717986
131	0x3dc7d6f2	0.097577944
132	0x3d8288e8	0.06373769
133	0x3d8717d5	0.065963425
134	0xbda3dce5	-0.08001117
135	0xbd7167a4	-0.05893673
136	0xbb42a7e1	-0.0029702114
137	0x3dfe0344	0.124029666
138	0x3ec285f6	0.3799283
139	0xbc02761a	-0.007962728
140	0xbd6b488c	-0.057442233
141	0x3dc6d0f7	0.09707826
142	0x3d7dbd65	0.0619482
143	0xbe102a9f	-0.14078759
144	0xbde2ad8e	-0.11068259
145	0xbd19ac8b	-0.037518065
146	0xbc163ac1	-0.009169281
147	0xbe0f6efe	-0.14007184
148	0x3b6abc02	0.0035817628
149	0xbb9103d8	-0.004425507
150	0x3da5e464	0.08100203
151	0xbef71732	-0.48259884
152	0x3ce8baa4	0.02840931
153	0x3da2d467	0.07950669
154	0x3dadcbd2	0.08486141
155	0x3c954b7e	0.018224474
156	0x3d505796	0.05086478
157	0xbd62929c	-0.0553156
158	0xbdcc29b6	-0.09968893
159	0x3e3184e4	0.1733585
160	0xbdec38f0	-0.115342975
161	0xbe70c25e	-0.23511645
162	0xbda4f789	-0.08055026
163	0xbde10455	-0.109871544
164	0xbce8e2ca	-0.028428454
165	0xbce55685	-0.027995357
166	0xbddca674	-0.10773936
167	0xbda84580	-0.08216381
168	0xbd2a98a7	-0.041649487
169	0xbde0e39f	-0.10980915
170	0xbdbda1e9	-0.092593975
171	0xbd67e954	-0.056619003
172	0xbe139344	-0.14411646
173	0x3cd106bb	0.025515905
174	0x3d244ec5	0.040114183
175	0xbde335cb	-0.110942446
176	0xbe13b9e9	-0.14426388
177	0xbdc02ecf	-0.09383928
178	0xbd7f10f5	-0.06227203
179	0xbe0f2d64	-0.13982159
180	0xbe01f33b	-0.12690441
181	0x3da51fae	0.08062683
182	0xbdae8cac	-0.08522925
183	0xbe246cc7	-0.1605712
184	0xbdb0d22d	-0.08633838
185	0xbd21d065	-0.03950538
186	0xbc3e66d7	-0.011621199
187	0xbdbfc186	-0.093630835
188	0x3da6da5e	0.08147119
189	0x3d39f453	0.04539902
190	0xbdcd51ae	-0.10025345
191	0xbeb36f39	-0.35045794
192	0x3de6de42	0.11272861
193	0xbe86a1c5	-0.26295295
194	0xbeb7ba75	-0.35884443
195	0xbdddf0de	-0.108369574
196	0x3c705ab4	0.014670063
197	0xbd0fb941	-0.03508878
198	0x3c95b867	0.018276406
199	0x3dac671e	0.084181055
200	0xbcb24876	-0.021763068
201	0x3d11ea00	0.03562355
202	0xbea2654b	-0.31717905
203	0xbdd7daa4	-0.10539749
204	0x3d493e0c	0.049131438
205	0xbd19eab8	-0.03757736
206	0xbd0358c1	-0.032067064
207	0xbd920519	-0.071298786
208	0xbd8e421d	-0.06946204
209	0xbe2f12aa	-0.17096964
210	0xbdca7265	-0.098851
211	0xbbc55559	-0.006022137
212	0xbe97a166	-0.29615325
213	0xbc7941f7	-0.015213481
214	0xbe486c7c	-0.19572634
215	0xbe9c0506	-0.30472583
216	0xbd1193c3	-0.035541307
217	0x3e4001e0	0.18750715
218	0x3d086f30	0.03330916
219	0xbd8125ed	-0.06306062
220	0xbdd2cb49	-0.1029268
221	0x3e3b8c94	0.18315345
222	0x3cd4c21c	0.025971465
223	0x3d99b10a	0.07504471
224	0xbcfd1e7e	-0.030898329
225	0xbedebb8a	-0.43502456
226	0xbe22bbce	-0.15891954
227	0xbe262dfe	-0.16228482
228	0xbda62cb4	-0.08113995
229	0xbea0c01f	-0.31396577
230	0x3d4dfcba	0.050289847
231	0xbdd390e7	-0.10330372
232	0xbe784e36	-0.24248585
233	0xbe225eeb	-0.15856521
234	0xbd858501	-0.06519509
235	0xbcbd488c	-0.023105882
236	0xbc9d7122	-0.019218985
237	0xbc9955fa	-0.018717755
238	0x3ca7becc	0.020476721
239	0x3e12098e	0.14261457
240	0xbc50f8db	-0.012754644
241	0x3d1c8e0d	0.038221408
242	0xbe1f108e	-0.15533659
243	0xbe9715de	-0.2950887
244	0xbe189b1e	-0.14902923
245	0x3d9dfbdc	0.07714054
246	0xbe064ba9	-0.131148
247	0xbdd79e68	-0.105282605
248	0xbda7bc15	-0.08190171
249	0x3da311e1	0.079623945
250	0xbbc109ed	-0.005891076
251	0xbe23c292	-0.15992191
252	0xbdca9952	-0.09892525
253	0xbe909327	-0.28237268
254	0xbeaf9965	-0.34296718
255	0xbf09224c	-0.5356796

mlp_layers.1.bias f4 [64]
0	0x3f31fadf	0.69523424
1	0xbd2127c1	-0.039344553
2	0x3e6ccf37	0.23125921
3	0xbe1c37fc	-0.15255731
4	0x3f34c6d3	0.7061588
5	0xbf46e039	-0.77685887
6	0xbf17daad	-0.5931805
7	0x3ebc3317	0.36757728
8	0x3e314b3f	0.1731386
9	0xbde03b89	-0.109488554
10	0x3f07ac7a	0.52997553
11	0xbf3a73e0	-0.7283306
12	0xbf13187e	-0.5745925
13	0xbf1e2e91	-0.61789805
14	0xbf19a5c4	-0.60018563
15	0x3f02da23	0.511141
16	0x3f20af95	0.62767917
17	0xbe9cb8e7	-0.3060982
18	0xbe1db1ef	-0.15399908
19	0xbe960b19	-0.29305342
20	0x3e1ae862	0.1512771
21	0x3ecac824	0.3960582
22	0x3f3f6ba9	0.7477365
23	0xbebed8e7	-0.37274858
24	0xbe0eaf22	-0.13933995
25	0xbd8e8662	-0.06959225
26	0xbf0ad027	-0.54223865
27	0xbf0c9e05	-0.5492862
28	0xbfaa6b67	-1.3314027
29	0xbfaad5ea	-1.3346531
30	0x3f18e6dd	0.5972727
31	0xbe9ad908	-0.30243707
32	0x3ec55f07	0.38549063
33	0xbf87a552	-1.0597327
34	0x3f50cae8	0.8155961
35	0x3f316f40	0.6931038
36	0xbe446400	-0.19178772
37	0x3e810c48	0.25204682
38	0x3f106f36	0.56419694
39	0xbf56746c	-0.83771396
40	0xbf40e0f7	-0.7534327
41	0xbf5ff2c9	-0.87479836
42	0x3ada8af6	0.0016673494
43	0x3f231104	0.6369784
44	0x3e8a186a	0.2697175
45	0xbf0889cc	-0.5333526
46	0xbf7dad0b	-0.9909217
47	0xbcfa7330	-0.030572504
48	0xbf5c4807	-0.86047405
49	0xbd57fc39	-0.052730773
50	0xbe054f0f	-0.1301844
51	0xbee11a9b	-0.4396561
52	0xbf926ed2	-1.144007
53	0xbf7c86dc	-0.9864328
54	0xbf734e5f	-0.9504146
55	0xbed21c36	-0.41037148
56	0xbe852677	-0.2600591
57	0x3f1903c9	0.597714
58	0xbda1559d	-0.078776576
59	0xbe7e2078	-0.24817073
60	0xbe55519d	-0.20831914
61	0x3e7b8fa8	0.2456652
62	0x3f0e2f8b	0.55541295
63	0xbf77b8ad	-0.9676617

mlp_layers.2.weight f4 [64, 64]
0	0x3d1aadee	0.03776353
1	0xbd8f7fb4	-0.07006779
2	0x3d497d7e	0.049191944
3	0xbde71218	-0.11282748
4	0x3dcceb6e	0.10005842
5	0xbd24f861	-0.040275935
6	0xbcbda79b	-0.02315121
7	0x3d2be94f	0.041970547
8	0x3c07adce	0.008281184
9	0xbcda3418	-0.026636168
10	0x3e288986	0.16458711
11	0xbdd6331b	-0.10458966
12	0x3e07f00b	0.13275163
13	0x3dcf4f0f	0.10122501
14	0xbe4161eb	-0.18885009
15	0x3cea103c	0.028572194
16	0x3db1997d	0.08671854
17	0xbcf6e52b	-0.030138573
18	0xbd690bb9	-0.056895945
19	0xbd220c2c	-0.03956239
20	0x3d5f9d69	0.054593477
21	0x3db96f80	0.0905447
22	0x3e3ecc29	0.18632568
23	0xbd799871	-0.060936395
24	0xbd9ac8be	-0.0755782
25	0xbd8951b6	-0.06705038
26	0xbdecdcfd	-0.11565588
27	0x3d127ffb	0.035766583
28	0xbe950411	-0.29104665
29	0xbdc0c679	-0.09412856
30	0x3d286ff5	0.041122396
31	0xbe745a5e	-0.23862597
32	0x3de70071	0.11279381
33	0xbf133c49	-0.5751386
34	0x3e56c7fe	0.20974728
35	0x3e3a6eae	0.18206283
36	0x3e11e9d2	0.14249352
37	0xbc7905d5	-0.015199144
38	0x3d6579a0	0.056024194
39	0x3d132bac	0.03593032
40	0xbe6863f3	-0.22694378
41	0xbe5b5e58	-0.21422708
42	0x3d8383e6	0.06421642
43	0x3e7c4133	0.24634247
44	0xbd0b81a0	-0.034059167
45	0xbdcf9662	-0.10136105
46	0xbe369b37	-0.17832647
47	0x3e1c9b87	0.15293704
48	0xbe30bddb	-0.17259924
49	0x3d62ab7c	0.05533932
50	0xbd828031	-0.06372107
51	0xbe2377ab	-0.15963618
52	0xbda286a0	-0.07935834
53	0xbd7efee4	-0.0622548
54	0xbe7e5266	-0.2483612
55	0xbddfe9c6	-0.109332606
56	0xbe96753a	-0.29386312
57	0x3e5b480c	0.21414202
58	0x3d357de3	0.044309508
59	0xbe5142b8	-0.20435607
60	0xbe2e7e81	-0.17040445
61	0xbbbcb1fb	-0.0057585216
62	0x3cf1d79c	0.029521756
63	0x3d309d54	0.04311879
64	0x3e087207	0.13324748
65	0x3dd70572	0.104990855
66	0xbc2c5e67	-0.010520554
67	0xbd845f99	-0.06463546
68	0x3caf7df2	0.02142236
69	0xbdcc5c09	-0.09978492
70	0x3e574f6c	0.21026391
71	0x3c72bd90	0.014815703
72	0x3e030952	0.12796524
73	0xbe279f28	-0.16369307
74	0x3d8506b2	0.06495418
75	0xbdad4209	-0.08459861
76	0xbd05a8e7	-0.03263178
77	0x3e141334	0.1446045
78	0xbe3163b1	-0.17323186
79	0x3e0a6542	0.1351519
80	0xbc1c0f08	-0.009525068
81	0x3e33134c	0.1748783
82	0x3de2c2e5	0.110723294
83	0x3d86bc13	0.06578841
84	0xbdc59d79	-0.09649176
85	0x3d17c822	0.037056096
86	0x3dddba02	0.10826494
87	0x3c4030ad	0.011730355
88	0xbd5f55e9	-0.05452529
89	0xbd55aabb	-0.052164774
90	0x3d4e1975	0.050317246
91	0xbddadf26	-0.106870934
92	0xbe0eec1a	-0.13957253
93	0xbe0533e7	-0.1300808
94	0x3c8115b5	0.015757421
95	0x3b8e13bb	0.004335848
96	0x3df88a4d	0.12135754
97	0xbe3167fc	-0.17324823
98	0x3d9be254	0.07611528
99	0x3aa764b4	0.0012771101
100	0x3bd8b330	0.0066131577
101	0xbda0cb7d	-0.07851312
102	0xbd18aef4	-0.037276223
103	0xbe441708	-0.1914941
104	0x3d182233	0.03714199
105	0xbd9e24a8	-0.077218354
106	0x3d176fe5	0.036971945
107	0x3d793e32	0.06085033
108	0xbd74371f	-0.05962288
109	0xbdc18247	-0.094486766
110	0xbe9015e6	-0.28141707
111	0x3d6797d8	0.056541294
112	0xbe2ea6c2	-0.170558
113	0x3d8b8d60	0.068140745
114	0x3d4c538f	0.049884375
115	0xbea4024f	-0.3203301
116	0xbdd6fff1	-0.10498036
117	0xbe224b94	-0.15849143
118	0xbe65193a	-0.22372904
119	0xbde0c6d8	-0.109754264
120	0xbd8ce7c0	-0.0688014
121	0x3e5580fd	0.20849986
122	0x3d73a2d9	0.059481476
123	0x3d0f7b36	0.035029612
124	0x3d7edcec	0.062222406
125	0x3d9dec90	0.07711136
126	0xbd194adf	-0.03742492
127	0xbdf0c447	-0.11756187
128	0xbd87a739	-0.06623692
129	0xbdeb6049	-0.11492974
130	0xbdb051e0	-0.086093664
131	0xbd96ef0a	-0.07369812
132	0xbe1d78a5	-0.15378053
133	0xbcce5f55	-0.025191942
134	0xbe86c8db	-0.26325116
135	0xbda40ec7	-0.08010631
136	0x3d1ff0bc	0.03904794
137	0x3b6e7230	0.003638398
138	0xbe0a152b	-0.13484637
139	0xbbe0b324	-0.0068572927
140	0xbdf0e3af	-0.11762177
141	0x3e4dedb2	0.20110205
142	0xbe22c598	-0.15895689
143	0xbe0909fa	-0.13382712
144	0xbdf64c3f	-0.120262615
145	0xbe235ea8	-0.15954077
146	0x3c77934f	0.015110805
147	0x3d41ea32	0.047342487
148	0xbda58bac	-0.08083281
149	0x3db9fea5	0.09081773
150	0xbd4cb0e5	-0.049973387
151	0xbccd50e0	-0.025062978
152	0xbe05a7b2	-0.13052252
153	0xbe3fc2df	-0.18726681
154	0x3aaa00a6	0.0012970164
155	0xbee978e0	-0.45600033
156	0xbd5e5e26	-0.054289006
157	0xbe711a60	-0.23545218
158	0xbbd633b9	-0.0065369275
159	0x3d6a8ae7	0.057261374
160	0xbdda1913	-0.10649314
161	0xbdd4f916	-0.10399072
162	0xbd74c33a	-0.059756495
163	0xbe1b0a1a	-0.15140572
164	0xbe275a0b	-0.16342942
165	0x3a250365	0.00062947563
166	0xbdf43449	-0.11924035
167	0xbe41cc71	-0.18925644
168	0xbc6d0109	-0.014465579
169	0x3db1f773	0.08689775
170	0x3c8b1844	0.016979344
171	0x3b8c81ee	0.0042879498
172	0xbd1f38ac	-0.038872406
173	0xbb8f80c3	-0.0043793633
174	0xbd0f792c	-0.035027668
175	0xbe26452e	-0.16237327
176	0xbdcfab0b	-0.10140046
177	0xbe5f61ac	-0.21814603
178	0xbc38193a	-0.011236483
179	0xbe9163d9	-0.2839649
180	0xbdb9feab	-0.09081777
181	0xbe80407c	-0.25049198
182	0xbd17f653	-0.037100147
183	0x3d8950ae	0.067048416
184	0x3e083b69	0.13303913
185	0xbdf80d3d	-0.121119
186	0xbe1b5aef	-0.15171407
187	0xbcf03a84	-0.029324777
188	0xbab809e6	-0.0014041036
189	0x3e145b0d	0.14487858
190	0x3db4dac8	0.08830792
191	0xbe8e0b25	-0.27742878
192	0x3e98062f	0.29692218
193	0xbc886adb	-0.016652515
194	0xbc93b5e0	-0.01803106
195	0x3e72c2c2	0.23707107
196	0x3e6dc5ec	0.23220032
197	0xbd0a0943	-0.03370024
198	0xbc74c2d4	-0.014939029
199	0x3e280b1b	0.16410486
200	0xbdc7e112	-0.09759726
201	0x3d1d9808	0.038475066
202	0x3cd49d6f	0.025953976
203	0xbe3fefd4	-0.18743831
204	0xbc2f1d65	-0.010688161
205	0x3c05c2b7	0.008164099
206	0xbe1660b3	-0.14685325
207	0x3e3d172a	0.18465868
208	0x3dad8a25	0.084736146
209	0x3deca828	0.11555511
210	0x3d76ffc3	0.060302507
211	0xbd487221	-0.048936967
212	0x3d918f74	0.0710744
213	0x3da1a3c9	0.07892568
214	0x3c94e260	0.01817435
215	0x3e293d7d	0.16527362
216	0x3dc0929a	0.09402962
217	0x3dcafa80	0.0991106
218	0xbcc2a9db	-0.023762634
219	0xbe5bc097	-0.21460186
220	0xbdeafd00	-0.11474037
221	0xbd238f23	-0.039931428
222	0x3d8f17bc	0.06986949
223	0x3e0342a8	0.12818396
224	0xbbcd8f63	-0.0062731965
225	0xbda2a26a	-0.07941134
226	0x3e83e92b	0.2576383
227	0x3e42bacc	0.1901657
228	0xbe143fed	-0.14477511
229	0xbd7d6dff	-0.06187248
230	0x3e52ce98	0.20586622
231	0xbe1b25b8	-0.15151107
232	0x3d83041c	0.06397268
233	0xbe42629e	-0.18982932
234	0xbdc70f84	-0.09719756
235	0x3e3a575f	0.18197392
236	0x3dc4eeef	0.096158855
237	0xbe840eb8	-0.2579248
238	0xbe3d0191	-0.18457629
239	0xbc924e69	-0.017859655
240	0xbe126b5d	-0.14298768
241	0x3e01cac5	0.12675007
242	0x3d2edc8f	0.04269081
243	0xbe70edb2	-0.23528174
244	0x3cd977c9	0.026546376
245	0xbe82209c	-0.25415504
246	0xbe4fbec0	-0.20287609
247	0xbdd68bd2	-0.10475887
248	0x3c08cfdb	0.008350338
249	0x3de2deae	0.11077629
250	0xbc808369	-0.015687661
251	0x3cb22781	0.021747353
252	0xbdab2528	-0.08356696
253	0xbc860f82	-0.016364817
254	0x3dce6e5f	0.10079645
255	0xbd914d85	-0.07094864

mlp_layers.2.bias f4 [64]
0	0x3f36abf2	0.7135612
1	0x3f386a65	0.72037345
2	0xbcd31496	-0.025766652
3	0x3f62f811	0.8865977
4	0xbf5f92e3	-0.87333506
5	0x3f481df4	0.78170705
6	0x3ab0c777	0.001348718
7	0xbf6de638	-0.9292941
8	0xbcea1f7f	-0.028579472
9	0x3e8a989c	0.27069557
10	0xbf610f83	-0.87914294
11	0xbd369fbf	-0.04458594
12	0xbc8d023f	-0.017212985
13	0x3d35f479	0.0444226
14	0x3f26caf7	0.6515345
15	0xbd9caa7c	-0.07649705
16	0xbf3f7a1a	-0.7479569
17	0xbeb9ba5f	-0.36275002
18	0x3c1ced51	0.009578065
19	0xbf532e4d	-0.82492524
20	0xbee04dfd	-0.438095
21	0xbdbed39b	-0.09317704
22	0x3cc8ce2e	0.024512377
23	0x3f633eae	0.88767517
24	0xbf1c1f15	-0.6098493
25	0xbf474ffb	-0.77856416
26	0xbf2f7119	-0.6853195
27	0xbd4d2958	-0.050088257
28	0xbf535791	-0.8255549
29	0x3f4aecf4	0.7926781
30	0xbdb790f2	-0.08963193
31	0x3f261dc1	0.6488915
32	0xbf40af52	-0.7526752
33	0x3c8a835f	0.016908346
34	0x3f4e27a2	0.80529225
35	0x3f5f45a3	0.8721563
36	0x3f44c1ec	0.768584
37	0x3f2f5cf9	0.6850124
38	0xbf600650	-0.8750963
39	0x3cfb467a	0.030673254
40	0xbdafae80	-0.08578205
41	0xbd10d6b4	-0.035361007
42	0x3f41c6c1	0.756939
43	0xbe97fff6	-0.2968747
44	0x3f1c6d1d	0.61103994
45	0xbdcfed76	-0.10152714
46	0xbf56e0e9	-0.83936936
47	0xbd857dbd	-0.06518123
48	0x3edaafc8	0.42712235
49	0x3f37b5dd	0.71761876
50	0x3e1690fb	0.14703743
51	0x3f620eb6	0.883037
52	0x3f39d97a	0.7259747
53	0xbf80da53	-1.0066627
54	0x3f698df7	0.91232246
55	0xbf68945f	-0.90851396
56	0x3f0a0efe	0.53929126
57	0x3f4d05be	0.80086887
58	0x3e24dbff	0.16099547
59	0x3eb37821	0.3505259
60	0xbf039eec	-0.5141437
61	0xbeb4f30f	-0.3534169
62	0xbf81e6be	-1.0148542
63	0x3d9c343a	0.07627149

mlp_layers.3.weight f4 [1, 64]
0	0x3e40e8cd	0.18838806
1	0x3def399c	0.1168091
2	0xbcebbd6e	-0.02877685
3	0x3e63a4e9	0.22230877
4	0xbe3d5aeb	-0.18491714
5	0x3dffab7d	0.12483881
6	0xbd532f1b	-0.051558595
7	0xbdcac86b	-0.09901508
8	0xbde93ea7	-0.11388903
9	0x3d1ca0c6	0.038239263
10	0xbe79272d	-0.2433135
11	0xbb042099	-0.0020161031
12	0xbd2f4dc7	-0.042798784
13	0x3e1ab544	0.1510821
14	0x3d2f423c	0.042787775
15	0x3e082e6f	0.13298963
16	0xbd2c947d	-0.042133797
17	0xbd1d81eb	-0.038453978
18	0xbc88fc21	-0.016721787
19	0xbe1c2005	-0.1524659
20	0xbda17b19	-0.07884807
21	0xbd3da8cf	-0.046303567
22	0x3a1b112d	0.000591534
23	0x3e450391	0.19239642
24	0xbd268b08	-0.040659934
25	0xbe64444d	-0.2229168
26	0xbdbc2c4d	-0.09188137
27	0xbc1624fb	-0.00916409
28	0xbe453bb4	-0.19261056
29	0x3e22a765	0.15884168
30	0xbc845545	-0.01615394
31	0x3e143ecf	0.14477085
32	0xbdb7a2b4	-0.0896658
33	0xbc0ad6f5	-0.008474101
34	0x3e618a9b	0.2202553
35	0x3e957ef4	0.2919842
36	0x3e8703e5	0.2637016
37	0x3e433e6f	0.19066785
38	0xbe34d66f	-0.17659925
39	0x3e79e19f	0.24402474
40	0x3caaa073	0.020828461
41	0x3b00bd0c	0.001964393
42	0x3e54be54	0.2077573
43	0xbdfc647c	-0.123238534
44	0x3ded906d	0.11599813
45	0xbe532b14	-0.20621902
46	0xbe62e88d	-0.22159024
47	0xbc3ca81a	-0.011514688
48	0x3d7508a2	0.059822686
49	0x3e8c35bf	0.27384755
50	0xbd41a7b1	-0.047279064
51	0x3e78e9c8	0.2430793
52	0x3e54049c	0.20704883
53	0xbe481df6	-0.19542679
54	0x3e9998d8	0.29999423
55	0xbdfddbbe	-0.12395428
56	0x3d8aa511	0.06769765
57	0x3e22b5e7	0.15889703
58	0xbc1369e8	-0.008997418
59	0x3c575c7f	0.013144611
60	0xbc0d7938	-0.008634858
61	0x3d596d8f	0.053083
62	0xbe384f5c	-0.17999023
63	0x3e42d105	0.19025047

conv_layers.0.weight f4 [2, 1, 64]
0	0xbdbecfb4	-0.0931696
1	0x3e832260	0.25612164
2	0xbeb8eea0	-0.36119556
3	0x3b981edb	0.00464235
4	0xbdc78ff9	-0.097442575
5	0xbcf07caa	-0.02935632
6	0x3ea56452	0.323031
7	0x3ddb6947	0.107134394
8	0xbf2f7550	-0.6853838
9	0xbefd14c8	-0.49429917
10	0xbf5a4e7b	-0.85276
11	0x3e75ccbc	0.24003881
12	0x3edc28b9	0.4299982
13	0x3eaba39b	0.3352326
14	0x3db07c91	0.08617509
15	0xbb8ca8b6	-0.004292573
16	0x3ead1ad5	0.33809534
17	0xbf0d3887	-0.5516438
18	0xbef199a4	-0.4718753
19	0x3dc9d1f5	0.09854499
20	0xbdb778fb	-0.08958622
21	0x3f0621ee	0.5239552
22	0x3e80f276	0.25184983
23	0xbcc71d99	-0.024306105
24	0x3f1d4909	0.6143957
25	0x3e0f342e	0.13984749
26	0xbefac06d	-0.48974934
27	0xbea6e41c	-0.3259591
28	0xbeea29f7	-0.45735142
29	0x3eb7ebaf	0.35922
30	0xbf0eb41d	-0.5574358
31	0xbee3d34d	-0.44497147
32	0xbe4e49af	-0.20145296
33	0xbeeeba1a	-0.4662636
34	0x3dd2853e	0.1027932
35	0xbf80a282	-1.0049593
36	0xbcbeb354	-0.02327887
37	0xbea6873e	-0.32525057
38	0xbe8861da	-0.26637155
39	0xbeacf984	-0.33784115
40	0x3f308051	0.68945795
41	0xbec88452	-0.39163452
42	0xbe8f3439	-0.2796953
43	0xbb55a7de	-0.0032601277
44	0x3e9ceaa1	0.30647758
45	0x3e1e35c2	0.15450194
46	0x3aa1b876	0.0012338299
47	0xbea48c95	-0.32138506
48	0xbd033f48	-0.03204277
49	0x3dbd71ab	0.09250196
50	0xbc90d1d5	-0.01767818
51	0xbe57695c	-0.21036285
52	0x3eeabb08	0.4584582
53	0x3e16b421	0.14717151
54	0xbef5cc35	-0.4800736
55	0xbea19276	-0.31557053
56	0xbee6f4af	-0.45108554
57	0x3e1c2820	0.15249681
58	0xbeee31bf	-0.46522328
59	0xbd819b3e	-0.06328438
60	0xbea66240	-0.32496834
61	0xbf106a85	-0.56412536
62	0xbe747602	-0.23873141
63	0xbe4b9945	-0.19882686
64	0xbecfd800	-0.40594482
65	0x3ecfbef5	0.40575376
66	0xbe0976ce	-0.13424227
67	0xbda21131	-0.07913435
68	0x3ea964eb	0.33084807
69	0x3f0a6a0d	0.5406807
70	0xbe2b1629	-0.16707672
71	0x3f610d5a	0.87911
72	0x3eb37294	0.35048354
73	0xbf27291b	-0.65297097
74	0xbef15e07	-0.4714205
75	0x3bc5fc14	0.006042013
76	0x3d31433a	0.043277003
77	0x3f09d1c3	0.53835696
78	0xbda95216	-0.0826761
79	0x3f112b80	0.56707
80	0xbed42270	-0.41432524
81	0xbf72b06a	-0.94800436
82	0xbebd513d	-0.36976042
83	0xbd23b537	-0.03996774
84	0xbdbed446	-0.09317832
85	0x3f6e5669	0.931006
86	0x3e14e441	0.14540197
87	0xbd9f4eeb	-0.07778724
88	0xbcb1c785	-0.021701584
89	0xbe87675d	-0.26446047
90	0xbe2ae8fd	-0.1669044
91	0xbdd3da4e	-0.10344373
92	0xbe72199a	-0.23642579
93	0x3f3a2e4c	0.72726893
94	0xbe2bd826	-0.16781673
95	0xbe4851b1	-0.19562413
96	0xbe3dbf96	-0.18530115
97	0xbf018166	-0.5058807
98	0x3d6843c4	0.05670525
99	0xbf055964	-0.52089524
100	0x3f4beb75	0.79656154
101	0xbdc1cd42	-0.09462978
102	0x3e40c461	0.18824913
103	0xbe27f34e	-0.16401407
104	0x3e851e0d	0.2599949
105	0x3f2dd523	0.67903346
106	0xbe998a97	-0.29988548
107	0xbea1d19a	-0.31605226
108	0xbdf1e98b	-0.11812123
109	0xbf5b9978	-0.8578105
110	0xbea0b695	-0.313893
111	0x3f392da3	0.7233526
112	0xbe9d4762	-0.30718523
113	0x3f163204	0.5867007
114	0x3f44077a	0.7657391
115	0xbe39c212	-0.18140438
116	0xbd0745e7	-0.03302565
117	0xbdd15398	-0.10221022
118	0xbf0a6a2a	-0.54068244
119	0x3cdfb426	0.027307581
120	0xbf80a217	-1.0049466
121	0xbe75cab0	-0.240031
122	0xbdba45e9	-0.090953656
123	0xbe6c0c1f	-0.23051499
124	0xbe5be276	-0.21473107
125	0xbf5238d2	-0.8211795
126	0xbdb5a360	-0.08869052
127	0xbe8fdcc0	-0.28098106

conv_layers.0.bias f4 [64]
0	0xbf244d95	-0.6418088
1	0xbe9e0251	-0.30861142
2	0x3dbbdadb	0.09172603
3	0x3d70457b	0.05866001
4	0x3d205670	0.039144933
5	0x3e00a166	0.12561569
6	0xbf1a3aea	-0.60246146
7	0x3f538374	0.82622457
8	0x3f17cd14	0.592973
9	0xbe9f6e67	-0.31138918
10	0x3e19123a	0.14948359
11	0xbe75c7e7	-0.24002038
12	0xbf27bc59	-0.6552177
13	0xbe9f324a	-0.31093055
14	0xbe74a687	-0.2389165
15	0x3dd85be3	0.10564401
16	0xbf72780a	-0.94714415
17	0xbe84b4c0	-0.2591915
18	0xbe6f4591	-0.23366381
19	0xbe1b47f1	-0.15164162
20	0xbd80b8de	-0.062852606
21	0x3f0db863	0.55359477
22	0xbf1b17dc	-0.6058328
23	0xbea2a660	-0.3176756
24	0xbf26394a	-0.64931166
25	0xbebb4d70	-0.36582518
26	0xbc95e3a7	-0.01829703
27	0x3df1c5b4	0.11805287
28	0xbed5e5fd	-0.4177703
29	0x3d009c38	0.03139898
30	0xbceaef4e	-0.028678562
31	0x3e21aee4	0.15789372
32	0xbeec60ae	-0.4616751
33	0xbe2e5559	-0.17024745
34	0xbde20705	-0.11036495
35	0x3eb103e1	0.34573272
36	0x3f10c780	0.5655441
37	0x3e51a5d8	0.2047342
38	0x3d8e1097	0.06936758
39	0x3dc52182	0.09625532
40	0xbf25ab20	-0.6471424
41	0x3eed7c94	0.46384108
42	0xbebcba62	-0.3686095
43	0xbf06458e	-0.5244988
44	0xbf001080	-0.50025177
45	0xbf480fe2	-0.78149235
46	0xbe8b0691	-0.27153447
47	0x3e933afa	0.28755933
48	0xbf168248	-0.58792543
49	0x3d496011	0.04916388
50	0x3f4d0622	0.8008748
51	0xbd9cbb36	-0.07652895
52	0xbf05eb54	-0.5231221
53	0xbe9e39d1	-0.30903485
54	0xbed3154d	-0.4122719
55	0x3d91055f	0.070811026
56	0xbf1d5f4e	-0.6147355
57	0xbf08be11	-0.5341502
58	0x3e9f720e	0.31141704
59	0xbe92222c	-0.28541696
60	0xbdcbb285	-0.09946159
61	0xbe736265	-0.23768003
62	0xbc5fac21	-0.013651879
63	0xbeed0a45	-0.46296898

conv_layers.1.weight f4 [2, 64, 64]
0	0x3b7c15bd	0.0038465105
1	0x3e36cc33	0.17851333
2	0xbdf4f760	-0.119612455
3	0x3d9aae2c	0.07552752
4	0x3e469a57	0.19394813
5	0x3eb2f7a2	0.34954554
6	0x3efd0ffc	0.49426258
7	0xbdc8ea11	-0.098102696
8	0xbca50694	-0.020144738
9	0x3c8ebfe5	0.017425487
10	0xbf082171	-0.5317603
11	0x3e0740bd	0.1320829
12	0x3e9503d7	0.29104492
13	0x3d8e96c6	0.069623515
14	0xbd357ed9	-0.044310424
15	0xbe3ad2f8	-0.1824454
16	0x3e0c795c	0.1371817
17	0x3e4ab7e6	0.19796714
18	0x3d06d6e6	0.032919787
19	0x3e85962c	0.26091135
20	0xbc63ee44	-0.013911787
21	0xbd731450	-0.059345543
22	0x3e0edfb8	0.1395253
23	0x3e851831	0.2599502
24	0xbd13c36c	-0.03607504
25	0xbd6bfef4	-0.05761619
26	0x3d08f2b4	0.033434585
27	0x3e371a15	0.17881043
28	0x3eb1ec22	0.34750468
29	0x3f8b9983	1.0906223
30	0xbe58b9d1	-0.21164633
31	0x3e1c763f	0.15279482
32	0xbe0839b5	-0.13303263
33	0x3e4d519f	0.20050667
34	0x3d6a8fda	0.057266094
35	0xbdd05514	-0.10172477
36	0x3de51297	0.11185186
37	0x3e483d0b	0.19554536
38	0x3e9d3ef7	0.307121
39	0x3c294062	0.010330291
40	0x3ec3e270	0.38258696
41	0x3eeb3d83	0.45945367
42	0xbe16b577	-0.14717661
43	0xbeb8b2db	-0.36073956
44	0x3b611e34	0.0034350278
45	0x3f0b3114	0.5437176
46	0x3de964b9	0.113961644
47	0x3ed0071f	0.40630433
48	0x3f15b3ed	0.5847767
49	0x3eb66312	0.3562246
50	0x3d22e366	0.039767645
51	0x3d9bd1c4	0.07608369
52	0x3f394a82	0.72379315
53	0x3e2147ea	0.1575009
54	0x3dc116ce	0.09428178
55	0xbda78222	-0.08179118
56	0xbc59ab8c	-0.013285529
57	0xbcb0dbd5	-0.0215892
58	0x3e10aa22	0.141274
59	0x3d43206b	0.047638338
60	0x3db0cb64	0.08632544
61	0x3da4def2	0.08050336
62	0x3d456cba	0.048199393
63	0x3dfd4a44	0.12367681
64	0xbd9ee085	-0.077576675
65	0x3d454659	0.048162792
66	0xbd0a4cb5	-0.03376456
67	0x3d792886	0.06082966
68	0xbe133dd2	-0.14379051
69	0xbd5f6cf9	-0.054547284
70	0xbdea0f80	-0.11428738
71	0x3ca139fc	0.01968097
72	0xbcc55ab5	-0.024091104
73	0xbcce46d8	-0.025180265
74	0x3e853dee	0.2602381
75	0x3ca4718e	0.020073678
76	0x3caba120	0.020950854
77	0x3e1497a1	0.14510967
78	0xbc46f070	-0.012142286
79	0xbe41fe8d	-0.1894476
80	0xbdcafacd	-0.09911118
81	0xbc822673	-0.015887475
82	0x3d96d511	0.07364858
83	0xbdac75c7	-0.08420902
84	0xbd49e2f5	-0.04928871
85	0x3d5f4057	0.05450472
86	0xbdff8c6b	-0.124779545
87	0x3d64b82c	0.055839702
88	0xbc6a642f	-0.014306112
89	0xbbffa78f	-0.007801957
90	0xbdc0d5dd	-0.09415791
91	0xbdafd2bd	-0.08585117
92	0xbc75db5a	-0.015005911
93	0xbe790db5	-0.24321635
94	0x3d83fe16	0.064449474
95	0xbde233d5	-0.110450424
96	0xbcdc9edc	-0.026931219
97	0x3e09177a	0.13387862
98	0xbd1b6a1c	-0.03794299
99	0xbd98f332	-0.07468261
100	0x3ddcb592	0.10776819
101	0xbe1f693c	-0.15567487
102	0xbc327f94	-0.010894675
103	0xbd231fd2	-0.039825268
104	0xbdfee2f1	-0.124456294
105	0xbd13beda	-0.036070682
106	0xbddcf08b	-0.107880674
107	0xbda3f4f6	-0.08005707
108	0xbcff6d7f	-0.031180141
109	0x3ccb5b9e	0.02482396
110	0x3d69e239	0.05710051
111	0xbe135f71	-0.14391877
112	0xbe2a70d5	-0.16644605
113	0xbda38bed	-0.07985673
114	0xbe223a8b	-0.15842645
115	0xbe28258b	-0.16420572
116	0x3d6674d8	0.056263775
117	0xbe93427d	-0.28761664
118	0xbc6e8c19	-0.014559769
119	0x3c98dd4e	0.018660214
120	0xbc4b6fef	-0.012416824
121	0x3d276bd0	0.040874302
122	0x3d6f4262	0.058412917
123	0x3e2698a5	0.16269167
124	0x3c45ef61	0.012080998
125	0x3d2d8c96	0.0423704
126	0x3c962d57	0.018332167
127	0xb96e3414	-0.0002271685
128	0xbe220bd2	-0.15824822
129	0xbccbbac8	-0.024869338
130	0xbd89351a	-0.066995814
131	0xbb26b478	-0.0025437158
132	0xbe19c87b	-0.15017883
133	0xbe4dcf9b	-0.20098726
134	0xbe6f36c8	-0.23360741
135	0xbd4569b2	-0.048196502
136	0xbd0050de	-0.03132712
137	0xbc4c4230	-0.012466952
138	0xbe136c63	-0.14396815
139	0x3d3e0a89	0.046396766
140	0xbddb601b	-0.1071169
141	0xbceebc48	-0.029142514
142	0xbd911a53	-0.07085099
143	0xbe87acf3	-0.26499137
144	0xbe381fb0	-0.17980838
145	0xbcbc79fb	-0.023007384
146	0x3bd3ff18	0.0064696185
147	0x3ca58893	0.020206725
148	0xbd6b725e	-0.057482116
149	0xbd48b837	-0.049003806
150	0xbd5bd72b	-0.053671997
151	0xbe2f30e4	-0.17108494
152	0xbd55a105	-0.052155513
153	0xbd967ca9	-0.07347996
154	0x3d287473	0.04112668
155	0xbece21ad	-0.40260068
156	0xbc4beee1	-0.01244709
157	0xbda999f1	-0.08281315
158	0xbdd604de	-0.10450147
159	0xbd0a25db	-0.033727508
160	0xbdc2844f	-0.09497892
161	0x3d0347be	0.03205084
162	0xbde93c0a	-0.11388405
163	0x3d43e571	0.047826234
164	0x3c1bfe78	0.009521119
165	0xbe1dd949	-0.15414919
166	0xbe9826b3	-0.29717025
167	0xbd9f004e	-0.0776373
168	0xbe8417a3	-0.25799283
169	0xbe83da32	-0.25752407
170	0xbd59bc90	-0.053158343
171	0xbe3bc8dc	-0.1833834
172	0x3d915dd7	0.07097977
173	0xbd919f97	-0.071105175
174	0x3c34ab35	0.011027147
175	0x3c0703c0	0.00824064
176	0xbe00f1b4	-0.12592202
177	0xbe429ab5	-0.19004329
178	0xbe6245c4	-0.22096926
179	0x3ce3cb72	0.027806971
180	0x3d52692a	0.051369824
181	0xbd84f4df	-0.06492018
182	0xbe4fe724	-0.20303017
183	0xbd88e2fc	-0.06683919
184	0xbc5a29ab	-0.0133155985
185	0xbcabac1c	-0.020956092
186	0x3d3049dc	0.043039188
187	0xbd6f0c9b	-0.05836163
188	0xbdc3ecbb	-0.09566637
189	0xbbe9f6dd	-0.007140024
190	0x3caad329	0.020852642
191	0xbe217bcb	-0.1576988
192	0xbcf4b8d6	-0.029873293
193	0xbe2d1da2	-0.16905835
194	0xbd1a6e54	-0.037702873
195	0xbe41bcfd	-0.1891975
196	0xbdc02718	-0.093824565
197	0xbe9bd719	-0.30437544
198	0xbe971d93	-0.2951475
199	0x3c15b4ea	0.009137372
200	0x3c305201	0.010761739
201	0xbdd4a5e0	-0.10383201
202	0xbd855d0d	-0.06511889
203	0xbd8eda69	-0.06975252
204	0xbda8b442	-0.082375064
205	0xbe631a00	-0.22177887
206	0x3d56a228	0.052400738
207	0xbe962b65	-0.29329982
208	0xbe936381	-0.28786853
209	0xbe64453d	-0.22292037
210	0x3c850700	0.01623869
211	0xbdb49a63	-0.088185094
212	0xbdd407d8	-0.103530586
213	0xbd7018e6	-0.058617495
214	0xbde95205	-0.11392597
215	0xbe04b1d6	-0.12958464
216	0xbde3dacf	-0.11125719
217	0x3d4c314f	0.04985171
218	0xbdb0de75	-0.0863618
219	0xbe8c5dc6	-0.27415293
220	0xbe5aeaa5	-0.21378572
221	0xbe3cb717	-0.18429218
222	0xbdd584a5	-0.104256906
223	0xbe26be7b	-0.162836
224	0xbd85dc02	-0.06536104
225	0xbd5a98a8	-0.05336824
226	0xbe529e7c	-0.2056827
227	0xbd1ea3f1	-0.038730565
228	0xbe8b0b87	-0.27157232
229	0xbe668e84	-0.22515303
230	0xbe821060	-0.25403118
231	0x3afa8acb	0.001911485
232	0xbe7d010e	-0.24707434
233	0xbed6fdac	-0.4199041
234	0x3ca75ce9	0.020430045
235	0xbe3d428b	-0.18482415
236	0xbd046c1d	-0.032329667
237	0xbe54bcc0	-0.20775127
238	0x3c44b418	0.012005828
239	0xbdd71a8a	-0.10503109
240	0xbeb088dd	-0.34479418
241	0xbd87bfcc	-0.06628379
242	0xbe12b5fb	-0.14327233
243	0x3abd1c94	0.0014428073
244	0xbe99fed2	-0.30077225
245	0xbdaf2027	-0.085510544
246	0xbe0aed88	-0.13567173
247	0x3c9816eb	0.018565616
248	0xbd2c355d	-0.04204308
249	0xbd77d441	-0.060505155
250	0xbe509f35	-0.20373233
251	0x3c606bb0	0.01369755
252	0xbe8c3b93	-0.27389202
253	0xbd8f5527	-0.069986634
254	0xbdca311b	-0.098726474
255	0xbe41015a	-0.18848172

conv_layers.1.bias f4 [64]
0	0xbd157e09	-0.03649715
1	0xbe7bfa12	-0.24607113
2	0x3d326ef1	0.043562833
3	0xbe4052ce	-0.18781587
4	0xbd014ca9	-0.03156725
5	0xbe17c483	-0.14821057
6	0xbe6e9ae3	-0.23301272
7	0xbd5266ea	-0.051367678
8	0x3bde6b99	0.006787729
9	0xbca98cd1	-0.02069703
10	0x3deffe3e	0.11718415
11	0x3c3fa4ae	0.011696978
12	0xbb8f2642	-0.0043685744
13	0xbe7acdbd	-0.24492545
14	0xbcf29f06	-0.029616844
15	0xbe4d65bd	-0.20058341
16	0xbe87db7f	-0.2653465
17	0xbdc5d67e	-0.09660052
18	0xbd28c34c	-0.041201875
19	0xbe2ca0a3	-0.16858153
20	0x3c9f5d47	0.019453658
21	0xbd9ae948	-0.07564026
22	0xbe47d686	-0.19515428
23	0xbe6e1ec6	-0.23253927
24	0x3c8285b2	0.015932892
25	0x3b787421	0.0037911015
26	0xbdef2164	-0.11676291
27	0xbec1b4a6	-0.37833136
28	0xbe46e9bb	-0.19425099
29	0xbf0e3913	-0.5555584
30	0x3df41e11	0.11919797
31	0xbe19f74e	-0.15035746
32	0xbd729918	-0.059228033
33	0xbe1045ae	-0.1408908
34	0xbd2336ec	-0.0398473
35	0xbcfffc72	-0.031248305
36	0xbecc3672	-0.39885288
37	0xbe9af2c3	-0.30263337
38	0xbe29c8ce	-0.16580507
39	0xbd86e8d4	-0.06587377
40	0xbe92dcae	-0.2868399
41	0xbeebbaa6	-0.4604084
42	0x3d1da2f7	0.038485494
43	0xbcffa18f	-0.031204967
44	0xbc3d199c	-0.01154175
45	0xbea839ee	-0.32856697
46	0xbd678517	-0.05652341
47	0xbe6d78d5	-0.23190625
48	0xbeb5aac2	-0.3548184
49	0xbd98653b	-0.07441183
50	0xbe53a966	-0.20670089
51	0xbdfb4c80	-0.122704506
52	0xbe7e3635	-0.24825366
53	0x3cdeec3c	0.027212255
54	0xbd193b3f	-0.037410017
55	0x3c04f7ad	0.008115691
56	0xbd8bd06b	-0.06826862
57	0x3d483121	0.048874978
58	0xbe6eba7b	-0.23313324
59	0xbd9430d9	-0.072358795
60	0xbd981492	-0.074257985
61	0xbe0dae97	-0.13836132
62	0xbd27b13a	-0.0409405
63	0xbd24f6c0	-0.04027438

conv_layers.2.weight f4 [2, 64, 64]
0	0x3e165f23	0.1468473
1	0x3da3c156	0.0799586
2	0x3a10f2b9	0.00055293326
3	0x3d7071f5	0.058702428
4	0x3eac0cee	0.33603615
5	0xbe31fdb6	-0.1738194
6	0xbcf80551	-0.030275973
7	0xbdc87644	-0.097881824
8	0x3e8812df	0.26576898
9	0x3e9f13a2	0.31069666
10	0x3e8b7b5a	0.27242547
11	0x3db64e7f	0.08901691
12	0x3e8d39e7	0.27583238
13	0xbe0702fd	-0.13184734
14	0x3cc000df	0.023437915
15	0x3e2dd076	0.16974053
16	0x3ee026b9	0.43779543
17	0x3ccc9f43	0.024978286
18	0x3d81816a	0.06323512
19	0x3e3c788f	0.18405364
20	0x3e92f801	0.28704837
21	0xbd97b4b7	-0.074075155
22	0x3e726cd9	0.23674335
23	0xbd7bd426	-0.061481617
24	0x3ea3c964	0.31989586
25	0x3e562e32	0.2091606
26	0xbcf9020f	-0.03039649
27	0x3e93840f	0.2881169
28	0xbc33eae0	-0.0109812915
29	0x3eebb050	0.46032953
30	0x3ebd695a	0.3699444
31	0x3eabd761	0.3356276
32	0x3d9e83c6	0.077399775
33	0x3e30c922	0.17264226
34	0x3df8188c	0.12114057
35	0x3ddee4ad	0.1088346
36	0x3e56076b	0.20901267
37	0x3ea03b58	0.31295276
38	0x3e2c3d72	0.16820315
39	0x3e2e9ff5	0.17053206
40	0x3e306bbb	0.17228596
41	0x3e08d64c	0.13362998
42	0x3eab11c8	0.33412004
43	0x3e116f74	0.14202672
44	0x3e60c143	0.21948723
45	0x3e266072	0.16247728
46	0x3f2964be	0.66169345
47	0x3de65278	0.112461984
48	0x3db4013e	0.087892994
49	0x3d07a00a	0.03311161
50	0x3e7dd950	0.2478993
51	0xbc3f4e94	-0.011676449
52	0x3e4314a0	0.19050837
53	0x3e4a058b	0.19728677
54	0x3e17098a	0.14749733
55	0x3c664949	0.0140555585
56	0x3e2a2796	0.16616663
57	0x3e762a8a	0.24039665
58	0x3f19a5fd	0.60018903
59	0x3e3e9843	0.1861277
60	0x3d95dbc1	0.07317305
61	0x3dd824a3	0.10553863
62	0x3eec9e7e	0.4621467
63	0x3c4289c9	0.011873671
64	0x3da05c11	0.0783006
65	0x3d96adc3	0.07357361
66	0xbd46557e	-0.048421375
67	0x3db37ef7	0.08764451
68	0x3e822860	0.2542143
69	0x3d0cdb75	0.034388978
70	0x3c3f9874	0.0116940625
71	0xbd76a716	-0.06021794
72	0x3d96f2f0	0.073705554
73	0xbdf6c477	-0.120491914
74	0xbd9be40d	-0.076118566
75	0x3d7c473f	0.061591383
76	0xbd4ce6e8	-0.050024897
77	0xbd57bfac	-0.052673027
78	0x3e4cf5a0	0.20015574
79	0xbcc9ee0f	-0.024649648
80	0x3e02f310	0.12788033
81	0xbcb3b5df	-0.021937309
82	0xbc3d4c0b	-0.011553775
83	0xbc278e81	-0.010226847
84	0xbdeb3faa	-0.11486752
85	0x3d82a41d	0.063789584
86	0x3e1b5725	0.15169962
87	0xbe30caa8	-0.17264807
88	0xbd4a0e28	-0.049329907
89	0x3d2bd914	0.04195507
90	0xbcd4d000	-0.025978088
91	0x3d481d3b	0.048856
92	0x3d00f813	0.031486582
93	0xbe297371	-0.16547944
94	0x3e1c811e	0.1528363
95	0x3de29b7d	0.11064813
96	0x3c83531a	0.016030837
97	0x3dcd9793	0.10038676
98	0x3d89982e	0.06718479
99	0x3d08be95	0.03338488
100	0xbebb5a66	-0.36592406
101	0x3eb6d87f	0.35712048
102	0x3d0502b9	0.0324733
103	0xbd3672d9	-0.04454312
104	0x3d8b6735	0.068067946
105	0x3d8c7e41	0.068600185
106	0xbd5233f7	-0.05131909
107	0xbe07c8d4	-0.13260204
108	0xbd82fa07	-0.06395345
109	0xbca01fb8	-0.019546375
110	0x3e04f8c7	0.12985526
111	0x3b3d5b5a	0.002889356
112	0x3c4c2d8b	0.01246203
113	0xbd2d4684	-0.042303577
114	0x3ba4e3d3	0.0050320416
115	0xbd66d3c7	-0.05635431
116	0x3c52e874	0.012872804
117	0x3c9d1051	0.01917282
118	0xbd3e9602	-0.046529777
119	0xbd98feda	-0.07470484
120	0xbc292b78	-0.010325305
121	0x3c77fd40	0.015136063
122	0x3e8c41e9	0.27394035
123	0x3e8520c4	0.2600156
124	0xbd03ef82	-0.032210834
125	0xbc188143	-0.009308162
126	0x3d403bf1	0.046932165
127	0xbb577daf	-0.003288131
128	0xbdd16f82	-0.102263466
129	0xbcdacb71	-0.026708337
130	0xbc16e2e5	-0.009209369
131	0xbcbd26a0	-0.023089707
132	0x3cc6c0de	0.024261888
133	0x3c5e3ad2	0.013563829
134	0xbd60b316	-0.05485829
135	0xbd8cbfea	-0.06872542
136	0x3db23364	0.08701208
137	0x3d9f8885	0.07789711
138	0xbd974b01	-0.07387353
139	0xbdf9eb02	-0.12203027
140	0x3e23537a	0.15949813
141	0xbdfbc1a8	-0.122927964
142	0x3d8c4aef	0.0685023
143	0x3d40fe09	0.047117267
144	0x3da8b29e	0.082371935
145	0xbd261d20	-0.04055512
146	0xbd84c03e	-0.0648198
147	0xbbef7f92	-0.0073089087
148	0x3e915f72	0.28393131
149	0x3e48ebac	0.19621152
150	0xb9ff78ca	-0.00048727385
151	0x3e2c982d	0.16854925
152	0x3e21e19d	0.15808721
153	0xbab6e232	-0.001395291
154	0xbd3887ff	-0.04505157
155	0xbcadbdaa	-0.021208603
156	0xbc7dc9a6	-0.015489971
157	0xbd349c88	-0.044094592
158	0xbcec3c75	-0.028837422
159	0x3de7799f	0.11302494
160	0xbe26f3b2	-0.163039
161	0xbe5be7c5	-0.21475132
162	0x3df20f0a	0.11819275
163	0xbd9fccd4	-0.0780274
164	0xbed18929	-0.40924957
165	0x3ebc93b2	0.36831433
166	0xbc9f640d	-0.019456888
167	0x3c958715	0.018252889
168	0xbddc6459	-0.10761327
169	0xbd188323	-0.037234437
170	0x3e46445b	0.19362013
171	0x3e57b3d4	0.21064693
172	0xbc94a4c7	-0.018144978
173	0xbdb8ac5a	-0.090172485
174	0x3e759c63	0.23985438
175	0x3c22df84	0.009940986
176	0xbb01302a	-0.0019712546
177	0xbd589058	-0.052872032
178	0xbd9e2c60	-0.077233076
179	0xbe00b2be	-0.12568185
180	0x3e5edaa7	0.21763097
181	0xbca85613	-0.020548856
182	0x3d23a6ef	0.039954122
183	0xbdedb83d	-0.11607406
184	0x3d364ac8	0.04450491
185	0xbd68619d	-0.056733716
186	0x3d9a7c49	0.07543237
187	0x3ec65bc7	0.38741896
188	0x3e1c4bcd	0.1526329
189	0x3d553d94	0.05206068
190	0x3d60105e	0.05470311
191	0xbc150fb4	-0.009097982
192	0x3ddf9316	0.10916726
193	0xbe32a07a	-0.1744403
194	0xbd64d885	-0.05587055
195	0x3d7db660	0.061941504
196	0xbe413589	-0.18868078
197	0x39ca9aa4	0.0003864366
198	0x3cc6a612	0.02424911
199	0xbe423726	-0.1896635
200	0xbe063038	-0.13104331
201	0xbe1b5e5d	-0.15172715
202	0xbd92148c	-0.07132825
203	0x3d11d2d5	0.035601456
204	0x3cda9065	0.02668018
205	0xbd835121	-0.064119585
206	0x3df45d05	0.119318046
207	0x3dcbfb07	0.09959989
208	0x3d501316	0.05079945
209	0xbe3841d6	-0.17993864
210	0xbe073985	-0.13205536
211	0x3e008b70	0.12553191
212	0xbde0ecc3	-0.10982659
213	0xbdd9da3a	-0.106373265
214	0xbdb06e5d	-0.086148
215	0xbd4e6b42	-0.050395258
216	0xbe6f302d	-0.23358221
217	0xbd1df1f9	-0.03856084
218	0xbd981b0f	-0.07427036
219	0xbd5d96da	-0.05409894
220	0xbdc6fcd6	-0.097161934
221	0xbd8d5d69	-0.06902582
222	0xbd4710bd	-0.048599947
223	0xbd61fd89	-0.05517343
224	0xbe04dc1c	-0.1297459
225	0xbd1bc8a3	-0.03803314
226	0xbe34a30f	-0.17640327
227	0x3dd6aeb6	0.10482542
228	0xbea9f2c4	-0.33193028
229	0x3e50203e	0.203248
230	0xbd55b487	-0.052174117
231	0xbdda208c	-0.10650739
232	0xbd23c574	-0.039983228
233	0xbd0efe34	-0.034910396
234	0xbd2cdbf0	-0.042201936
235	0x3e58b578	0.21162975
236	0xbd738001	-0.059448246
237	0x3ceede07	0.029158605
238	0xbd95e077	-0.07318204
239	0xbd896453	-0.067085885
240	0xbad6c7a4	-0.0016386402
241	0xbdd66957	-0.10469311
242	0xbdc1eece	-0.094693765
243	0x3d4f9f67	0.050689127
244	0xbd88a9c3	-0.066730045
245	0xbd95c500	-0.073129654
246	0x3d9b0af1	0.07570446
247	0x3d93ef59	0.07223386
248	0x3e281c31	0.16417004
249	0xbd11650a	-0.03549675
250	0xbe752467	-0.23939668
251	0xbe80b51c	-0.25138175
252	0xbc6cf39d	-0.014462379
253	0xbe56ef85	-0.20989807
254	0xbd73566d	-0.059408594
255	0xbc303545	-0.010754888

conv_layers.2.bias f4 [64]
0	0xbc9e826e	-0.019349303
1	0xbe305e71	-0.17223527
2	0xbd9373e8	-0.07199842
3	0xbd1e8237	-0.0386984
4	0xbeafc2cc	-0.34328306
5	0xbe85f935	-0.26166692
6	0xbcb961c1	-0.02262962
7	0xbec1aae9	-0.37825707
8	0xbea8d862	-0.32977587
9	0xbeadbcc3	-0.33933076
10	0xbe4a3c26	-0.19749507
11	0x3c00ab68	0.007853366
12	0xbe2c16a1	-0.16805507
13	0xbe859f04	-0.26097882
14	0xbe59d8de	-0.21274135
15	0x3ddbf9a9	0.10740978
16	0xbedc8e8c	-0.43077505
17	0xbe77a1ea	-0.24182859
18	0xbdf3a328	-0.11896354
19	0xbe0a9e73	-0.13537006
20	0x3e064819	0.1311344
21	0xbe2ca178	-0.1685847
22	0xbe07879a	-0.13235322
23	0xbe50ecff	-0.20402907
24	0xbecb9644	-0.3976308
25	0xbdff5b19	-0.124685474
26	0xbeaea28a	-0.34108382
27	0xbdcd26c6	-0.10017161
28	0xbe31d9d4	-0.17368251
29	0xbdb5b283	-0.08871939
30	0xbe26a4f0	-0.16273856
31	0xbe945918	-0.28974223
32	0xbdcc11b5	-0.09964315
33	0xbe523fa1	-0.20532085
34	0xbebc9bbb	-0.36837563
35	0x3be32fad	0.0069331736
36	0xbe71b66f	-0.23604749
37	0xbf13fb9f	-0.5780582
38	0xbe993c98	-0.29929042
39	0xbd7f353f	-0.06230664
40	0xbe180d24	-0.14848763
41	0xbe4c6501	-0.19960405
42	0xbe853acb	-0.26021418
43	0x3da1eccd	0.07906494
44	0xbe316071	-0.17321946
45	0x3cb0e042	0.02159131
46	0xbea7ddea	-0.32786494
47	0xbe0056ec	-0.12533158
48	0xbb357dd3	-0.0027693405
49	0xbe4619b6	-0.19345745
50	0xbe9d3fe4	-0.30712807
51	0x3e094904	0.1340676
52	0xbe8e5172	-0.27796513
53	0xbd3a373a	-0.045462824
54	0xbe36b59d	-0.17842717
55	0x3c0bd5ec	0.00853489
56	0x3d2ff086	0.04295399
57	0xbd34517a	-0.044023015
58	0xbeb701a4	-0.3574344
59	0xbf0ce614	-0.5503857
60	0x3d9a3f94	0.07531658
61	0x3d624e16	0.05525025
62	0xbee41854	-0.4454981
63	0xbe515a8a	-0.20444694
