experiments/02_tune_models/selected_trained_models/s2v_abs/model_state_dict.pt (torch_old, 68590 bytes, 9 tensors)

mlp_layers.0.weight f4 [64, 64]
00000000: 2934 9c3c 14b4 75bd 48f1 1dbd 53dc f63c
00000010: 3a64 02bd 1283 603d 94b5 313d 4286 7ebd
00000020: 80f7 1ebd bff4 b73d 8015 853d 80a5 cc3c
00000030: 081c f73d 8cb5 2ebd 6177 5bbd 60f9 bc3d
00000040: 74c1 ac3c 83fb f03d 53d5 d13d 2d28 103e
00000050: cf92 fd3c 66f7 253d 9756 003e eded 393d
00000060: f150 abbc 64f2 c13d 607f bdbd 7a3f dbbd
00000070: c3c1 fabd d680 d2bc 4ba8 0abe 8173 503d
00000080: 9a64 443d 1ae2 223d 6109 973d 1b66 9cbd
00000090: c1e8 b9bd 8d15 d33d 5d0b 0e3d 43d2 a33d
000000a0: 9fed e73d 521c 3f3d cae5 373e 3652 3fbd
000000b0: cf85 c5bd 92a9 b5bd 8e8e ee3b 872d ab3d
000000c0: 3857 3b3d 56b0 e6bd f2f5 d9bd b9c6 883c
000000d0: 3338 863d 3c48 1e3d 8756 d03c 2a33 8c3d
000000e0: e47a 793d 6b0a 013d f4f1 733d 760f f0bd
000000f0: 7a30 6f3d 1fef f53d e645 0e3d 11c5 e23b
00000100: 698e f5bc dfb9 293d ffc0 e3ba a1b6 37bd
00000110: f4a6 bfbd 0df7 cc3d 31a0 d9bd bcd0 933d
00000120: e077 5abe 3ac3 953d eac8 45bc 18b8 dd3d
00000130: cc3b c53d 445b 36bd 0efa dd3d 7d72 49bd
00000140: 979d b93d 1653 72bd 230d feba 8ae9 ae3d
00000150: 23f6 76bd 0db2 9e3d a5fc b6bc 3d52 8cbd
00000160: cda1 ca3d 05f8 ccbc 7688 71bd ee44 563d
00000170: 4413 823d 5acc 06bd 7704 c63d 4f51 f1bc
00000180: b62a 0bbb 1b4d 8b3d 242d 9cbc 4746 b4bd
00000190: eb9b c63d bbf7 ddbb 81f3 1cbd 5186 85bc
000001a0: 5590 393a 4803 b9bd 0528 023e 0376 97bd
000001b0: 445f f53c 8bbb 573c 6a89 2abd 696c 183d
000001c0: fcb4 b7bc f1b3 b93d ca61 ba3d 0699 473d
000001d0: 3769 6ebd 4187 cd3d 5307 bfbd 4861 3d3d
000001e0: 6d0c c53d 0221 043d e903 ce3d 04a1 92bd
000001f0: d512 56bd 7163 92bd 545e 9b3d 2f4d 59bd
00000200: 2c47 b7bd d39c 533d f6c6 b7bc e2a6 7f3c
00000210: 9b7f 143d 131c a73c 8531 c93d e3e2 c53d
00000220: 5f60 e43d 15ff a33d 9268 0e3e 58cc f4bd
00000230: 9ecc b33d 7ddb f9bd d270 8ebd c6ea 54bc
00000240: b512 acbd 7f7f 28be 4328 953c 6537 9c3d
00000250: c362 7abd f3c6 73bb b957 793b c099 0e3d
00000260: e74e 803d ab43 6bbc 609c be3d ac40 d63d
00000270: d58f 863d c121 1c3e 0871 16be 9821 4fbd
00000280: c98a e93c 1036 09be ed2e 46bd 6500 233d
00000290: aecf 3ab9 8fb3 853d 8457 c2bd 91d2 d3bd
000002a0: b7d1 9dbb b552 f43d f3e6 c8bc 7cbf ddbc
000002b0: eebc 79bd 679d 13be 71b6 04be 2a31 b83d
000002c0: 0424 fdbd 4d4d 37bd 3f3f d23d eb2d 3f3d
000002d0: 87c8 0fbd 83ac e03c ccc3 e2bd ed9d b43d
000002e0: 48ff 0d3d 2a7e e23c 09ea ec3d a770 ce3c
000002f0: 600a 56bd ab0b 293d 8fb3 06be 89b3 e53d
00000300: 1d4d 9dbd 0133 e93d bfd4 94bd cacd 533c
00000310: b011 003e e00a 063e 5538 a9bd 20f5 92bd
00000320: de10 423e 20ca 9ebd be70 16bd 5636 e13d
00000330: bdb3 713c 756f a13d 2887 0e3b b114 a73b
00000340: 0f82 1a3d 5a37 f8bd 2efc cbbd 40e9 403d
00000350: 774d 503d 9bff ecbd b6ed dc3c 4060 e2bb
00000360: 7cd2 adbc 2531 88bd 08a9 433d 9717 e8bd
00000370: e55d a23d afdf 9e3d 585b 81bd 8679 95bd
00000380: cbbb c8bb d052 c63d ac97 f3bd fffd 8dbd
00000390: 808d d73c 575c e43d 6a33 a23d 09e9 8a3d
000003a0: 8d35 bcbd 389c 80bd 8662 22be d95f 1f3d
000003b0: 0d6c df3c 0333 95bd 1842 423c 89e4 ee3a
000003c0: 638e a13d a8f6 cd3d 8b43 093e c660 093d
000003d0: 103c ea3d 0d8b ddbd 06d1 9d3d 978d c4bd
000003e0: ac68 f73d 268d 563d 6fb2 b7bd 725a b53d
000003f0: a827 3fbd 800f 60bd d13d 5bbd b723 0ebe
0.01906784 -0.05998619 -0.03856018 0.030134356 -0.031833865 0.0548125 0.043386057 -0.062139757
-0.038810253 0.089822285 0.064982414 0.02498126 0.120658934 -0.042653605 -0.053580645 0.09227252
0.02108834 0.11766722 0.102457665 0.14077826 0.030953793 0.04051914 0.12533031 0.04539292
-0.02091262 0.094700605 -0.092528105 -0.107054666 -0.12243988 -0.0256962 -0.13540761 0.050891403
0.047947504 0.03976641 0.07374836 -0.076366626 -0.090775974 0.10306845 0.034678806 0.079990886
0.113246195 0.046657868 0.17958751 -0.04670926 -0.096446626 -0.088702336 0.0072801774 0.08358293
0.045737475 -0.11264102 -0.106426135 0.01669632 0.06553688 0.038643107 0.025431884 0.06845696
0.060908213 0.031504076 0.059556916 -0.11721699 0.05839584 0.12008499 0.03473463 0.006920465
-0.029975133 0.041437026 -0.0017376243 -0.044851903 -0.09358016 0.10008059 -0.10626257 0.07217547
-0.21334791 0.07312627 -0.012071827 0.10826129 0.09630546 -0.04452063 0.1083871 -0.04918145
0.09063261 -0.05916127 -0.0019382577 0.08540638 -0.060293328 0.07748804 -0.022337267 -0.06851623
0.09894142 -0.025020609 -0.05896803 0.05231183 0.06351331 -0.03290973 0.0966882 -0.029457716
-0.0021235174 0.06801816 -0.019064493 -0.08802467 0.09697708 -0.0067739165 -0.03831816 -0.016299399
0.0007078697 -0.09033829 0.12710579 -0.07395556 0.029952653 0.013167272 -0.041634955 0.037212763
-0.022425167 0.09067524 0.09100683 0.04872992 -0.05820581 0.10035563 -0.09327569 0.046235353
0.09621511 0.03225804 0.100593396 -0.071596175 -0.052264053 -0.07147873 0.07586351 -0.053052124
-0.08949122 0.05166323 -0.02243374 0.015603753 0.036254507 0.020399129 0.09823898 0.09662416
0.11151194 0.080076374 0.13907078 -0.11953038 0.08779262 -0.12200067 -0.069551125 -0.0129954275
-0.084020056 -0.16454886 0.018207675 0.07627753 -0.061129343 -0.003719744 0.0038046672 0.034814596
0.062650494 -0.014359395 0.0930717 0.10461554 0.065704025 0.15247251 -0.14691556 -0.050569147
0.02850856 -0.1339953 -0.048384596 0.039795298 -0.00017815709 0.06528389 -0.094893485 -0.10342897
-0.0048162597 0.119298376 -0.024524188 -0.027068846 -0.060971193 -0.14415513 -0.12960221 0.08993752
-0.12360385 -0.044751454 0.102659695 0.04667465 -0.035103347 0.02742601 -0.110725015 0.088191845
0.034667283 0.02764805 0.11568076 0.025200201 -0.052255988 0.041270893 -0.13154434 0.11215884
-0.07680724 0.11386681 -0.072671406 0.012927482 0.12506747 0.13090086 -0.082626976 -0.0717566
0.18951747 -0.07753396 -0.036728613 0.10996692 0.014752326 0.07882587 0.002174804 0.005098902
0.03772169 -0.121199325 -0.09960209 0.047097445 0.050855126 -0.115721904 0.026968818 -0.0069084466
-0.02121853 -0.066499986 0.047768623 -0.113326244 0.07928065 0.07757508 -0.063162506 -0.072985694
-0.0061259023 0.09683764 -0.118941635 -0.069332115 0.02631259 0.11150425 0.07919963 0.06782729
-0.091899015 -0.06279796 -0.15857896 0.038909767 0.027273202 -0.0728512 0.011856578 0.0018226068
0.07888486 0.100568116 0.13404672 0.033539556 0.11437237 -0.108175375 0.07705884 -0.095973186
0.120805115 0.052380703 -0.089695804 0.08855142 -0.04666868 -0.054702282 -0.05352575 -0.13880812

mlp_layers.0.bias f4 [64]
00000000: c29f 9c3e 84e9 c73d d3d5 1fbc 8ae3 5bbe
00000010: af75 b0be c90f e43d 1e1f df3c cad2 85be
00000020: 528e b73d cbb3 483d 412d 643e d486 02be
00000030: 7da4 81be e7f1 81be d163 373c 32f8 83be
00000040: 1f0a 553e 1cf9 b13e c0ff a7bc 4dcd b6be
00000050: e490 03be fde3 2f3e 1197 bebe 2d69 233e
00000060: ad42 a2be dc40 a1be 40bd 273e 7ec3 69be
00000070: d054 97bc 1921 0d3e f062 7cbd bc8d 7a3e
00000080: d72c ba3c d5c8 8dbd 0773 953e 0e7b 453d
00000090: fc7a 653e 39e2 07bd 1250 ae3d 0c41 573e
000000a0: 2883 973e c9ca 36be 88af 993e 437e 003f
000000b0: e759 cabe ab62 213e 0073 d83d db27 993e
000000c0: 5dba cc3d 9f6a be3e 07ae 7abd 2558 98bc
000000d0: dd69 863d 0002 edbd 4ab9 06be 67d8 87be
000000e0: bae2 49be f4af 963d 70e8 41bd b402 253c
000000f0: 15fe 9abe f030 653c faa5 f7bd 4b62 3f3e
0.30590636 0.097613364 -0.0097555695 -0.21473518 -0.34464785 0.11135823 0.027236518 -0.26137382
0.08962692 0.04899959 0.22282888 -0.12746745 -0.25320807 -0.2537987 0.011193232 -0.25775295
0.20804642 0.34760368 -0.020507693 -0.35703507 -0.1284824 0.17176814 -0.3722463 0.1595809
-0.31691495 -0.31494796 0.16380787 -0.2282848 -0.018473059 0.13782157 -0.06161779 0.2446813
0.02272646 -0.06923071 0.2918932 0.048213057 0.22410196 -0.033174727 0.08511366 0.21020907
0.29592252 -0.17850794 0.30016732 0.5019266 -0.39521715 0.15760295 0.105688095 0.2991322
0.099964835 0.3719072 -0.06120112 -0.018596718 0.065631606 -0.11572647 -0.1315662 -0.2653229
-0.19715396 0.07357779 -0.04734081 0.010071445 -0.30271974 0.013988718 -0.120922044 0.1868984

mlp_layers.1.weight f4 [64, 64]
00000000: a644 29bd 5fb1 abbc 52bd 073d ddb7 63bd
00000010: acee c2bd cae0 9b3b a121 b8bd 2cd3 bf3d
00000020: d8ba 90bd 7539 e13d ac25 323b 91fd f03d
00000030: 4245 b1bd 1b15 f6bc 57d3 e03d d0b6 5ebb
00000040: 40d4 0dbd 6647 bebd d958 233d 99a2 f63d
00000050: 25c7 60bd eb43 56bc 046d 48bd 5796 f0bd
00000060: 2900 e83d 1e50 b43c b0d3 f3b9 12f9 56bd
00000070: 393b cbbc 96a1 e7bc 5b37 e3bc 1adb aebd
00000080: 2e5a d6bd 0b04 a93d 13b2 e3bd 1d01 b13c
00000090: 6416 113b 1cb1 c83d 2584 aabd 2ec6 bfbd
000000a0: ffe3 773d f114 103d 3d38 ecbd 2713 cabd
000000b0: 8c3f 1c3d aae8 bdbd 562f ae3d e43d 0f3c
000000c0: cf21 a9bd 2639 0dbe 4abb 8e3d 24a8 25bd
000000d0: d003 81bc 6f19 903d c80e 9abd f92a 83bd
000000e0: c36e 123d 20da a2bd 8cf8 ad3d e82b a93d
000000f0: f919 473d f6b3 c1bd 16bb 3fbc 4cf3 923d
00000100: 397b 40bb a1ea e23d 29cc c1bd 6676 c9bd
00000110: d890 aa3c 5347 34bd 1c5d 833d ceae 323d
00000120: cabe fb3c 483f 1e3e e707 31ba b905 683c
00000130: de3f d2bc 63d9 0f3e 2fb4 d03d 66e8 aebc
00000140: 109a 853d b2cc f2bc ec7e 02be 0d4f f43c
00000150: 914b 5b3d 41dd 0ebd ccaf c53c 6167 b53d
00000160: bce2 5f3d 6ed5 b23c 62c1 533d 2037 ed3c
00000170: 07be f0bc e3e3 f93d b39e adbc aeb7 07be
00000180: 98dc 4cbd 52b3 ea3c 5bd9 a7bd fff7 95bd
00000190: 2de2 debd a581 af3a 5c33 853d 138d 9abd
000001a0: de88 dcbd 5ee1 8a3c 178c aa3d d6d9 1d3e
000001b0: 4001 99bd ec3b cf3d 01b2 9f3d e3fb 7a3d
000001c0: 9293 273e 30cc 3e3d fd15 d03c 67f6 30bd
000001d0: 671d 1a3e dac7 d0bc 747f cd3c 160a 863c
000001e0: 7a10 d33d f2c8 c5bd 7634 8ebc cc32 1f3d
000001f0: 5203 ba3d 3545 313d 0b16 c83d a607 c83d
00000200: f36a d3bd 0446 793d 840c b33d bcca 80bd
00000210: cd5c f43d f03f bebd 3615 863d 61d8 c83d
00000220: 2264 053e 1665 83bc 0b1a 8e3c b54e dfbc
00000230: e71d dc3d 70ea d03b 2cb9 81bd dd9e 8fbd
00000240: b7b8 d43c ea9b 7f3d c0c4 ac3d 0189 c93d
00000250: e43c 823d 7cbb e03c 44e4 c53d f18b 2d3c
00000260: 8962 67bd 3223 d1bc 579e 983d 1981 553d
00000270: 59c2 6dbd cb25 e33d 9b1d c73d 9136 d3bd
00000280: 9b75 e93c dc46 b7bd abd9 cc3b 28b2 273e
00000290: 6c0e 68bd fbfa cbbd b281 efbd 4b2b a13d
000002a0: 44f4 d63d adf5 fa3d 6f72 483c ba76 ef3d
000002b0: feee b0bd 2e01 b1bd 358c c33d ce0d c43d
000002c0: c9ec b3bd a50b a5bc 550a 9e3c 805d 163d
000002d0: 1bbc 1c3d d898 0fbd ac8d aa3d ec13 e2bd
000002e0: 8b92 693c da66 55bd 17e9 883d 371c 8f3d
000002f0: 7997 103e 06f1 f63d bc67 993d b7c8 babd
00000300: 66c0 9bbc c08f 8bbd e8e3 ea3d 2103 103d
00000310: 6796 873c 12fa c03d 7246 ccbd 548f 9d3d
00000320: f9cd e33c 5e52 613c 3eaf 283d b52f 133d
00000330: f2e4 da3d 93c3 b83d ddf7 34bd ae38 0bbe
00000340: aacd 953d 3fd4 be3c dcde a6ba 526e 6e3d
00000350: 62f2 c0bd b68f 5cbd bd43 863a d601 c6bd
00000360: 4a35 2cbd 6238 ab3c 3f3e 263d 39df 28bd
00000370: 7d1f 903d 2c49 2f3d f5d4 0bbd e36e be3d
00000380: 9b3f d7bc a582 1fbb 499a 54bc a4b0 803d
00000390: 974f 20bc a1b6 b9bd e2f6 c43d ca36 c23d
000003a0: 1bee ed3d 69fc 06be fd33 5ebc e678 993d
000003b0: e736 073d 85a8 a9bc 0954 103c f5c3 3ebd
000003c0: 1e59 74bd cc3c 093e dc63 dabd 6ab0 e93d
000003d0: 3f2e d43d 0bda adbd bd25 bb3c 4d7e 3d3d
000003e0: b46a e0bd e7c6 b33d a0df f8bd 2064 993d
000003f0: 2976 3fbd 5c25 a33d 4dd1 42bd feea b13d
-0.041325234 -0.0209586 0.033139534 -0.055595268 -0.09518179 0.0047570216 -0.08990789 0.0936645
-0.070668876 0.10997287 0.0027183099 0.11767114 -0.08655788 -0.03003936 0.1097781 -0.0033983476
-0.034626245 -0.09290962 0.039879654 0.12042732 -0.05487742 -0.013077716 -0.04893209 -0.11747425
0.113281555 0.02201086 -0.0004650629 -0.052483626 -0.024808513 -0.028275292 -0.027736356 -0.08537884
-0.10466419 0.08252724 -0.11117949 0.021606976 0.002213859 0.09799406 -0.08325986 -0.09363972
0.06052017 0.03517622 -0.11534164 -0.09866934 0.03814654 -0.09272893 0.08505122 0.008742783
-0.082584016 -0.13791332 0.06969316 -0.040443555 -0.015748888 0.07036101 -0.075223505 -0.06404681
0.03575016 -0.0795176 0.08494672 0.082603276 0.048608754 -0.09458153 -0.01170232 0.071753114
-0.0029370321 0.11079908 -0.094627686 -0.09837036 0.02082102 -0.044013333 0.064142436 0.043623738
0.030730624 0.15453827 -0.00067531917 0.014161521 -0.02566522 0.1404777 0.10190617 -0.02135105
0.06523526 -0.029638622 -0.1274373 0.02982285 0.053538863 -0.034878973 0.024131678 0.088576086
0.05465959 0.021830287 0.051698096 0.02895695 -0.029387487 0.12201669 -0.021193838 -0.13253662
-0.050015062 0.02864996 -0.08195754 -0.07322692 -0.10882983 0.0013390078 0.06503937 -0.07546439
-0.10768293 0.016953167 0.08327501 0.15415129 -0.074709415 0.10118851 0.077976234 0.061275374
0.16364887 0.046581447 0.02540111 -0.043203738 0.15050279 -0.025485922 0.025085188 0.016362231
0.10305877 -0.09657468 -0.017359 0.038866803 0.090826645 0.04327889 0.09769829 0.09767084
-0.10323133 0.060857788 0.087426215 -0.062886685 0.11931763 -0.09289539 0.065470144 0.09806896
0.13026479 -0.016039412 0.017346403 -0.02725921 0.10747891 0.0063756034 -0.06334147 -0.07012723
0.025966985 0.06240455 0.084359646 0.098405845 0.0635927 0.02743315 0.09662679 0.010592447
-0.056490455 -0.025529478 0.07452076 0.05212507 -0.058046672 0.11091193 0.09722444 -0.10313142
0.028498461 -0.08949062 0.006251534 0.16376555 -0.05665438 -0.0995998 -0.11694659 0.078695856
0.10495809 0.1225389 0.012234314 0.11692567 -0.08639334 -0.08642803 0.09548227 0.095729455
-0.087853976 -0.020147154 0.019292036 0.036710262 0.03826533 -0.035057873 0.08327803 -0.11038956
0.01425613 -0.05210004 0.06685083 0.069878034 0.14120282 0.1205769 0.07490489 -0.091203146
-0.019012641 -0.068145275 0.11469251 0.035159234 0.01655121 0.09422697 -0.09974374 0.07693353
0.027808176 0.013752548 0.04118275 0.03593417 0.10688199 0.09021678 -0.044181693 -0.1359584
0.07314618 0.023294566 -0.0012731212 0.05821068 -0.09421231 -0.05384799 0.0010243576 -0.09668319
-0.042043008 0.020900909 0.040586706 -0.041228507 0.07037256 0.04279439 -0.03413864 0.09298494
-0.026275447 -0.0024339345 -0.012976238 0.062836915 -0.009784601 -0.09068037 0.09617402 0.094831064
0.11617681 -0.13182224 -0.0135622 0.07493763 0.033011343 -0.02071024 0.008809098 -0.046573598
-0.0596553 0.13402098 -0.10663578 0.114106014 0.10360383 -0.08488854 0.022845143 0.046263028
-0.10957852 0.08778172 -0.12152028 0.074898005 -0.046743546 0.0796611 -0.047562886 0.08687399

mlp_layers.1.bias f4 [64]
00000000: 1795 e8bd 0666 80bd 1a30 4bbe b1de bd3e
00000010: 6569 933e dcdb 8abe 0bef a43e ea6e da3e
00000020: ad39 f43d 8654 9c3e 4069 df3d 0eaf 9c3e
00000030: 0dbc b0be 0c6b 853e 5815 923e 65cb 383e
00000040: f7ee 973e 6c25 623e f748 77bd 29cb 4abe
00000050: 6f7e 763e 0d71 ee3d afc9 24be d0b5 643e
00000060: a922 4fbe c60d 21be 0947 103d 2d1a 2f3e
00000070: 145c 2a3e 7749 ae3e 3f6d 32be c7bf 963e
00000080: f9af 5abd e994 42be 32b4 a5bd 9640 ae3e
00000090: f28d a63e 3b43 e0bd 2d4d e3bd 4ca5 86be
000000a0: 99cc c2be 3f08 6bbd 4da4 843e 2797 4b3d
000000b0: 9271 6ebe d3cb 02be fbff 08be a975 abbe
000000c0: fc3a 013e ec63 b43c e80f 233e 5ed5 84be
000000d0: b33c 5a3e 80fe 9a3e ed4c ccbd 3123 42be
000000e0: 0c92 ac3e 463f 42be 8d6f 233f 2aa8 a43e
000000f0: e1bb 2b3e 1bb2 22be 274e 503e b6fe 55be
-0.11356562 -0.062694594 -0.19842568 0.37083963 0.28791347 -0.27120864 0.32213625 0.42662746
0.11925063 0.30533236 0.10908747 0.30602306 -0.3451847 0.26058233 0.2853191 0.18046339
0.29674503 0.22084588 -0.06037232 -0.19804062 0.24071668 0.116426565 -0.16092561 0.22334981
-0.20228066 -0.1572791 0.035223994 0.17099829 0.16636688 0.34040424 -0.17424487 0.2944319
-0.053390477 -0.19002117 -0.0809101 0.3403365 0.3253017 -0.10950323 -0.110987045 -0.26297987
-0.3804672 -0.05738091 0.25906602 0.049704697 -0.23285511 -0.12773065 -0.13378899 -0.33488205
0.12620157 0.022020303 0.15924037 -0.25944036 0.21312217 0.30272293 -0.0997561 -0.18958737
0.33705175 -0.1896945 0.6384209 0.3215955 0.16770889 -0.15888254 0.20342313 -0.20897946

mlp_layers.2.weight f4 [1, 64]
00000000: 4cf8 39bd e40b 94bd 6c25 e0bc d749 9c3c
00000010: 0fc8 d33c 97a9 debd 66d8 dd3d 7b0e 60bd
00000020: 9bcf e13d f333 f83d c227 e0bc 70c1 b03d
00000030: cea6 e9bc 72e9 993d 5a3c e53c 20fd 553b
00000040: 14dc cd3d 1286 5f3d 5ec4 21bd dd45 edbc
00000050: cdc0 2c3d 4b10 013c 820a c5bd a07d 513d
00000060: 5d75 81bd 9bbc c2bd 39ea 8c3d f37f 113d
00000070: 7031 fa3d 1512 c13d 15ea a8bd b485 e73d
00000080: f5c8 40bd 1fc2 64bd 86f8 54bc 2c50 6d3d
00000090: 9e9f ad3d b09b b63d e794 e8bd fbba 09be
000000a0: 0826 e7bc ac67 0bbe e1dc b93d 09ed 93bd
000000b0: fc21 60bc b9df c2bd 8647 85bd 6179 b9bd
000000c0: 6097 e43d a375 adbd 50d0 933d b54a d2bc
000000d0: 2a67 443c e388 cc3d 1b9a 2e3b ca60 84bd
000000e0: e163 31bc f829 27bd f6a2 423e 221f b63d
000000f0: 63b6 253d b438 c8bd 1e03 e73d 4914 a1bd
-0.04540281 -0.072288305 -0.027361594 0.019078178 0.025852231 -0.108721904 0.1083229 -0.05470131
0.11025926 0.121192835 -0.027362708 0.08630645 -0.028521921 0.07515229 0.02798288 0.0032652095
0.10051742 0.05457122 -0.03949391 -0.028963977 0.042176057 0.00787742 -0.09621145 0.051145196
-0.063212134 -0.0950863 0.06880612 0.035522413 0.12216461 0.09427277 -0.082477726 0.11304799
-0.047066648 -0.05584919 -0.012998706 0.057937786 0.0847771 0.08916414 -0.11356526 -0.13450234
-0.028216377 -0.13613766 0.090753324 -0.07222945 -0.0136799775 -0.09515328 -0.06507783 -0.09056354
0.11161685 -0.08469703 0.07217467 -0.025670389 0.011987487 0.099870466 0.0026642147 -0.064637735
-0.010827036 -0.04081151 0.19007477 0.08892657 0.04045714 -0.0977644 0.112798914 -0.07865197

conv_layers.0.w_1.weight f4 [64, 64]
00000000: c977 b53b e03e 7d3c 405c ca3b a033 dbbb
00000010: 2c42 233d 8845 cd3d 3869 50bd f8c0 e73d
00000020: 0041 c8bd 00bd 813c 1cff f13d 0873 afbc
00000030: 0433 b1bd ba77 ebbd 3c05 ffbd 289d 82bc
00000040: f23f fb3d 4c34 4d3d 48b7 823c c89e 273d
00000050: 20bb 5cbd 9850 a6bd 50de afbc 00f2 f23a
00000060: b43e 4f3d 58e8 f13c c601 9cbd 60fa 66bc
00000070: 3cde 76bd b675 b0bd 8044 70bd fc11 41bd
00000080: de27 85bd 4469 86bd ccfd e0bd 7c3f 263d
00000090: 0cb5 2f3d a4b3 f33d c01e 4bbc 224b b83d
000000a0: e408 98bd 4425 323d 6c48 cc3d e47f 24bd
000000b0: 60f5 873d e0df 343d 90c4 6bbd a8ae edbd
000000c0: 7073 da3c f0da bfbd 6021 6f3c dab0 8cbd
000000d0: 748c 5e3d e4fe df3d d02b f03d c2e2 98bd
000000e0: 0430 513d f02f 75bc aab1 863d 9070 943c
000000f0: 90f7 a83c d49e fa3d b0da 523c 782e 8b3d
00000100: befd bb3c 4c1c 3f3d 9c05 cdbd b43c 05bd
00000110: c086 b23d 6c44 36bd 3432 52bd 20fd bb3c
00000120: c0ae e9bc 5820 dbbd f469 523d 3e78 99bd
00000130: 007f 9abd 327b febd f695 a5bd 240f 093d
00000140: 507f bd3d 286d 683d ac6c 193d 9200 c43d
00000150: 42ec d83d 6c6d 6ebd ac52 1cbd a89f c3bd
00000160: 6c0a 543d 241d 683d 9001 853c 0082 3f3c
00000170: 32dc f23d e859 d1bd 1ca1 7a3d 2814 97bd
00000180: 08bd b3bd 44ca 07bd fc44 003d 3817 c3bc
00000190: b0f3 b2bc 70b4 a63c eea4 993d d859 213d
000001a0: 2c16 10bd e828 d8bc d81f a33c 58c4 29bd
000001b0: 9a48 de3d 38c7 823d 7863 8f3d 82f8 c33d
000001c0: a8ee dc3d ea42 fc3d 322e d3bd d470 41bd
000001d0: c29f 893d 8064 37bd 901c 3b3d c249 ab3d
000001e0: 108c a43d 10e6 cb3d be1d 88bd 1844 93bc
000001f0: 5493 45bd 3222 cc3d 0896 fa3d 1c9c 5f3d
00000200: 3894 963d 20eb 093c 3015 b53c 00da f1bb
00000210: 2097 cd3c 60df d93b 3028 57bd 2418 84bd
00000220: fcd7 88bd 2c3d 36bd c206 b13d 1ac1 a5bd
00000230: 302f c03d dcc3 f2bd fcf0 69bd 7070 843c
00000240: 0e1e c23d 747c 21bd 5486 1ebd 009a dc3b
00000250: 40ac cdbd b64d b2bd d28a 98bd 2c02 49bd
00000260: 2295 b53d d479 c3bd 504f bfbd 00d0 acbc
00000270: e48f 863d 60f0 433c c655 9d3d 3051 46bd
00000280: 9661 c13d c018 b9bd 50ea d13d 0054 7b39
00000290: 1ed5 e93d 80b9 ddba 3215 8abd d44c b13d
000002a0: 7a43 a9bd e6a0 ffbd 281e 03bd 80f6 883c
000002b0: 62bc 8e3d 1017 dcbd 524d b53d 4c53 bebd
000002c0: d4bc 613d 9cc8 5b3d fc6b 993d b2f7 fbbd
000002d0: 4020 1ebb 9c5f c5bd f4e4 9fbd b00b 6c3d
000002e0: b60b ce3d f04e a23d 8af0 a03d 085c a83d
000002f0: 2267 b2bd ce86 9dbd ec55 cabd 4082 49bc
00000300: 3a59 013d 4030 8c3b bc67 95bd 98fe 88bc
00000310: 7260 fcbd 38bd 2ebd 4074 b03c 0853 5a3d
00000320: e822 063d 043d 66bd 46c7 eebd 30d3 673d
00000330: cada af3d 4a2a 9d3d c046 7e3c ea77 9d3d
00000340: 10e8 07bc 28b0 acbc 6a05 afbd 385f 6cbd
00000350: fa67 a4bd 48ab 0fbd 98e4 6a3d 88cb 713d
00000360: d007 793d 786f bbbd 9efe be3d 2af1 a1bd
00000370: 0ea4 fcbd cebe d73d 9ce4 8e3d e6b8 b23d
00000380: 28c5 903c d0b0 8abc e885 413d 90ba 84bc
00000390: 8031 153b f89b 87bc 50a7 47bd a040 c13c
000003a0: e466 52bd c666 f33d 6ed5 9e3d 0060 47b8
000003b0: 0074 3d39 68a7 39bd 1ce9 7f3d 8262 b13d
000003c0: 8457 bfbd 5c12 b8bd c093 eebc 5ca8 9bbd
000003d0: 460c 853d d8a0 943d 269e c63d 78e8 a03c
000003e0: be63 e93d b62a f63d 32a8 f43d 848e 85bd
000003f0: fa87 d8bd 3220 cebd 64ab 673d 6043 d73d
0.005537961 0.015456885 0.006175548 -0.006689504 0.03985803 0.10023028 -0.050881594 0.11316103
-0.09778023 0.015837193 0.118162364 -0.021417156 -0.086523086 -0.114974454 -0.1245217 -0.015944079
0.12268056 0.050098702 0.015956536 0.04092291 -0.053889394 -0.08120841 -0.021468312 0.0018535256
0.050596908 0.029529735 -0.07617526 -0.01409778 -0.060270533 -0.086162016 -0.058659077 -0.04713629
-0.06501745 -0.065630466 -0.10985908 0.040587887 0.04289727 0.11899498 -0.012397468 0.089987054
-0.07423571 0.04349257 0.09974751 -0.04016103 0.066385984 0.044158816 -0.057560503 -0.11605579
0.026666373 -0.09367931 0.01459536 -0.06869669 0.054333165 0.109372884 0.117271066 -0.074651256
0.051071182 -0.0149650425 0.065768555 0.01812008 0.02062586 0.12237325 0.012869522 0.067959726
0.022948142 0.046657845 -0.100108355 -0.032528594 0.08717108 -0.044498846 -0.05131741 0.022947848
-0.02852571 -0.106995285 0.051370576 -0.074936375 -0.075437546 -0.124258414 -0.080852434 0.033461705
0.092527986 0.056744725 0.037457153 0.09570421 0.105919376 -0.05820982 -0.03816478 -0.095519364
0.05176775 0.056668416 0.016236097 0.011688709 0.11858405 -0.102222264 0.061188802 -0.073768914
-0.08776289 -0.03315188 0.03131579 -0.023814783 -0.021844715 0.020349711 0.07502161 0.039392322
-0.035177395 -0.026386693 0.019912645 -0.041447014 0.108536914 0.06385654 0.07001394 0.095688835
0.107877076 0.1231745 -0.103115454 -0.047226742 0.067199245 -0.04477358 0.045681536 0.083636776
0.08034527 0.0995599 -0.06646298 -0.017976806 -0.048236206 0.0996746 0.122356474 0.054592237
0.07352489 0.008417875 0.02210483 -0.007380724 0.025096476 0.006648943 -0.05252856 -0.06449917
-0.06681821 -0.04449193 0.08643867 -0.08093472 0.09384 -0.118537635 -0.057114586 0.016166896
0.09478389 -0.03942533 -0.038702324 0.0067322254 -0.1004262 -0.087062284 -0.07448353 -0.049074337
0.088663355 -0.09544721 -0.093412995 -0.021095276 0.06570414 0.011959165 0.076823756 -0.04841727
0.09442441 -0.09037924 0.1024977 0.00023968518 0.11417602 -0.0016916245 -0.06742324 0.08657232
-0.08264823 -0.12481861 -0.03201118 0.016719103 0.06969525 -0.10746586 0.08852638 -0.09293231
0.05511172 0.053658113 0.074912995 -0.123031035 -0.002412811 -0.09637377 -0.07807341 0.057628334
0.100608274 0.079252124 0.07858379 0.082206786 -0.08711077 -0.076917276 -0.098796695 -0.01229912
0.031579234 0.004278213 -0.072951764 -0.016722962 -0.12323083 -0.04266092 0.021539807 0.05330184
0.032748133 -0.056210533 -0.11659102 0.05659789 0.085866526 0.076740816 0.015519798 0.076888874
-0.008295074 -0.021080092 -0.085459545 -0.057707995 -0.080276445 -0.035075456 0.05734691 0.059031993
0.060798466 -0.0915212 0.09325908 -0.079073265 -0.123359784 0.1053444 0.069771975 0.08726673
0.017672136 -0.016930014 0.047246844 -0.016202241 0.00227651 -0.016553864 -0.048743546 0.023590386
-0.051367655 0.11884837 0.07755552 -4.7534704e-05 0.00018067658 -0.045325667 0.06247817 0.08661367
-0.09342864 -0.08987877 -0.029123187 -0.076004714 0.064964816 0.07257241 0.09698133 0.0196421
0.113959774 0.12019865 0.11946143 -0.06521323 -0.105728105 -0.100647345 0.056559935 0.10510898

conv_layers.0.w_1.bias f4 [64]
00000000: 3d31 8c3d d285 a2bd 40e3 2b3e 0902 47bd
00000010: f48f a53b cf15 36bd a112 b6bd 2eda d0be
00000020: 8cd3 15be 10db 7a3d 9049 ae3e 9962 c9bd
00000030: 34ff c13d 4bb3 723d c2cd 343e 5a37 8c3d
00000040: fbce 0a3e 24fd 673e 2729 0d3e 72e3 38be
00000050: 7de7 75bc 1f24 b0bb bb86 79bd d887 da3c
00000060: 7af3 cbbc 35cd 9a3e ced5 883d b23a d13d
00000070: 1665 16bd 8965 9dbc 985e cbbb 3c18 693c
00000080: 61c4 7dbd 4976 873e 7e18 5d3d 7d43 3ebd
00000090: b85a b33b e8c9 223e 173c 26be 148d 753e
000000a0: 7a6e cfbd 28b0 54bb 6eae 9a3e 0ad9 143e
000000b0: b4cc d53d 2029 763d be62 8abc 0897 3cbd
000000c0: 7353 37bd 59b9 723d da61 32be 1064 a2bd
000000d0: f3ca 553e 9f6a 4d3e 0d90 a33c 30a4 e93e
000000e0: 65d3 5e3d f6b4 563e 1338 353e efc8 a53c
000000f0: 8771 e13d 12ac 123e 7084 0d3d 4ddd d43d
0.06845329 -0.079356804 0.16785908 -0.048585925 0.005052561 -0.044454392 -0.08890272 -0.40791458
-0.1463148 0.06124407 0.340405 -0.09833259 0.09472504 0.05925302 0.17656615 0.06846495
0.1355552 0.22655159 0.1378523 -0.18055514 -0.015008804 -0.0053753997 -0.060919505 0.026676103
-0.024896372 0.30234686 0.06681405 0.10216273 -0.036717497 -0.019213455 -0.006206345 0.014226969
-0.06195486 0.26457432 0.053978436 -0.04645108 0.005473461 0.15897334 -0.1623386 0.23979598
-0.101284936 -0.003245363 0.30211204 0.14535919 0.10439435 0.060097814 -0.016892787 -0.046042472
-0.044757318 0.059258793 -0.1742014 -0.07929242 0.208782 0.20060204 0.01996615 0.45633078
0.05440082 0.20967469 0.17697172 0.020237414 0.11007982 0.14323452 0.03455013 0.10393772

conv_layers.0.w_2.weight f4 [64, 64]
00000000: 6bd5 a03d f646 bebd 2479 463c 3ca1 fb3c
00000010: f3f1 b4bd e0e9 eebd e978 aa3d 10d2 bebd
00000020: a828 423d ed43 edbc bcd1 07be b9b8 96bc
00000030: 13ed 29bc 75e1 233d ab96 8cbd 2be9 d7bd
00000040: 04b9 ac3d 7966 4dba 2ecb ce3c 7d14 07be
00000050: 14c1 23bd 4d53 17bd f398 dc3d 61fc d7bc
00000060: 9ab5 ebbd 0e64 09be 5adb 503d 5bcd 833d
00000070: 09d7 343d f847 fcbd 1507 6dbd 7258 f2bc
00000080: 7939 533d 3d1e 8ebe 740e 86bd 47e1 bf3d
00000090: 5dc4 433d 81e9 003e 67f8 063d bc7f 1abe
000000a0: 3242 7cbd c950 923d 98bb ffbd 2022 a93c
000000b0: 0663 ebbd 91d5 eb3d 218a 99bd cd74 983d
000000c0: df3b d6bc dd6c 1f3d e375 bbbd 787b 11be
000000d0: 3fdf 0abe f55a 6abd a5e7 ccbd 25b1 d6bd
000000e0: 9559 9bbc f0d5 51bd 0760 0abe 151f edbd
000000f0: a0c8 d53c d75b a2bc 15ee 77bd 9e25 ddbd
00000100: bc8e 4dbb 4c3b 57bd 7df1 94bd 260e 033b
00000110: c615 263d 46a7 58bc f5d4 27bd 0af1 57bd
00000120: b4d3 8abd 0f13 b23c 4879 163e 5ba6 84bd
00000130: 822a 063e 8f04 a1bd 4554 d63d 2260 c43d
00000140: 9bdf b23d 7439 453d 3c6f 43bc ce6e 99bb
00000150: 0c1e 113d 769e d4bc 81d3 323d 1ee0 c0bd
00000160: 72b3 f8bc ed4b 893c bd86 db3d fe79 d3bd
00000170: 6d17 b7bd 434b 9fbb 7982 803b e95d 06bc
00000180: 5b35 2f3d a8a3 48bc 2741 93bc c16e fe3c
00000190: 8ff5 593c a3ea e6bc 206a 56bd 9282 17bc
000001a0: 6b8a d6bc f67b ad3d 9037 a6ba a21d e2bc
000001b0: ed21 003e 807c f9bb 2087 9cbd 3565 2abb
000001c0: 209d adbd f308 e03d 6274 ebbd 1d57 d0bd
000001d0: 140d 3ebe 496d 57bb 66d4 16be f701 1a3e
000001e0: acb2 d63c 2aac c2bc fd47 2e3c 6b8a 9dbd
000001f0: 555c 043d 7f6d d43c 39c0 c1bc c763 78bd
00000200: 7de6 6dbd b376 dc3c 96a2 8e3d a1b4 ad3d
00000210: 13d5 4b3d de80 00bd e9a1 3e3d 79da 0d3d
00000220: 1f3b 90bd 8cd0 a4bd 17b4 0cbc b731 f23d
00000230: ff95 dcbd 9249 58bd 98e0 ecbb 86d9 29bd
00000240: 930a 5abd 276d aa3d 16d3 a03d f322 a33c
00000250: 4f98 f5bd e454 afbc 93b3 70bd c24f ad3d
00000260: 3ee7 0abd 1da9 083e 9a72 a93d c9a7 43bc
00000270: 3a1e 96bd 376f d43d ffcc 5c3c 3eb1 a6bc
00000280: e17f 923b cea3 eb3d e933 9fbd 119e 8ebd
00000290: 9d18 8f3d a0cf ef3d 3f1e dd3c 00b7 5a3e
000002a0: 21d7 90bd d7b6 ad3c 7f58 d23e fe8a 2e3d
000002b0: 13e8 4cbd 9694 61bc 4067 ac3c 71e1 473d
000002c0: e156 353c e225 a9bc 5987 40bc 3a2b 853b
000002d0: dd27 2b3e c1b0 563e c294 d1bc 4867 453e
000002e0: e758 843d 78ef a73d 8e2f a63e 2bbb f6bc
000002f0: d30c b73c 8cc2 933d a0ad 943d 1cf2 acbc
00000300: d2ad ce3c a83d a83d 38db f33d e662 b2bd
00000310: d666 aebd 9509 73bd 39c2 183d 3d88 01bd
00000320: c5b1 c03d 1991 2c3d 3025 263e d51d f73d
00000330: b8a6 ab3c 76c2 fc3d 95a1 1d3c f3c9 89bd
00000340: 90dc fcbd 77de cdbc b025 033b 6c7a ce3d
00000350: 34ea f9bb fc53 09be 9e62 92bd f7f0 94bd
00000360: 9dbc 5fbd fdbc 06be 50cb cdbd 7072 b73d
00000370: 1478 053c 01ef 56bd b1a8 3d3d 67e7 233c
00000380: 9982 023e 3a49 e03d 596d a13d 458d 71ba
00000390: fef1 5f3d dcf6 0e3e b486 9bbd 4c07 01bd
000003a0: a998 013e ed75 f9bb 28e6 6bbd 9078 d9bc
000003b0: 5d60 293d 18db fabc 5291 5c3d 70e3 1cbc
000003c0: 4aad ec3b e1e2 01be 984e dabd 8dca 8f3d
000003d0: 3fbb 2a3e 1681 36bc b042 a33d 6d51 1f3d
000003e0: ae96 543d 8a8d 52be fe9a 8c3c 608e 26bd
000003f0: 3bd1 c53d f579 993d 5273 e6bd 898b 783d
0.07853206 -0.092908785 0.012113843 0.030716531 -0.08835211 -0.11665702 0.08323843 -0.0931741
0.047402054 -0.028963054 -0.13263601 -0.01839863 -0.010371464 0.040009934 -0.06864675 -0.1054252
0.084337264 -0.0007835399 0.025243368 -0.1319141 -0.039979056 -0.036944676 0.1077136 -0.02636546
-0.11509247 -0.13417074 0.05099044 0.06435653 0.044150386 -0.123184144 -0.057868082 -0.02958319
0.051568482 -0.27757445 -0.065457255 0.0936914 0.04779469 0.12589075 0.03295174 -0.1508779
-0.061586566 0.07144315 -0.124869525 0.020646155 -0.114934966 0.11515344 -0.07497049 0.07444153
-0.026151596 0.03892218 -0.091533445 -0.14207256 -0.13561724 -0.05721565 -0.1000512 -0.104830064
-0.018963614 -0.051229417 -0.13513194 -0.11578194 0.026096642 -0.019819183 -0.060529787 -0.107981905
-0.0031365594 -0.052546784 -0.07272623 0.0019997447 0.04054811 -0.013223475 -0.040974576 -0.052720107
-0.067786604 0.021737603 0.14694703 -0.06477042 0.13102153 -0.078621976 0.10465292 0.095886484
0.087340556 0.048150495 -0.011928376 -0.0046823984 0.035429046 -0.025954466 0.043658737 -0.09417747
-0.030359004 0.016759837 0.10719059 -0.103260025 -0.08940015 -0.004861267 0.0039218036 -0.008201101
0.042775493 -0.01224605 -0.017975403 0.031058671 0.013303175 -0.028188055 -0.052347302 -0.009247439
-0.02618905 0.08470909 -0.0012681354 -0.02760202 0.12512942 -0.0076137185 -0.076429605 -0.0026000265
-0.08477235 0.10939207 -0.11496808 -0.101728655 -0.18559676 -0.0032871536 -0.14729461 0.15039812
0.026208244 -0.023763735 0.0106372805 -0.07692417 0.032314617 0.025931118 -0.02365123 -0.06064203
-0.05808114 0.026912069 0.069646046 0.08481718 0.04976375 -0.031372897 0.04654113 0.03463218
-0.070425265 -0.0804759 -0.008587859 0.118258886 -0.10770797 -0.052804537 -0.007228922 -0.041467212
-0.05323274 0.083216004 0.078527614 0.019914126 -0.11991941 -0.021402784 -0.058765005 0.08462478
-0.033911936 0.13345762 0.08273812 -0.011941859 -0.07329984 0.10372775 0.013476609 -0.020348188
0.0044708108 0.11505853 -0.07773573 -0.069637425 0.069871165 0.11709523 0.026991962 0.21358871
-0.070722826 0.021205349 0.41083142 0.042613022 -0.05002601 -0.013768336 0.021045327 0.048798982
0.011068077 -0.020647947 -0.011751019 0.004063991 0.16714425 0.20965864 -0.025583629 0.1927768
0.06462269 0.08199972 0.32458156 -0.030118546 0.022344982 0.07214841 0.07259679 -0.02111154
0.025229368 0.08214885 0.11907047 -0.0871027 -0.08515708 -0.05933531 0.0372946 -0.031624068
0.09408907 0.042130563 0.16225123 0.12066237 0.020953521 0.12341778 0.009621044 -0.06727972
-0.123467565 -0.025130494 0.0020011477 0.10081944 -0.007626796 -0.13410944 -0.07147716 -0.07272523
-0.054623235 -0.13158031 -0.100485444 0.08957374 0.008146305 -0.052474026 0.046303455 0.010003901
0.12745132 0.10951467 0.078821845 -0.0009214471 0.05467414 0.13961357 -0.07594052 -0.0315011
0.12655891 -0.007612935 -0.05759254 -0.026546746 0.041351665 -0.03062205 0.053849526 -0.00957571
0.007222806 -0.12684204 -0.10659522 0.07021055 0.16672991 -0.011139175 0.07971704 0.038896013
0.05190151 -0.20561805 0.01716375 -0.040663123 0.09659048 0.074939646 -0.11252464 0.060679946

conv_layers.0.w_2.bias f4 [64]
00000000: 24cc e63d c75c cd3d c726 303d ea78 823d
00000010: ccb8 a8bd fcfb b2bd 84d2 15be 95fc b4be
00000020: 5e8b 3e3d f43b 2e3e a42f 9c3e 3b2e b7bd
00000030: 963d 813e 22bb 113e f0d0 f33d 38f7 efbd
00000040: fc13 b73c 2100 bd3e f697 e13d 7746 3fbe
00000050: 3f57 86bd 9eca 0abe d869 0fbe 7aba 503d
00000060: 8ebb 67bd c87c 1a3e 36ad 8dbd da23 f83c
00000070: 19b2 133e ce68 013c 7a73 a53d 8cce 4cbd
00000080: b432 4abd b402 9f3e c4f0 fcbd cffb 2f3d
00000090: 5300 0bbd c52e 083e 0854 d1bd 5ad1 a53e
000000a0: 0c0e b53c 5731 e93d 0661 283e de56 1f3e
000000b0: b638 043e 815e cbbc f88f 03be 02c3 29bd
000000c0: 515f dcbd 4424 babd 3415 30be 222a 0bbe
000000d0: 5006 5e3e 2ee1 4f3e 25c7 4abd 6c81 b73e
000000e0: d5c5 163b 0ea6 f13d 0bdf 553e 8893 5abe
000000f0: b8fb 273e 9438 98bd 07eb 1e3e 3e16 c13d
0.112694055 0.100274615 0.04300573 0.06370719 -0.08238372 -0.087394685 -0.14631087 -0.35348955
0.04651963 0.17015058 0.30505097 -0.08944365 0.252423 0.14231542 0.11905086 -0.11717075
0.022348396 0.3691416 0.110153124 -0.18679224 -0.065596096 -0.13553855 -0.1400522 0.050959088
-0.05657535 0.15086663 -0.06917803 0.030290533 0.14423408 0.007898523 0.08078666 -0.050001666
-0.04936476 0.3105675 -0.1235061 0.042964753 -0.033935856 0.13299091 -0.10221106 0.32386285
0.022101425 0.11386364 0.16443262 0.15560481 0.12912259 -0.024825336 -0.12847888 -0.04144574
-0.10760368 -0.09088948 -0.17195588 -0.13590291 0.21682096 0.20300743 -0.049506325 0.3584093
0.00230061 0.117992505 0.20885865 -0.21345341 0.16404617 -0.074326664 0.15519343 0.094280705
