experiments/02_tune_models/selected_trained_models/chebnet_rel_deg/model_state_dict.pt (torch_old, 185854 bytes, 17 tensors)

mlp_layers.0.weight f4 [64, 64]
00000000: 8f22 753d 4b52 b0bd 1170 1d3e dc9b 78ba
00000010: 89d3 aabd 5889 9ebd 4b26 b23d 5286 23bd
00000020: 54ad 63bc 3202 6e3d 3107 d43c 3935 0e3b
00000030: 6a1c 1b3e 031b 3c3d c3f3 12be a48a d03d
00000040: 17ad 193d 8db0 7b3d 354f 1abe 4811 1abe
00000050: 94d6 203e 9916 7a3c b196 433d 1b10 c9bd
00000060: 8bf6 a93d 0ea6 f7bd 09af 1f3d 90b7 dd3d
00000070: 9219 f93d fe58 e8bd 3d37 b7bc 9287 4b3e
00000080: 8bb3 0a3d 0c46 9cbe 44c5 1a3d 258a 98bd
00000090: 2ebd c03d 1982 04bd b89c 1d3e 908d 05be
000000a0: 7387 d8bd 69e7 47bd d55a b4bd e682 893d
000000b0: e249 5c3d d424 2bbe eb55 0dbe 1356 2c3d
000000c0: bf0c ddbc 091d 32bd 3044 53be e6a4 ff3a
000000d0: a9ff cb3c 9818 03bd 9eb6 ff3d 7380 07be
000000e0: eef9 f03d 55fe 353d c416 803d 7e35 09be
000000f0: 7588 183e 461e 90bd 9fb8 0d3e 5e66 7fbc
00000100: a222 c6bc b893 223e d050 6b3e 492e 293e
00000110: af39 173e ad24 dc3d d096 8dbd e65b b3bd
00000120: 5829 e4bd 391b 4d3e b696 773e 50db cf3d
00000130: 88fe 613b 99af 7ebe 6688 983d 6837 353e
00000140: d24b 30be 6394 943c 5619 b3bd f0f9 90bd
00000150: c4ef 4a3e a49c 0a3e 1fe2 343e 01c0 563a
00000160: cae5 6bbd 117e 8fba 1d8f f3bc 484b 11bd
00000170: c528 67be f3a6 933d 6ae3 ddbd 3076 203e
00000180: 7291 afbd d10e ee3d 91f3 153e 7439 7fbe
00000190: ef79 bb3c 0f98 9f3d f29e d63d 900a 36be
000001a0: 4723 eabd c1e9 583d 2e53 7dbd 357c 303e
000001b0: 5aa9 253d 8f9f 9cbd 4079 9f3d f3a4 cf3c
000001c0: d185 4e3e 0bbc 55be 1d50 8e3d 0052 97bd
000001d0: 8353 b9be 5d7a 8e3c 09db f53c e0e2 f43d
000001e0: 0ea0 56bc 7352 073e 1f3b 833d c36c 39be
000001f0: 0466 0a3e 6bc8 9b3d 5a8f 623d a14a ad3d
00000200: 3ef9 993d b462 4dbd 3051 803d 92c1 b9bd
00000210: 806d e33b eb35 283d 9197 f43c ae65 863d
00000220: 3204 3e3d 138f 523d 7c63 ea3d 247c 163d
00000230: eb56 3c3d 98f5 a13d 74f0 18be 5a84 d63c
00000240: 31c4 c13d 42bf 50bc 3e49 373d caac 8cbd
00000250: 178b b43d bed7 a4bd 587c 68bb 6bba 793d
00000260: 552f 733e cc89 2ebe 60ba ad3d 9151 9b3d
00000270: a50a fd3d 2a77 57bd 0a6d f0bd 62d5 723d
00000280: 6b73 24bd a1d2 be3d 378a 633a 0db3 b93d
00000290: 20b8 083a bc9d fdbd 36e0 863d cbfd 713e
000002a0: f4f8 863d 1695 8dbc 9a13 5b3c 16de 4a3d
000002b0: e815 9f3c 09d1 4bbe 07a4 863d 29da 323b
000002c0: cbb7 4fbd 034f 18be 6d7c 523d e534 92bd
000002d0: e589 8e3d d499 553c fc34 ca3d 9ab7 96bd
000002e0: e4ca a63c 52a8 d1bd 2421 463e a488 bd3d
000002f0: 070b 643c e385 45bc e889 d63c 0ba9 9d3d
00000300: 8e3c e4bd 48fb 94bd 8fbb 94bc c0d3 a8bd
00000310: 2421 9bbc 3a1d e1bd 4f62 1abc 1a26 2d3d
00000320: 9851 a63b 3a7d bd3d 9084 9abd 7eac 21bd
00000330: d53a 9f3d dd09 5fbd 841b 27be 5db6 6bbd
00000340: 1531 9cbd 9330 edbb d659 e1bd 531d 3fbd
00000350: 33c4 e13c ca9a a0bc e3e6 d6bd fe87 853d
00000360: d6ca 0f3d 5b6b afbd 5f3c 33bc d829 82bd
00000370: 3a69 ec3d d78f 11be 9e7c 333d 3058 9cbd
00000380: 9b0c 183d 4263 073d f7c2 b9bd 79db 0d3c
00000390: a5da c3bd bd98 cabc 5683 9abd a643 debd
000003a0: 0b55 cebc 4f8a b7bd 0774 68bd e550 14be
000003b0: f151 563b fd95 a4bc 84ad 243d 90f9 58bd
000003c0: 5837 213e 60f6 32be b01b 08bd dd6c 973b
000003d0: aef9 e33c c587 3abd 8e09 d7bc 0fa9 29b9
000003e0: 380b 833d 714f 18bd c631 823d 84e2 53bd
000003f0: be3c c4bd 98ec 283c c547 cfbd ce83 c7bd
0.05984741 -0.08609446 0.15374781 -0.0009483674 -0.083411284 -0.0774104 0.0869871 -0.03992302
-0.013896305 0.058107562 0.025882335 0.0021699204 0.15147558 0.045924198 -0.143508 0.101826936
0.037518587 0.06144767 -0.15069278 -0.15045655 0.15706855 0.015264177 0.047751132 -0.09817525
0.082989775 -0.12092219 0.038985286 0.108260274 0.1216308 -0.11345099 -0.022365207 0.19875935
0.03386263 -0.30522192 0.037785783 -0.07448224 0.09411083 -0.032350633 0.15391815 -0.13042283
-0.1057271 -0.048804674 -0.08806387 0.0671442 0.053781398 -0.16713268 -0.13802306 0.042074274
-0.026983617 -0.04348472 -0.2063148 0.00195041 0.024902182 -0.032005876 0.12486003 -0.13232593
0.1176642 0.044432003 0.06254342 -0.13399312 0.14895804 -0.07037024 0.13839959 -0.015588371
-0.024186436 0.15876663 0.22980046 0.16521563 0.14768098 0.10749183 -0.06913531 -0.087577626
-0.11140698 0.20029916 0.24178585 0.101492524 0.0034483988 -0.24871673 0.07447891 0.17696917
-0.17216423 0.018137163 -0.08745067 -0.07078922 0.19818026 0.13536316 0.17664383 0.0008192063
-0.05759219 -0.0010947605 -0.029731328 -0.035472184 -0.22574146 0.072095774 -0.108343914 0.15670085
-0.08572663 0.1162392 0.14643694 -0.2492426 0.02288529 0.07792675 0.10479535 -0.17777467
-0.1143251 0.0529573 -0.061846904 0.17234881 0.04044471 -0.07647621 0.077867985 0.025347209
0.20168234 -0.20872514 0.06948874 -0.07388687 -0.36196527 0.017392332 0.03001167 0.119573355
-0.013099683 0.13215046 0.06407761 -0.18107896 0.13515478 0.07606586 0.055312492 0.084615
0.07518242 -0.05014296 0.06265485 -0.09070124 0.0069405437 0.041067045 0.029857429 0.065623626
0.04639072 0.051405977 0.114447564 0.036739483 0.04598133 0.079081714 -0.14935476 0.026186157
0.09461249 -0.012740912 0.044747584 -0.068688944 0.08815592 -0.08048962 -0.0035474505 0.060968798
0.23748524 -0.17044753 0.08482814 0.07583917 0.12355546 -0.052603878 -0.117395476 0.05928553
-0.040149134 0.09317518 0.00086799584 0.09067354 0.0005215425 -0.12383601 0.065857336 0.2363197
0.06590453 -0.017283004 0.013371373 0.049528204 0.019419625 -0.1990396 0.065742545 0.0027290678
-0.050712388 -0.1487389 0.051388193 -0.07138995 0.06959895 0.013037164 0.09873387 -0.07359238
0.020360418 -0.10237183 0.1934858 0.09254578 0.013918645 -0.012055847 0.026188806 0.07698258
-0.111443624 -0.072744906 -0.018155841 -0.08243513 -0.018936701 -0.10991903 -0.009422853 0.042272665
0.0050756447 0.09252401 -0.075448155 -0.039471142 0.07774893 -0.054452766 -0.1631909 -0.057546962
-0.07626549 -0.0072384565 -0.11003463 -0.046658825 0.027559375 -0.01960506 -0.10493257 0.06520079
0.03510555 -0.08565398 -0.010939687 -0.06355637 0.11543508 -0.14215027 0.043820016 -0.07634008
0.037121397 0.033053644 -0.0907039 0.008658283 -0.095631875 -0.024731034 -0.075445816 -0.10852747
-0.025187036 -0.08961927 -0.056751277 -0.14483984 0.003270265 -0.020091051 0.04020454 -0.052972376
0.15743768 -0.17476797 -0.03322953 0.004621132 0.027829017 -0.045539636 -0.026249673 -0.00016180075
0.06398624 -0.037185136 0.0635715 -0.051729694 -0.09581898 0.010310315 -0.10121111 -0.097419366

mlp_layers.0.bias f4 [64]
00000000: 8e9a ddbc 4ce1 0cbd 508e 3dbe 16ed 943c
00000010: ac5c 0dbd ab7a c23d 61b5 82bd 9de4 a9bd
00000020: a45a cb3d f600 503d 24ed 243d 2026 43bd
00000030: eebe b63d 1058 bc3d 8433 d83d 8dd5 febd
00000040: 03bb 79be e1a9 953c 8032 83bd f0fb 1d3e
00000050: 0348 d3bd 2e16 a53d 2b63 db3d dd06 d43d
00000060: 6d44 593c 8009 31bd 5b24 0d3e 3acb dd3d
00000070: 86c6 7a3d 7681 a53d 26b3 813d 6c84 e53c
00000080: 1f0a c53c 870b 01bd 3ba2 26be 54ef 9cbe
00000090: 52a1 0f3e 9288 0f3d 0976 ae3d b37f 0d3d
000000a0: a3aa 143e e8d5 e33b e9ea 36be c73f d43d
000000b0: c6e9 103e f3ea c03d 0ab4 f5bb b929 123e
000000c0: 7d9d d53d ce0e 8dbd aec1 c83d 42a2 f1bd
000000d0: dcb9 d9bb a4e0 8cbc 48c9 b23d 79a2 013e
000000e0: 7f3c bc3d b9f8 7e3d 5eb8 bc3d fef3 833c
000000f0: 56ac 1abd f4ce 82bd cb0f 78bc b8a1 7abd
-0.027051236 -0.034394547 -0.18511319 0.018179458 -0.034512207 0.09496053 -0.063822515 -0.08295558
0.09929398 0.050782166 0.040265217 -0.04764378 0.08923136 0.09196484 0.10556701 -0.12443075
-0.24387746 0.018269481 -0.064061165 0.15428138 -0.103164695 0.08060871 0.10712274 0.103528716
0.013260943 -0.04322195 0.137834 0.10829778 0.061224483 0.08081333 0.06332998 0.028017245
0.024052678 -0.031505134 -0.16272824 -0.30651343 0.14026383 0.035042353 0.08518607 0.03454561
0.14518218 0.00695299 -0.17863049 0.10363727 0.14151677 0.09419813 -0.007498269 0.14273728
0.10430429 -0.068875894 0.098025665 -0.11798526 -0.0066444706 -0.01719696 0.087297976 0.12659635
0.09191226 0.06224892 0.09214853 0.016107555 -0.03776201 -0.063871294 -0.015140484 -0.061189383

mlp_layers.1.weight f4 [64, 64]
00000000: e640 b63d 90f6 c73c dc06 fc3d 05fb b63d
00000010: 0002 16bd 85e4 813d 623a 193d 6252 e6bd
00000020: e1d8 823c 0272 c8bd 6373 c73d 1e34 e7bd
00000030: 9956 5a3c 9314 133e e966 83bd 9bb4 fbbc
00000040: e48d c13d cb9d eb3d 1934 1bbc 9a03 a8bd
00000050: 8a9d 013e e998 0e3e d24a a73c 9e7d 83bd
00000060: 501d aabc cab8 dfbd cc29 073e 3732 c1bd
00000070: b9a5 d93c f17e 143e e034 673d 62ab c23c
00000080: 580f d23d 23ef 8bbd 32f6 42bd 7e27 8d3d
00000090: 36f3 13bc 26db ff3d ad7f bbbd 7202 9dbd
000000a0: 9086 963b 8100 d2bd 84b1 033e c70a 9fbd
000000b0: c392 0abd a561 a73c 3dad 583c f92a 1bbc
000000c0: a76b c43d e416 2dbe 43d9 073e c890 6a3c
000000d0: 7547 a43d 6bbe 613d 4a88 90bc 306f 783d
000000e0: 0672 fdbc d77e 1fbd 68b4 b3bc ed61 c9bd
000000f0: a962 8e3e 6568 cfbd a5ed 11bc 8c70 f6bd
00000100: 3358 ba3d 0b25 0e3b 0787 9fbc 72e9 163d
00000110: 2596 9cbc b2df c73d 3cab 00be 342e c93d
00000120: eb7b c5bc 3c4f 08bd a70b efbc 0931 81bc
00000130: 40ee 583d f6d6 97bd 64c4 e9bd c846 783d
00000140: 4548 b2bc 645e 243d af5f 5cbd 3950 06be
00000150: 46c5 94bd 8200 c9bd 046a 813d 4c9e 8e3d
00000160: af8a d53d 606d f83b 2f36 a8bd 396e a13d
00000170: 588a a3bd 1a1c 733d 2d1c 883c 7ab9 573d
00000180: b0a0 293e 4864 93bd 4072 3cbd ad8d 573d
00000190: de26 acbd 92d9 9cbd a2f3 bebd c3f2 9dbd
000001a0: e6b3 7abd 074e b9bd ab20 233d 6ca3 e8bd
000001b0: 6507 98bd 8a81 ee3c f75c 7dbd e5b3 d93d
000001c0: 9477 94bc a149 1c3e f7b0 86bc 89f7 653b
000001d0: 970d d438 7c90 d13d 3cc0 0fbd 8386 69bd
000001e0: 9e90 ccbc 0795 18bd e350 95bd ad08 ca3d
000001f0: 026a 343d 2e8f 063e 7a04 ccbd cc6c 20bd
00000200: 634b 98bd d401 2bbe 1d4e 86bc de23 cdbd
00000210: 8cb0 bfbd 51b6 85bd 0440 82bd 1e48 b83d
00000220: 08a2 423d d4a5 423d 9312 123d 01ad 19be
00000230: 0cd4 aebd 58e4 9c3d 9902 a5ba 065e 36bb
00000240: 9d0a 0f3e 4990 393d af6f c0bd 0f14 c53d
00000250: b4b8 e7bd ddad 1bbd 1132 c73b 92c8 293d
00000260: be18 cdbc 7443 b7bd 56c5 293e 2a9e 133e
00000270: 8494 3cbe e0dc 31bd 2989 06be a062 6e3c
00000280: 8bb3 c4bd 29fa c0bd e83e c43d d7de 4b3e
00000290: ad38 243e 3d1a 8f3e 527c 0f3d 5918 07be
000002a0: 9388 9c3d d679 f0bd b7a9 cabd c0eb 0f3d
000002b0: e169 b8bd cfe4 7fbd 96af 12bc 40e3 033d
000002c0: e198 633d 0bc1 dfbd c94a 993d 8417 123e
000002d0: df02 21be 20a2 143d 0380 03be b931 983d
000002e0: 4af3 a53d af14 eb3b 8b39 213e 46c4 1abe
000002f0: 7499 d53e 5b99 233d f2b3 9a3c fa46 42bd
00000300: 3ff4 dabd 1cbd 83bd 2bf0 893b 83b6 663d
00000310: ee96 003e eb01 2abe 02c3 6bbe 0c31 463e
00000320: 9d77 893c d87e 8a3d 656e e2bd 38b0 db3d
00000330: 4802 473b b9d3 07be 0298 40bd 4b83 573d
00000340: de2b 09bf de79 953d 451f f03d a0df 41be
00000350: b251 08be 42b5 433d 4fa7 f6bd ef39 bcbd
00000360: 003c 363d c6dd 153d 7c5e ccbd b068 4b3c
00000370: f377 113e ead1 12bd aacf 483e e1b1 43be
00000380: 8227 d23d 466f d9bd de1c 76bd 2b40 83be
00000390: 72a9 893c 29ba 0dbe 20f1 913d e0f8 dd3d
000003a0: 3b95 09be ba47 633e 2817 7bbe a42e b6bc
000003b0: 2a17 6e3e 4121 1b3d 8259 0ebc f79b b5bc
000003c0: 18aa c8bd 931f c43d ce2c 22be 8098 4fbe
000003d0: 71bc dfbd 7ec6 9fbc 28e2 883c e250 febd
000003e0: 963d 2bbe 280d 56be b441 e8bc 0e81 283e
000003f0: 2d8b 37be 728c 81bd e72f f63d 45a6 483e
0.08899097 0.024409562 0.12305996 0.08934597 -0.036623 0.06342415 0.037409194 -0.11246182
0.015972557 -0.0978737 0.09738805 -0.112892374 0.013326311 0.14363317 -0.06416113 -0.030725768
0.094508916 0.11504706 -0.00947287 -0.08203812 0.12657753 0.13925518 0.02042142 -0.06420444
-0.02076593 -0.109239176 0.13199538 -0.09433406 0.02656828 0.1450155 0.05644691 0.023763362
0.10256833 -0.06832721 -0.04759807 0.06892298 -0.009030154 0.12492971 -0.091552116 -0.07666482
0.004593678 -0.10254002 0.12860686 -0.077657275 -0.03383137 0.020432303 0.013224897 -0.009470695
0.095908456 -0.16903263 0.13266473 0.014316745 0.08021442 0.055113237 -0.017643113 0.06065291
-0.03093816 -0.038939323 -0.02193661 -0.09833131 0.27809647 -0.101273336 -0.0089067565 -0.12033185
0.09098854 0.002168956 -0.019473566 0.036843725 -0.019114563 0.09759463 -0.1256532 0.09823266
-0.02410694 -0.03327869 -0.029180361 -0.015770452 0.052961588 -0.074140474 -0.11414412 0.060614377
-0.021762976 0.04012908 -0.05380219 -0.1311654 -0.072641894 -0.0981455 0.06319049 0.069637865
0.104268424 0.007581398 -0.0821346 0.078823514 -0.07985371 0.05935297 0.016614998 0.05266712
0.16565204 -0.071968615 -0.046007395 0.052625347 -0.08405851 -0.07658686 -0.09323813 -0.07712319
-0.06120672 -0.09048086 0.039826076 -0.11359295 -0.074232854 0.029114503 -0.061856236 0.10630015
-0.018123426 0.15262462 -0.016441805 0.003509017 0.00010111479 0.10232636 -0.03509544 -0.057013046
-0.024971303 -0.0372515 -0.072908185 0.09864936 0.04404641 0.13140556 -0.09961791 -0.039166257
-0.07436254 -0.16699916 -0.01639467 -0.10016607 -0.093598455 -0.06528915 -0.06359866 0.0899813
0.047517806 0.047521427 0.035662245 -0.15007402 -0.085365385 0.076607406 -0.0012589275 -0.0027827038
0.13968892 0.045303617 -0.09396302 0.096229665 -0.11314526 -0.038007606 0.0060789664 0.041451044
-0.025036212 -0.089484125 0.16579184 0.14415804 -0.18416029 -0.043423533 -0.1313826 0.014549881
-0.096045576 -0.09422714 0.09582311 0.19909225 0.16037245 0.27949706 0.03503067 -0.13192882
0.07643237 -0.11741988 -0.09895652 0.035136938 -0.0900457 -0.06247407 -0.008952996 0.032199144
0.05556572 -0.10925492 0.07484967 0.14266783 -0.15723751 0.036287427 -0.12841801 0.07431359
0.08103044 0.0071740965 0.15744607 -0.15113935 0.41718638 0.039941173 0.018884633 -0.04743097
-0.106911175 -0.06432554 0.0042095385 0.0563264 0.12557575 -0.16602294 -0.23023608 0.19354647
0.016780669 0.06762475 -0.11056212 0.107269704 0.003036635 -0.1326436 -0.047019966 0.052615445
-0.5358256 0.07298635 0.11724714 -0.18932962 -0.13312414 0.047780283 -0.1204363 -0.091907375
0.044490814 0.036588453 -0.09978959 0.012415096 0.14205913 -0.03584472 0.19610468 -0.19110824
0.10261442 -0.10616927 -0.060086124 -0.25634894 0.01680443 -0.13840546 0.07126069 0.10838485
-0.13435833 0.2219533 -0.24520552 -0.022239037 0.23251024 0.03787351 -0.0086883325 -0.022169096
-0.09798068 0.09576335 -0.15837404 -0.20273018 -0.10924614 -0.019503828 0.016709402 -0.12417771
-0.16722712 -0.20903456 -0.028351642 0.1645548 -0.17924185 -0.06325616 0.120208554 0.19594677

mlp_layers.1.bias f4 [64]
00000000: 8b86 803d e509 d3bc 8711 d33c abc2 0e3e
00000010: 6d46 1f3e 57c3 243b d1c2 59bd d280 e93d
00000020: 6a06 efbd 199b c43c 0489 be3d 03f9 1d3d
00000030: cce9 5cbd 4135 e63d 3859 c63d ba9e aa3d
00000040: 5699 da3d 2e63 c73d ba29 19be 7f90 c3bd
00000050: 8541 ed3c 7223 e8bd 3c40 42bc 4657 a9bd
00000060: 4ead 4abd 8508 03be e887 e53b 8a6f 1b3e
00000070: c9aa 9abd 21c7 0b3d 0d2d f23d b272 d13d
00000080: 0ca3 8c3d 5c20 263d fbfb 3f3d b35a 93bd
00000090: 617e e03d 8898 95bc 0786 8e3d b404 29ba
000000a0: 527a f03b eb3f ed3d 174c 0a3e 52c5 523b
000000b0: 9256 523d 027a 823d 5166 8f3d 5df2 d1bc
000000c0: 6ff0 1abd f96f c53d f081 753d 30fd d0bc
000000d0: c51b fdbd 90b9 a9bc e276 d5bb 9d8c 68bc
000000e0: 0997 aa3d 6030 a5bd ead2 ccbd 10e2 163e
000000f0: 4645 dbbc 231a 823d d61d c2bc 9771 2a3d
0.06275662 -0.025761554 0.025765194 0.13941447 0.15554209 0.0025140846 -0.053164307 0.11401524
-0.11671145 0.023999738 0.093034774 0.038567554 -0.053933904 0.11240626 0.09684986 0.08331056
0.10673778 0.09735714 -0.14957324 -0.09549045 0.028961906 -0.11334886 -0.011856135 -0.08268599
-0.049481682 -0.12796219 0.0070047267 0.15179268 -0.07552106 0.03412545 0.11824999 0.102269545
0.06867036 0.040558204 0.046871167 -0.07195034 0.10961605 -0.01826121 0.069591574 -0.0006447539
0.0073388005 0.11584457 0.13505588 0.003216107 0.05135209 0.063709274 0.07001937 -0.025628263
-0.03782695 0.09640498 0.05993837 -0.025511354 -0.12358812 -0.020718366 -0.006514416 -0.014193681
0.08329589 -0.080658674 -0.10001166 0.14734674 -0.02676643 0.063526414 -0.023695868 0.041612234

mlp_layers.2.weight f4 [64, 64]
00000000: af3e 18bd 3a5c a2bd d7f9 593c 9c5a 503e
00000010: d2ca 113d 5482 083e 8877 213e 1200 1dbd
00000020: baad c63d 7de3 413d 52f0 e7bd 3217 823d
00000030: 3d61 da3c 0849 79be eae5 bdbd 030f 95bd
00000040: 4f41 40be 5006 053d 2d36 7e3e b844 903e
00000050: abf2 c6bd c073 cf3d 801a 363e 545b 7d3e
00000060: 467c ac3d d478 4dbd 1b89 9d3e f3ff 6d3c
00000070: 4967 12be 9a81 a43c 8c47 18bd 3d9e cfbd
00000080: 4886 d53d bbc2 2c3e a4b0 0abe bb94 893e
00000090: 70b5 43bd 0238 933e 312b c8bd b44e 6a3d
000000a0: 7c31 913e b40c 013d e6af 02be 2abf bfbd
000000b0: cdfd 1b3e 5111 97bc 1a96 4bbd ed5c 4ebd
000000c0: 0dfb fb3d 7c42 eabd 9cb2 17be c125 243e
000000d0: 92b1 863e 2f7c 2dbe 3f67 393e 78d9 c23d
000000e0: c587 41be 173f 153e fc62 8bbd 8a38 9eba
000000f0: c87c d93c a2fe a83c 3659 cc3d def0 1cbe
00000100: cdcf 72bd 5a91 e13d 27e8 b33d 2720 cdbd
00000110: acb0 93bd 8a94 cebc f607 09be 7fd1 9f3d
00000120: 761f 1fbe 6ee4 b3bd 2303 0f3e 8608 ebbd
00000130: 4d0c 6e3d 0fb3 a73d b4b8 e23d 37fa 293e
00000140: 0470 463e 3ec1 c93d 29b2 f6bd c675 8ab9
00000150: a0be c1bd cd69 10be 1490 35bd 68e1 2b3d
00000160: c6be 943b ec92 893d da23 083d 4076 343d
00000170: 6ad0 da3c febc 1e3e bb3c 043e 523f 013e
00000180: 40fa 21bd 5b80 13be c99d 4f3c 1551 ddbd
00000190: cc29 f33d 5af1 b2bd 7657 b1bc eada 73bd
000001a0: f4d2 5d3d 7bc1 883d be01 f33c 6b4c 583e
000001b0: 3636 b33d 7af2 3cbd d31c cf3d c95a 753d
000001c0: 3048 88bd cf64 923d ed4e e1bc dbb6 1dbd
000001d0: 2275 023e c703 1c3e 2714 0abe 2315 f0bc
000001e0: b605 033e 012f 303d 3fd3 96bc 970a 643d
000001f0: 2812 f53d f870 413d d71a 5ebd 98b6 943c
00000200: fa26 333d a3c6 323d c593 633d b2fd 18be
00000210: 4553 a43d d078 8bbd 9cea 2abe 0a28 503e
00000220: dd47 26be 2aa8 b1bd 6f68 56bd 2dd9 7f3d
00000230: 7ddd 413d b487 683e 6918 ac3d 43e4 1a3c
00000240: 0928 803d 567c 223e db47 32bd db32 cbbd
00000250: a9d3 86bd 1214 b7bd 475d 173d a27d 35bc
00000260: 0c10 50bd a9fc cebc 07a8 17be c7b3 c53d
00000270: a59a 0e3e 1802 be3d d0e3 60bc 3a4a 273d
00000280: 36c1 27be 5298 f0bd 2a01 1a3e e1b7 4bbc
00000290: 2d10 ae3b 134b febd 58c5 0abd 52bd 513d
000002a0: 9ac2 f5bd 476a 133e 5665 0d3e b8f0 2b3e
000002b0: 46e4 f8bd 9108 f1bd 7e31 143e dfd6 713d
000002c0: f477 f03c 09e0 2b3e 073b 0a3e 0920 95bc
000002d0: c93c adbd cc82 323e a370 b5bd 146f 1fbe
000002e0: 7443 053e fa8a 093d 5f7c 23be 6509 ae3d
000002f0: 29c0 b13d 9a20 fbbc 4463 d7bc a719 c13d
00000300: f9fe f8bd 1e04 98bd 1d24 03bd a5e7 8f3e
00000310: e88b 26bd cc37 803e 3a0e b53e 918a 6abe
00000320: a35f 673e 7e03 e23c 5367 4cbd de27 563d
00000330: 326c 4a3e 28ec 44be c8b0 d5bd c79f 56be
00000340: b2e7 f8bd 94ce 47bd 3828 833e c848 aa3e
00000350: 5eb3 ccbd 55c0 b93e 0cb0 773e f6b6 c13e
00000360: 39c7 d6bd 2dba 9a3c 14a5 b33e 0ead cfbc
00000370: 2631 383d f523 41bd 01d3 f0bc fc93 cbbd
00000380: 565f a03e 4515 6a3d ec09 26bd d8ea b13e
00000390: 920f 50be 7f99 a83e 546b 6fbd f020 c1bc
000003a0: e26a 873e 8422 14be 7dde 12bd 9de3 69be
000003b0: 224a 0b3e a7ac 043e fbd1 9abd f07f b8bd
000003c0: 3fda a8bd 395d 993c c634 94bc 7865 8b3e
000003d0: 1ffa 023e 0b89 463d 3c5f 893e fe72 693d
000003e0: 91b2 14be 63c8 a83e 65ea 983c 0d8a 96bd
000003f0: 1753 45bd 2053 a1bd acf8 453e 3814 44be
-0.037169155 -0.07927747 0.013304195 0.20347065 0.035593815 0.13330966 0.15768254 -0.038330145
0.097011045 0.04733609 -0.11325134 0.063520804 0.026657695 -0.24344265 -0.09272368 -0.07278254
-0.18774913 0.032476723 0.24825354 0.28177428 -0.09714254 0.101294994 0.17783546 0.2474187
0.08422141 -0.05016406 0.30768666 0.014526355 -0.14297213 0.02008133 -0.037177607 -0.101376034
0.10426003 0.16871159 -0.13543946 0.26871285 -0.047780454 0.28753668 -0.09773863 0.057203963
0.28358066 0.031506255 -0.12762412 -0.093626335 0.15233536 -0.018440874 -0.049703695 -0.05038159
0.123037435 -0.11438462 -0.14814228 0.16030027 0.2630735 -0.16941904 0.18105792 0.09514135
-0.18899448 0.14574848 -0.06805989 -0.0012071293 0.026548758 0.02062923 0.09977953 -0.15326259
-0.059280206 0.11014052 0.08784514 -0.10015898 -0.07211432 -0.025217313 -0.13381943 0.0780363
-0.15539345 -0.08783804 0.1396604 -0.11476235 0.0581172 0.081884496 0.110703856 0.16599356
0.19378668 0.09851311 -0.120457 -0.0002640916 -0.09460187 -0.1410286 -0.044326857 0.04196301
0.0045393435 0.06717476 0.033237316 0.044058084 0.026710708 0.15501782 0.12913792 0.12621811
-0.039545298 -0.14404432 0.012671896 -0.10806481 0.118732065 -0.087374404 -0.02164815 -0.059534945
0.05415626 0.066775285 0.029663917 0.21122901 0.08750574 -0.04612968 0.1011292 0.059901033
-0.06654394 0.07148134 -0.027503455 -0.038504463 0.12739995 0.15235816 -0.1348425 -0.029306954
0.12795147 0.043013576 -0.018411277 0.05567416 0.11966354 0.047226876 -0.054224815 0.018153474
0.043738343 0.043646466 0.055560846 -0.14940527 0.08023695 -0.068101525 -0.16691059 0.20327774
-0.16238351 -0.08674653 -0.05234569 0.062462974 0.04733037 0.22708017 0.08403093 0.009453836
0.06257636 0.15867743 -0.043525558 -0.09921809 -0.0658334 -0.08939375 0.03695419 -0.0110773165
-0.050796553 -0.025266962 -0.14810191 0.096534304 0.1392618 0.09277743 -0.01372619 0.040842272
-0.16382298 -0.11747803 0.15039507 -0.012433977 0.005311987 -0.12416663 -0.033879608 0.05120594
-0.12000008 0.1439601 0.13808188 0.16791046 -0.12152915 -0.11769212 0.14472005 0.059042808
0.029354073 0.16784681 0.1349908 -0.018203752 -0.084588595 0.17432708 -0.088593744 -0.15569717
0.13014013 0.033579804 -0.15965413 0.084978856 0.0867923 -0.030655194 -0.02629245 0.09428721
-0.12158007 -0.0742266 -0.032016862 0.28106418 -0.04066077 0.2504257 0.35362417 -0.22904421
0.22595076 0.027589556 -0.049903225 0.052284114 0.19767836 -0.19230711 -0.10434109 -0.20959388
-0.121535674 -0.048780993 0.25616622 0.33258653 -0.09995149 0.3627955 0.2418825 0.378349
-0.104872175 0.018887604 0.35086882 -0.025351074 0.044968747 -0.047153432 -0.02939749 -0.09940335
0.31322736 0.05714919 -0.040536806 0.34749484 -0.2031844 0.32929608 -0.058451965 -0.023575276
0.26448733 -0.14466292 -0.035856713 -0.22840734 0.13602498 0.12956487 -0.07559582 -0.09008777
-0.08244752 0.01872121 -0.01809157 0.27225852 0.12790726 0.048470538 0.2683047 0.05699443
-0.14521243 0.32965383 0.018666456 -0.0735055 -0.048174944 -0.07877183 0.19333142 -0.19148338

mlp_layers.2.bias f4 [64]
00000000: c118 b3bd dfcb bf3d 5dce 393d 8f3a d0bd
00000010: 7f26 903a 02ab 1fbd e99a 8c3d 81b6 8abd
00000020: 14ac 8cbd 18c8 0ebe 4466 d1bd 0d17 183e
00000030: 18c8 443d b043 253e cfbf ae3d 0e05 863c
00000040: f94a 34bd fec9 42bb ba39 03be aeaf d4bd
00000050: ad80 663d 0492 0dbe 8bee 9abd 9381 b83d
00000060: 650f cfbd d102 b5bc 2bb1 d8bd 223a 313c
00000070: b185 fd3d 97ca e73c 67f0 13bd 2044 1f3d
00000080: 6179 5e3d 1714 51bd 1241 7a3d 508d 403d
00000090: 7d0a cd3d 3d88 03be 4024 693d 1406 a8bd
000000a0: 2f25 e53d 324f e0bc a010 29bd c444 9f3c
000000b0: 6280 ed3d fec1 eebd 51a0 253b 63f1 97bc
000000c0: e743 28be 7fea 07be 6522 2dbd 2a40 25be
000000d0: 20ab 743d c79d 473d cb75 893d 7ca1 94bd
000000e0: 7b8d e73d eec4 bebd a5ba 003d d687 c8bd
000000f0: 4593 19be 0ece 94bd 433a a6bc 8a17 e73d
-0.08744956 0.09365057 0.04536282 -0.10167419 0.0010997801 -0.038981445 0.06865484 -0.06773091
-0.06868759 -0.13943517 -0.10224584 0.14852543 0.048042387 0.16139102 0.08532678 0.016359832
-0.044016812 -0.0029722448 -0.1281499 -0.10385071 0.05627506 -0.13825232 -0.0756503 0.09009089
-0.10110358 -0.02209607 -0.10580667 0.010817083 0.12379015 0.028294845 -0.036117937 0.03888333
0.054314975 -0.05104455 0.061097212 0.047009766 0.10011766 -0.1284494 0.056919336 -0.08204284
0.11188733 -0.027381513 -0.04127562 0.01944197 0.11596753 -0.11658095 0.0025272558 -0.01854772
-0.16432153 -0.13273047 -0.04226913 -0.16137758 0.05973351 0.048734453 0.0671192 -0.07257363
0.11306282 -0.09314905 0.031427998 -0.09791534 -0.14997585 -0.07265864 -0.020291453 0.112837866

mlp_layers.3.weight f4 [1, 64]
00000000: 8ce0 8bbe 34fa b33d 7067 203e 1eca cfbe
00000010: 5eb3 87be 632c b3be 09fb bb3d 2ac1 73be
00000020: d662 69be abc9 91be 3463 bebe acce 363e
00000030: df69 7cbd 0ef9 0f3e 15ce 93bd b768 c53d
00000040: e913 0a3e a36c 46be cf37 a9be 40d1 9a3c
00000050: 970e 983b 47e0 cf3d 7b02 c3be 4b98 bcbd
00000060: 441d b6bd b5ae 853d a401 f63d 6c4c 06bc
00000070: 8bda 123e e861 863d 8fb2 463d a283 4dba
00000080: 5bc7 00be 431a 123e 8cb9 68be 246d 1b3e
00000090: 74dc f4bd 452a 9cbe 0581 923d e5d8 95be
000000a0: 76bb 223e 0087 7abb 8b2e c0be 5e8b 04bd
000000b0: af5c 903d 2e4a d6be 1481 7fbd 9bdc 0c3e
000000c0: af8f 1e3e ed9c c6be c002 ac3c f280 b1be
000000d0: e4ce f9bc c001 d33d c6e2 88bc aa54 bebb
000000e0: a6ae 1e3e e793 afbe c152 35bd a12a cabe
000000f0: 892a cbbe da74 90be 8e77 c4be 1b57 ba3d
-0.27319753 0.08787957 0.15664458 -0.4058389 -0.26504034 -0.34994802 0.091787405 -0.23804155
-0.22791609 -0.28474173 -0.3718506 0.17852277 -0.061624404 0.1405985 -0.072170414 0.096391134
0.13484158 -0.19377379 -0.3305039 0.018898606 0.004640411 0.101501994 -0.3808783 -0.09208735
-0.08892301 0.06527463 0.12012032 -0.008196931 0.1434118 0.06561643 0.04851013 -0.0007839744
-0.12576048 0.1426783 -0.2272703 0.15178353 -0.119561106 -0.30501 0.07153515 -0.2926704
0.15891823 -0.003822744 -0.3753551 -0.032359473 0.07048928 -0.4185347 -0.062378958 0.1375603
0.15484498 -0.387916 0.020997405 -0.3466869 -0.030494161 0.10303068 -0.016709697 -0.0058084326
0.1549631 -0.34292528 -0.044268373 -0.39485648 -0.3968089 -0.2821415 -0.38372463 0.09098645

conv_layers.0.weight f4 [2, 1, 64]
00000000: b8e5 333f 5eb3 dc3e 410f 893e bd03 dd3e
00000010: 5248 283f 9a95 883d 3136 9bbe 5c06 9dbe
00000020: 9668 14bf c3c5 8c3e aa0f 003f fd6b edbe
00000030: 826e 9abe 0337 da3e d370 c43d 70e8 65bd
00000040: aa2e 24bc fa55 19be 525e ddbe 1d61 143f
00000050: 200a 33bf b8d6 9abe 812c 133f 3ff3 64bd
00000060: a4d1 29be 1cca 1dbe c465 863d e7d8 1dbe
00000070: fb9b 0dbf 8e4f f23e 49e9 eabe d030 c9be
00000080: 9947 b73e f287 26bd 065b 0bbf c181 3a3d
00000090: 94a5 3dbe 6c9d d1be 96ee 1fbe 0e63 f2bd
000000a0: f06d 603e 41c7 20be 358d e0bd f328 e7bd
000000b0: 4018 663e 249b 8bbe af58 e0be 9c9b e3bd
000000c0: a22c 1cbf 2076 d0be 325d 05bf 8b3a 323e
000000d0: f68c 15be 97f4 9cbe c521 b7bc 75dc 7dbe
000000e0: ea49 46be 7aaa bf3e d8ff c83e 3fca 0a3e
000000f0: de52 9abe dad1 a23d d81d c9be 1f5d a9bd
00000100: 4b3d ad3e ac52 0fbe 90ce 02be b0a7 243f
00000110: 4c72 5b3d ad24 13bf 308c 88be 465d c83e
00000120: 277d 2ebf 935f 6fbe e07a 21bd 531d 99be
00000130: b2f6 f6be 7e63 f9be ebb9 bf3e 1c97 093f
00000140: 91ca a63e d605 173f 794a eebe 2777 f23e
00000150: 3d70 d7be e870 f13e e991 e33e 9519 6b3d
00000160: 062e c43c c6a8 7bbe d336 103f ad27 3dbd
00000170: 5690 783d 6a9c 08bf afea 22be a98f 0b3f
00000180: 17bb 473f 1e16 ddbe 96fc 3dbf a964 0e3f
00000190: 4039 9a3e 445e 31bf 892b d2be bbe2 a83e
000001a0: 33b7 1fbf 2bb3 da3c f662 2ebf bc4e e2be
000001b0: 4bc2 d0be a2e1 2d3e d57e b5bb 016f 27bd
000001c0: 0cdc 31bf 434f b9bd 0fdc a63d e131 013f
000001d0: 501f cf3e d6a1 10bf 2836 7cbe af0c 66be
000001e0: 9aa2 23bf f768 493e 127e 5c3e b384 353e
000001f0: 7b86 02be 66af ff3e 50dc 113f a4eb 1bbf
0.702724 0.43105596 0.2676945 0.43166915 0.6573535 0.06669159 -0.30314782 -0.30668914
-0.57972085 0.2749463 0.500239 -0.4637145 -0.30162436 0.42620096 0.09591832 -0.056129873
-0.010020891 -0.14974204 -0.43236023 0.57960683 -0.69937325 -0.30241942 0.5748978 -0.05589604
-0.16583878 -0.1540913 0.06562379 -0.15414773 -0.5531613 0.4732632 -0.45881107 -0.39295053
0.35796812 -0.04065699 -0.54435766 0.0455339 -0.18520194 -0.40940416 -0.15618357 -0.118352994
0.21916938 -0.1570101 -0.10964433 -0.11287107 0.22470188 -0.272668 -0.4381766 -0.111136645
-0.61005604 -0.40715122 -0.5209533 0.17405145 -0.14604554 -0.30655357 -0.02235497 -0.24791129
-0.19364133 0.3743475 0.39257693 0.13553713 -0.30141348 0.07950182 -0.3928058 -0.082697146
0.33835825 -0.1399638 -0.1277411 0.6431837 0.0535758 -0.5747784 -0.26669455 0.39133662
-0.6815972 -0.23376302 -0.039423823 -0.29905185 -0.4823509 -0.4870872 0.37446532 0.537462
0.3257642 0.5899328 -0.46541193 0.4735653 -0.4207782 0.47156453 0.44447258 0.057397444
0.023947727 -0.245761 0.56333655 -0.046180416 0.060684524 -0.5336367 -0.15909837 0.54516083
0.7801985 -0.43180937 -0.7421354 0.55622345 0.30121803 -0.6928446 -0.4104884 0.32985482
-0.62388915 0.026696762 -0.6811975 -0.44200695 -0.40773234 0.16980603 -0.005538801 -0.040877346
-0.6947639 -0.09048321 0.081474416 0.50466734 0.40453577 -0.5649694 -0.24630034 -0.22465776
-0.63919985 0.19668947 0.21532467 0.17726402 -0.12746613 0.49938506 0.56976795 -0.60906434

conv_layers.0.bias f4 [64]
00000000: 7398 9bbe d0bb 04bf 6d2b e4be 2b3f a23e
00000010: d25a 20bf 9a88 babe fc1a 07bf ebe3 2f3f
00000020: c5ea 05bf c7ce f83e 89c2 0ebf 241f fbbe
00000030: 84f5 68be 5677 05bf c8db 013e 20ce 113f
00000040: 6ab6 5ebe 099a 363f 725e 9dbe d8eb 833e
00000050: 7005 d03e 7a5d 113f 0bac 15be a3ba a9be
00000060: d78d 143e 62ff aebd 5dc4 dfbe fea4 983d
00000070: fe3b 223f cf4f 18bf 9bdf 4a3e e311 6e3f
00000080: 0137 1e3f c7c2 cbbe 22bf 04be b3c1 f83e
00000090: 8a2a 873e 3b03 e0be 3279 95be 1272 59be
000000a0: 3cc1 23bf a8f5 173e c9e8 05bf 9285 25be
000000b0: 34c0 1ebd a1e5 bf3e a0b9 d93e cba8 fbbc
000000c0: 257e 88bd 1717 8e3e 783a 0b3f d52d edbe
000000d0: 760f 1e3f 888f 95bd b772 5ebe 23e7 f03c
000000e0: f954 32bf d19f d63e 19a3 8bbe 4c0b 20bd
000000f0: 4c93 c23d 5ff5 d53e f236 99bc e141 eebe
-0.30389747 -0.5184908 -0.4456438 0.31688818 -0.6263858 -0.36432344 -0.5277555 0.6870715
-0.52311355 0.4859526 -0.5576559 -0.49047196 -0.22749907 -0.5213522 0.12681496 0.56955147
-0.21749273 0.7132879 -0.3073612 0.25765872 0.40629148 0.5678326 -0.1461641 -0.33150205
0.14507233 -0.08544804 -0.437045 0.07453345 0.6337279 -0.5949678 0.19811861 0.9299604
0.6180268 -0.3979704 -0.12963536 0.4858528 0.26399642 -0.43752465 -0.29194027 -0.2123492
-0.6396673 0.14839804 -0.52308327 -0.16164234 -0.038757518 0.3747988 0.42524433 -0.030720135
-0.06664685 0.2775199 0.5438609 -0.4632403 0.6174234 -0.07302767 -0.21723448 0.02940709
-0.6966091 0.41918805 -0.2727287 -0.039073274 0.09500751 0.41788766 -0.018702958 -0.46534637

conv_layers.1.weight f4 [2, 64, 64]
00000000: 55cc 343e 025d 98bd d290 c0bc f18e 333d
00000010: bcbe e5bd 1c28 27bc a25f bf3d 2f72 a5bd
00000020: a7c1 19bc 9fbd 303e 4293 5cbd 169c 443d
00000030: 3178 44be 631a 05bd 4878 0b3e 0024 35be
00000040: a3c0 ee3d ecf6 34bd 719c 3a3e 7fd7 70bc
00000050: bd31 c43d 9197 1d3e 66f2 b9bd 6761 1ebc
00000060: 6e2c 283e 6e17 7dbd 7e97 4d3d c4ea c1bc
00000070: 1774 393e eae8 92be 1961 033d 8b2b 3e3e
00000080: 1555 d1bd c9c5 26be 4908 eb3d 51f7 16be
00000090: 7f5b bfbd dbb9 c9bd da9e 0cbe 2087 0b3e
000000a0: 7229 cebc 5ac0 02be 39f5 6c3c 06f6 ef3d
000000b0: e8e1 debc d90d af3d 1818 d03d a725 553e
000000c0: a0e7 923d d155 0c3d 6d0e 89be da02 1dbe
000000d0: c4ac 6cbd 77b4 6fbd 6892 b0bd 55d1 37bd
000000e0: 5b38 90be 8642 483e aab7 15bd 065f 1abe
000000f0: 1a26 703e e7d0 a7bd f47d b2bd 7629 b93c
00000100: f0e7 edbc d34e 1e3d 6525 b23d 8d0d 153d
00000110: 08af 46bd d120 acbc fe41 d3bd bb13 f7bc
00000120: 7188 ae3c a538 0bbd b740 b5bd 15eb 06bd
00000130: 4fdf e2bd 815d aa3c d894 82bd 11cf ecbc
00000140: f626 903d 6f05 76bd d3db f0bc 2df9 cfbd
00000150: eb2d 5c3d 90d2 a93d 42be 073d df8c 09bd
00000160: ac63 dbbc 7f6b 5cbd a6ce b93d 279d 683d
00000170: 69fd 90bd 59dd a6bc 7116 7fbd 6685 3f3d
00000180: f3c1 b3bd 0466 a3bc 73c9 38bd d939 05bb
00000190: 7a4b ccbd 8cfc 8abc 3efc 303d 46b0 49bd
000001a0: 1949 253d 73cc 80bc d7dc a9bd 5fda 893c
000001b0: dbfb 9f3c 0aa3 48bc 9c71 6e3c 8ea1 18bc
000001c0: 59eb 343d 13c1 ecbc 68ba 43bd 1b24 99bc
000001d0: 8271 b23c 9de5 75bd 33d2 5f3d 1310 c53c
000001e0: 7cf7 8dbd e7ad 113c f1b9 d239 5890 d3bd
000001f0: e44f 763c 7382 353c 2dfb 2dbd e0e8 393d
00000200: 3834 19be 019c 9d3e 1316 cc3c d347 5abd
00000210: 03e1 7abd 2b74 5cbd ff58 dbba 6b53 993d
00000220: c380 fdbc 7f96 a8bd 33e3 adbd cd71 93bb
00000230: eed0 df3c a8f8 08bd 090d 5cbd 8387 563e
00000240: b081 fbbd d157 4a3d dfcf f0bc 8ff2 bb3c
00000250: 3182 e3bc 17b5 303c 3826 0abd df3c bcbc
00000260: 3338 f4bc 5447 303c b43b 25bd 53fc 7bbb
00000270: 2a1d dcbd 845f 6a3d 5bb7 7c3c f7bf 9c3c
00000280: e99f 0fbc b4ab 9f3d 59d9 b0bc 071b 0e3e
00000290: f8af 1e3d 21ca 873c 491f 923c eca0 f5bd
000002a0: c12c ff3d d842 083c af87 c1bd a164 e3bd
000002b0: c590 14bd c232 93bd 80e3 02bd 64bf 80bd
000002c0: bd01 0e3e 6dfa c5bc e880 083d ce7f 213d
000002d0: b810 333c b00e 86bb 721b 3dbd df5f 91bd
000002e0: 6b28 15bc 08dd c13d f686 28bb 3029 b63e
000002f0: 8340 3dbe bc9c 63bb f12b f43c 4b26 c43d
00000300: 7ce9 353e fb13 8ebd c113 0dbe 1711 893d
00000310: 039f 0d3d 465f fa3a f0d1 8d3d 9dc5 6cbd
00000320: 1471 7f3d 1d7f 463e ead4 61bc 5056 353e
00000330: 9fce 0ebe c768 a73a b4cd 813e 2b11 15be
00000340: 1b86 943c e0cd dfbd 7018 083e e704 99bd
00000350: f758 343e a445 d53d 69b6 b13b d52a 273e
00000360: a3d9 233e 8e07 f0bd 5a64 ba3d 7949 a63c
00000370: f245 ed3d ab88 92be 638d f73d 3b53 1a3e
00000380: 4897 1d3d 04c2 9dbe d0f6 0f3e 1b0e 2ebe
00000390: 2ce2 b7bc 3a73 063d d4e7 44bd 4c85 503e
000003a0: 7879 963d c5d2 c4bd 381a 263e b3d0 553e
000003b0: 572e 8abd b729 2c3e 9ec6 493e 101f 493e
000003c0: 825d 0a3e 3433 343e 4560 6ebe c135 2abe
000003d0: c1a3 703d ee82 68bc b55d ebbc f58e 493d
000003e0: 0e5e 79be 599b 173d c91a f63c bccb 5bbe
000003f0: b7cf a63e f6f5 adbd 27aa 7b3b e264 903c
0.17656071 -0.07439615 -0.023506556 0.04383749 -0.1121802 -0.010202434 0.093444124 -0.080784194
-0.009384549 0.17259835 -0.053851373 0.048000418 -0.19186474 -0.032495867 0.13620102 -0.17689514
0.11657836 -0.044180796 0.1822374 -0.014699816 0.09579799 0.15389849 -0.09079437 -0.009666777
0.16423199 -0.061789922 0.050193302 -0.023671515 0.18110691 -0.28693324 0.03207502 0.18571298
-0.10221306 -0.16286387 0.1147619 -0.14742781 -0.09343623 -0.09849902 -0.13732472 0.13625765
-0.025166247 -0.12768689 0.0144627625 0.11716847 -0.02720733 0.08547563 0.101608455 0.20815144
0.07173085 0.03426153 -0.26768818 -0.15333119 -0.05778195 -0.058521714 -0.08621675 -0.04487737
-0.28167996 0.19556627 -0.03655211 -0.15075311 0.23452035 -0.08194142 -0.0871543 0.022602778
-0.02904126 0.03864939 0.08698539 0.036389876 -0.048506767 -0.021011742 -0.103153214 -0.030160775
0.021305295 -0.033989567 -0.08850234 -0.032939035 -0.11077749 0.02079654 -0.06376046 -0.02890733
0.07038681 -0.060063776 -0.029401695 -0.101549484 0.05375473 0.08292115 0.03314043 -0.03358161
-0.026780926 -0.053813454 0.09072618 0.056790497 -0.07079584 -0.020369219 -0.06227726 0.046758078
-0.08777227 -0.019946106 -0.045113992 -0.002032867 -0.099753335 -0.016966127 0.043209307 -0.049240373
0.040352914 -0.015722489 -0.08294075 0.01682776 0.019529274 -0.012245903 0.014553454 -0.009315861
0.044169758 -0.028900659 -0.047785193 -0.018693974 0.02178264 -0.06003343 0.05464382 0.024055516
-0.069319695 0.008891559 0.00040192858 -0.10330266 0.015033696 0.011078465 -0.042475868 0.045388103
-0.14961326 0.30783084 0.02491287 -0.053291153 -0.061249744 -0.053821724 -0.0016734897 0.07486614
-0.030945187 -0.0823183 -0.084906004 -0.00449965 0.027321305 -0.033440262 -0.05372337 0.20950131
-0.12280595 0.049400155 -0.029395996 0.02294281 -0.027772041 0.010785363 -0.033727854 -0.022978244
-0.029811954 0.010759193 -0.04034014 -0.0038449958 -0.1074775 0.057219997 0.015424575 0.019134505
-0.008766153 0.07796422 -0.021588014 0.13877498 0.038742036 0.016575875 0.017837184 -0.11993584
0.12459708 0.008316718 -0.09449708 -0.11103178 -0.036270875 -0.07187416 -0.031955242 -0.06286505
0.1386785 -0.024167264 0.03332606 0.039428525 0.010929279 -0.0040911064 -0.046168752 -0.07098364
-0.009103875 0.094659865 -0.0025715209 0.355783 -0.1848164 -0.0034730872 0.02980611 0.09577616
0.17764848 -0.06937405 -0.13777067 0.06692713 0.034575474 0.001910188 0.06924808 -0.057805646
0.0623637 0.19384427 -0.013783673 0.17708707 -0.13946007 0.0012772315 0.25352252 -0.1455733
0.018130353 -0.109279394 0.13290572 -0.07471638 0.17612062 0.104136735 0.0054233563 0.16324933
0.1600099 -0.11720191 0.09101172 0.020298706 0.11585607 -0.28619894 0.12087514 0.15070812
0.03847435 -0.30812085 0.14058995 -0.16997568 -0.022446714 0.032824732 -0.04807265 0.20363349
0.07347387 -0.096105136 0.16220939 0.20880394 -0.0674712 0.16812788 0.19704673 0.19640756
0.13512233 0.17597657 -0.23278911 -0.16622068 0.058749918 -0.014191372 -0.028731206 0.0492086
-0.24352285 0.037013385 0.030042069 -0.21464437 0.3258035 -0.08494179 0.003840098 0.01762623

conv_layers.1.bias f4 [64]
00000000: 98c8 c43d 7505 f5bd a11c 56bd 4591 a7bc
00000010: d550 b1bd 3547 69bd e898 88bd b02b 6e3d
00000020: 3141 13bc 8e8f 3dbc c049 8cbc 5de7 8a3d
00000030: 2d4e 663d eeb6 57bd 3fdb 81ba 039a 5ebc
00000040: c431 b33c efc0 c1bd 3cd6 853d 5296 c4bc
00000050: ecce 4ebd 2035 d43c e0f5 0abc 1abf 30bd
00000060: b9c8 fc3d a550 f9bc 118d 983d b871 4bbd
00000070: 6318 f73d 8b06 f0bc f906 a43c 08f8 6abd
00000080: e810 ccbd 8e04 b7bd 6f22 47bd 5755 bebd
00000090: 8420 82bd 0263 633d 297d a93c 6e87 c1bd
000000a0: fe4c cabc 12a2 74bc 7d8a e43c 20a2 4dbc
000000b0: aa16 efbb 1073 a4bd eb6c 093e aaf1 06bd
000000c0: e726 803d 642f 3b3d 281d 83bd a1f5 89bd
000000d0: a909 57bd b3f7 adbd 4640 98bd 0c48 28bd
000000e0: 2e36 ffbd b1ac c53c b116 623d 1e9b 63bd
000000f0: 3ac3 093d cc17 173c 5f65 dcbd 62b1 b7bc
0.09608573 -0.119639315 -0.052273396 -0.020455012 -0.086579956 -0.056952674 -0.066697896 0.058147132
-0.008987711 -0.011569871 -0.01712501 0.0678241 0.056226898 -0.05266469 -0.0009907259 -0.013586524
0.021874316 -0.09460627 0.065350026 -0.02399746 -0.050490305 0.025904238 -0.008481473 -0.043151
0.12342972 -0.030433962 0.07448781 -0.049668998 0.12065198 -0.029299995 0.020022856 -0.057365447
-0.09964162 -0.089364156 -0.048616823 -0.09293621 -0.06353858 0.055514343 0.020689564 -0.09449659
-0.024694916 -0.014931219 0.027898068 -0.012550861 -0.007296403 -0.08029759 0.13420455 -0.032945313
0.0625742 0.045699492 -0.064020455 -0.06736303 -0.052499447 -0.084945105 -0.07434134 -0.041084334
-0.12461506 0.024130197 0.05519742 -0.055567853 0.03363345 0.009221982 -0.107615225 -0.02242345

conv_layers.2.weight f4 [2, 64, 64]
00000000: 6314 bd3d e762 f73d 0066 773d a370 2dbd
00000010: a44f d23d e102 99bd 0fb1 fe3d ec2d 983d
00000020: 7212 26be 4f5d 61bc 049b 2dbd abf3 25be
00000030: 28c3 ffbb 0089 4b3b c709 0e3d 4c72 293e
00000040: aa09 ae3c 2a24 f1bd 0282 d5bc e0de eabd
00000050: 4779 a03d 3333 e9bd 3bb6 8b3d 6c2c 5cbc
00000060: f79b ab3c 5135 4bbd cacb d6bd a247 ad3d
00000070: 4adc 0bbd b965 57bc e26a d63d 37e7 2f3d
00000080: f211 ea3d b2cf 97bd aadb 933d 4a48 94bd
00000090: b7e2 43be e77d 2abd 3069 a93d 7e9a 593d
000000a0: 2a05 0abe 0ece 73bb f7b0 1ebd 455e 123d
000000b0: 146b 0abe 4718 22be 4fd9 84be 771e f53c
000000c0: 5934 083e 4038 133e d333 4abc 2355 213e
000000d0: 59cf 1ebe bce3 95bd c831 823c ccae 8d3d
000000e0: 3bf3 603e 6301 74bc 98a3 84be 1537 a93c
000000f0: 702d 33bd 8ac7 8bbc 9753 003d 9319 0d3d
00000100: 2b2c 09bd 4dc2 dfbc 25f2 1cbe be29 f73c
00000110: f0c1 923c 3fbd 25be 557f a8bc 9638 92bd
00000120: 81fa 2e3d 1e74 ab3c c0e8 c43d 7cce dc3d
00000130: 4e92 dfbd b243 353d ff51 e2bc 0d69 1abd
00000140: 508e 4b3c c78c 883d 4df5 533d b792 d93c
00000150: 47e8 473d 6405 783e fce2 403c 76ef 94bd
00000160: a97b 983d b979 193d 0104 23bc 1426 bbbd
00000170: 199a 933e 7fa9 533c 7d39 893d 08a6 8f3e
00000180: 5494 793a cce6 79bd 0adf 5dbb 1f32 5cbd
00000190: b169 843d 212f 38bd c0c6 9d3d bdb7 04bd
000001a0: e442 a93d 4265 873d 6c97 43bd 9ec2 05be
000001b0: 68b7 5a3d 3f0e a13c 9ec4 153c 5ea7 883d
000001c0: b206 f43c 4127 c7bc 019a 0cbd 6143 93bd
000001d0: b936 41bd f7d4 043d ecb6 48bd 91c9 40bd
000001e0: e799 f0bd 6da7 03bb 66c0 313e 2b3c 09bc
000001f0: e877 54ba 3714 99bc 1a4d b6bc 571f 803c
00000200: e99c 83bd 6233 06be f70c 36bd 7967 a73c
00000210: 993d a0bd 3611 82be 7e0c 81bd 5270 d3bd
00000220: cba0 103e e5a2 cb3c df13 b0bd 2c89 323e
00000230: f1c2 a0bd c887 6dbd d633 49b9 485a ce3c
00000240: 69f5 ca3d 2865 a2bc e002 3b3d bf88 0b3d
00000250: 060b 86bd acf0 653d f0a6 293c c1f7 a9bc
00000260: 3d44 38bd 8c26 30bd 0518 ca3c 9390 0cbe
00000270: 7dc5 87bd 61f0 8b3d c348 e1bc 4200 b0bc
00000280: dc76 b63b 7b0f a23d 2acb 77bd 5e28 edbc
00000290: 5693 c63d ff4c 5d3d bf4f e6bd 0921 e6bd
000002a0: bb87 b5bc d50a b0bc ea2a c63d 5bb6 453c
000002b0: d2d9 89bd 38f8 da3c d758 feba 529c a43d
000002c0: da61 27bd 6aa9 fabc 7f3b dfbc 9923 edbc
000002d0: d4a2 333d 5a9e b73c 922e bb3d 5dd4 0bbe
000002e0: c8c5 14be 041e 20be becd eb3d 9617 45be
000002f0: 7b62 bd3d 16ce 033c 5492 05be 5e0c fabc
00000300: 52f8 06bd 3640 30bd b259 ee3d 6444 bdbd
00000310: dd20 813c cbf7 88bd 7a97 fa3c 92f9 b4bd
00000320: 1c98 8abd d754 48bd 8a8e 80bd beed f4bc
00000330: 3292 0e3c af4c 973d bae4 65bd 0f32 f93c
00000340: 2b0c 81bd 03b7 fb3d c22f a5bd fa57 89bd
00000350: 2131 843c bfd7 3dbc a136 e4bd 56ca ca3d
00000360: 20c6 ec3d cbf0 c53b 55ea a0bd e52d aabb
00000370: 19e3 57bd 5ea4 fcba d558 153d 3e89 bb3c
00000380: 639d 1fbd 3916 333a d012 92bd 0b11 9fbd
00000390: aee8 aabd bff2 aabd d3a6 24bc ec2f 52bc
000003a0: 1518 e9bb 134b 87bd afa3 a13c d088 433d
000003b0: 810e ad3c 6e5e d7bd 0013 75bc 6cb1 31b9
000003c0: 6118 1b3d 86b4 c93d 200a 083d faa2 d23d
000003d0: 3d5d 4d3d 432d 6c3d 52ff 02be 2652 2f3d
000003e0: 21a3 cdbc d487 d63d bc5c b93b ebad 75bd
000003f0: 75be 4e3c 1976 183c 0987 db3c 0974 7a3d
0.09232404 0.12079411 0.06040001 -0.042343747 0.102690965 -0.07471252 0.12436115 0.07430634
-0.16217974 -0.013755157 -0.042384163 -0.16206233 -0.007805247 0.0031057 0.034677293 0.16547507
0.021244843 -0.11774476 -0.02606297 -0.11468291 0.07835632 -0.113867186 0.06821867 -0.013438325
0.020948393 -0.049611393 -0.104880884 0.084609285 -0.03414563 -0.013146811 0.10469605 0.042945113
0.11429204 -0.074126616 0.07219632 -0.072403505 -0.19129454 -0.041623976 0.08272016 0.05312585
-0.13478532 -0.0037201676 -0.038742986 0.035734434 -0.1351741 -0.15829574 -0.25947043 0.029921753
0.13301219 0.14376926 -0.012341457 0.15755133 -0.15508784 -0.073188275 0.015892878 0.069181055
0.21967785 -0.014892909 -0.25906062 0.020656148 -0.043744504 -0.017062921 0.031329717 0.034448218
-0.033489387 -0.02731433 -0.15326746 0.030171271 0.017914742 -0.16185473 -0.02056853 -0.07139699
0.042719368 0.020929392 0.09614706 0.10781571 -0.10916577 0.044254012 -0.02762699 -0.03769784
0.012424067 0.06667476 0.05174761 0.026559217 0.0488055 0.24220806 0.011772867 -0.07272236
0.07445461 0.0374696 -0.009949685 -0.09138122 0.28828505 0.012918829 0.06700418 0.2805636
0.0009520699 -0.06101112 -0.0033854865 -0.053758737 0.064654715 -0.04496682 0.07703924 -0.03240179
0.082647115 0.0661111 -0.04775183 -0.13062522 0.053397566 0.019660113 0.0091411155 0.06672548
0.029788349 -0.02431071 -0.034326557 -0.07190586 -0.04717133 0.03242966 -0.049002573 -0.04706723
-0.117481045 -0.0020088807 0.1735855 -0.008376162 -0.00081050256 -0.018686397 -0.022253562 0.015639944
-0.064264126 -0.13105538 -0.044445958 0.020435082 -0.07824249 -0.25403756 -0.06301211 -0.10324158
0.14123838 0.024857948 -0.0859754 0.1743514 -0.07849682 -0.05799082 -0.00019188164 0.025189534
0.099100895 -0.019823626 0.04565704 0.034065958 -0.06545071 0.056137726 0.010354742 -0.020748021
-0.044986952 -0.04300551 0.024669657 -0.13727026 -0.06629465 0.06832958 -0.027500516 -0.021484498
0.0055683684 0.07913109 -0.060496487 -0.028949913 0.09696071 0.054028507 -0.11245679 -0.1123677
-0.022159448 -0.02148954 0.09676154 0.012067403 -0.06730999 0.026729688 -0.0019405138 0.08037628
-0.040864803 -0.030598361 -0.02725005 -0.028947638 0.043856457 0.022414375 0.09139742 -0.13655229
-0.14528573 -0.1563645 0.115138516 -0.19247279 0.09247299 0.00804474 -0.13044101 -0.030523475
-0.03295166 -0.043029986 0.11638202 -0.0924156 0.01576274 -0.06687888 0.030589808 -0.08836664
-0.06767294 -0.048909035 -0.06277187 -0.02989852 0.008701848 0.07387673 -0.056126334 0.030419378
-0.06301149 0.12290766 -0.0806575 -0.06706233 0.016136708 -0.011587082 -0.11143232 0.09901874
0.11561227 0.0060406676 -0.07857195 -0.0051934593 -0.05270681 -0.001927506 0.03646167 0.02289259
-0.038968455 0.00068316195 -0.071324944 -0.077669226 -0.083451614 -0.083470814 -0.01004954 -0.012828808
-0.0071134665 -0.06606116 0.01973137 0.047737896 0.02112508 -0.10516058 -0.014958143 -0.0001694613
0.037865046 0.09848885 0.03321278 0.102849916 0.050137747 0.057660352 -0.1279271 0.042802952
-0.0251022 0.10475126 0.0056568068 -0.059980314 0.012618651 0.0093055 0.026797788 0.061145816

conv_layers.2.bias f4 [64]
00000000: 5ec5 0ebd 559b de3c d660 8cbd 4d74 87bd
00000010: 0ff0 afbc 65b2 ba3b acd8 b0bb dfde 173e
00000020: 95e1 723c 9e07 6bba ad70 10be 0848 e5bc
00000030: 1d36 c0bc f9ea 0ebe dd66 ac3d e30b a33d
00000040: e05c a1ba ed1c 7a38 c876 ba3b c1e8 fdbd
00000050: 6a40 79ba 9020 32be 08bf 1abd c620 bfbd
00000060: adf7 16bc b067 f63c 8011 023d d67e 74bc
00000070: adab 17be 3665 cfbd feab a33d 4526 223d
00000080: b638 f03d 1017 8a3c be10 ef3c d621 413d
00000090: e533 073c bfe7 82ba 2552 233d e200 043e
000000a0: bbec cdbd 8281 473d 1fa4 d2bc 81cd 34bc
000000b0: e000 5fbd 6c2d 3abb 8559 e53d 4883 203b
000000c0: a712 973d b922 a23d ed09 873d 1f3b f03b
000000d0: b7ec 08be 8404 edbd cd5d 463d 84c2 58bd
000000e0: db57 263e 45c5 153d 4518 873d fbe8 3bbd
000000f0: 49b2 20bd fd64 d8bc b263 d5bd e4b2 5bbd
-0.034856193 0.027173677 -0.068544075 -0.066139795 -0.021476774 0.005697536 -0.005396923 0.14831112
0.014824291 -0.00089656736 -0.14105482 -0.027988449 -0.023463303 -0.13956822 0.08418057 0.079612516
-0.0012311004 5.9631584e-05 0.0056904294 -0.1239791 -0.00095081946 -0.17395234 -0.037779838 -0.09332423
-0.009214324 0.030078739 0.03175497 -0.014922818 -0.14811583 -0.10126726 0.07991789 0.039587278
0.11729567 0.0168567 0.029182788 0.04715141 0.008252119 -0.0009987279 0.03987326 0.12890962
-0.100549184 0.048707493 -0.025713025 -0.011035324 -0.054444194 -0.0028408421 0.11198715 0.0024492312
0.073766045 0.07916779 0.0659369 0.0073312665 -0.1337155 -0.11573127 0.0484293 -0.05291988
0.16244452 0.036565084 0.06596426 -0.045876484 -0.039232526 -0.026415342 -0.10419406 -0.0536374
