experiments/02_tune_models/selected_trained_models/chebnet_rank/model_state_dict.pt (torch_old, 185878 bytes, 17 tensors)

mlp_layers.0.weight f4 [64, 64]
000000 33 ab 2a 3e d3 74 c8 3d 74 d1 0f 3d 76 01 04 be
       0.1666687 0.097879075 0.03511186 -0.12891182
000010 67 6e 1b 3e c9 92 1b be 9e b8 29 3b 29 d4 41 be
       0.15178834 -0.15192713 0.0025897394 -0.18928589
000020 0d a3 33 3d f5 c0 d2 3d f4 28 0a be 09 ae 00 3d
       0.04385667 0.1029071 -0.13492185 0.031415973
000030 99 f0 8a 3c cc 19 0c 3d 37 29 b9 3d f6 4d cc 3b
       0.016960429 0.03420429 0.09041064 0.0062348796
000040 96 18 c2 bb 84 df 14 bc 50 46 03 3c fa 5e 25 3e
       -0.005923341 -0.009086493 0.008012369 0.16149512
000050 68 95 50 3e 5b e9 4d bd 47 6c 91 bd 52 00 a3 3d
       0.20369494 -0.050271373 -0.071007304 0.079590455
000060 73 8c 27 3e 0a 96 e7 3d 08 89 da ba a6 6f ad bc
       0.16362171 0.113079146 -0.0016672919 -0.021171402
000070 bf 44 69 3d 8d 6f 2d be 2a fe 7f 3d 04 7f 4d 3b
       0.056950327 -0.16937084 0.06249825 0.0031356225
000080 d2 be 9e 3d d9 9a ff 3d ab d2 2b 3d 86 64 44 3d
       0.0775124 0.12480707 0.041948956 0.04794743
000090 7d 2f e2 37 80 9e c6 3b 10 87 59 bd 9a 9b 48 bc
       2.6963413e-05 0.006061375 -0.05310732 -0.01224413
0000a0 49 fb 01 3e fd db 56 3d f7 ef 4d 3e 6d 72 55 3e
       0.12693514 0.05245589 0.2011107 0.20844431
0000b0 d1 08 cb 3a 09 ca 45 3e 12 f0 77 bc ec 4f 26 be
       0.0015490298 0.19315352 -0.015132921 -0.16241425
0000c0 c1 1f ad bd 2c e5 50 bd 05 60 a7 3d f1 13 01 ba
       -0.08453322 -0.050999805 0.08172611 -0.0004923931
0000d0 5b b1 22 bb 73 b6 1b 3e 25 09 eb 3d 88 9c f8 bc
       -0.002482495 0.15206318 0.114763536 -0.030348077
0000e0 e5 b8 79 3d 55 bc 68 3b da 22 73 3d 46 0c 0f be
       0.060967345 0.0035512645 0.05935941 -0.13969526
0000f0 ec 0d 17 3d 47 3d f5 bd 1f 3c 84 3c fa 39 18 be
       0.03687851 -0.11974578 0.01614195 -0.14865866
000100 62 03 1c 3e 03 6b b2 bd ab e8 5d 3e 65 2b 2b bc
       0.15235665 -0.08711817 0.21670787 -0.010447358
000110 75 88 33 3e 39 84 4e bd ec 97 3f be c6 6a 74 3e
       0.17532523 -0.050419066 -0.18710297 0.23868856
000120 5b e2 01 be 35 4c 22 bc a7 77 0a bd dc 7b d0 3d
       -0.12684004 -0.0099058645 -0.033805516 0.10179874
000130 53 3c 0f 3e 08 4a 27 3e b7 7f 5f bd e8 63 3a 3e
       0.13987856 0.16336834 -0.054565158 0.18202174
000140 22 6a 47 3e a4 61 98 3c cd d4 3b be d5 8e e8 bc
       0.1947408 0.018601246 -0.18342896 -0.02838842
000150 b7 20 43 3e ae 6a 86 bd 39 66 76 3e 34 9b 9f 3d
       0.19055448 -0.06563316 0.24062432 0.077932745
000160 64 0c 09 3e 11 86 e4 bd ea 89 36 be be 74 35 be
       0.13383633 -0.11158384 -0.17826048 -0.17720315
000170 47 33 38 bc 3c 59 5e 3d 19 01 67 bd 2e c4 ea bb
       -0.011242694 0.05428432 -0.05639753 -0.0071644997
000180 b3 6d 37 be dc 66 28 3e 07 57 b3 bd e9 f4 80 3e
       -0.1791294 0.16445488 -0.087568335 0.25186852
000190 d8 cb 3d 3e 6d e4 40 bd a7 e3 9b 3c 5f dc a5 bc
       0.18534791 -0.047092844 0.019029452 -0.020246683
0001a0 dd 66 86 b9 80 3b 34 3b 3a 2a 39 3e 34 24 75 bc
       -0.0002563511 0.0027501285 0.18082514 -0.014962245
0001b0 03 34 77 bb b9 31 2d 3e c7 f1 91 3e 5a 4e f6 bd
       -0.003772021 0.16913499 0.28504774 -0.12026663
0001c0 d7 58 20 3e 10 56 8e bc ee 90 bc 3b 9a c6 44 3e
       0.1565889 -0.017375022 0.0057545817 0.19216385
0001d0 a6 6b 75 bc 14 5a a7 3d 27 09 66 bc 9b 43 bd 3b
       -0.014979279 0.08171478 -0.014040268 0.0057758815
0001e0 15 e8 13 3e 6c 25 14 3d 74 e4 43 3e c5 85 ac bd
       0.14444001 0.0361685 0.19130117 -0.08423952
0001f0 31 c8 3b 3e 6a 05 99 bd bf 85 2f bd be a9 94 bd
       0.18338086 -0.07471736 -0.04285216 -0.07258938
000200 54 67 c3 bb 3a ef b1 bd f8 e1 1c 3d f5 96 0d 3c
       -0.0059632454 -0.08688207 0.038301438 0.008641948
000210 8b c6 e8 3d ff 59 f5 3c ed cb d8 bd 65 79 ce 3c
       0.11365994 0.02995014 -0.10585771 0.02520437
000220 0b 24 dd 3c 98 06 ed 3b 0f 7e 1f be 83 a2 0a 3d
       0.026994726 0.007233452 -0.15575431 0.03384639
000230 03 b7 a4 bc cd 40 19 3d e5 c9 1e bc 3f 1e 01 be
       -0.020106798 0.037415314 -0.00969169 -0.12609194
000240 ce 5c 44 be 45 b6 22 bd f5 a0 0d be 6f 55 78 3d
       -0.19176027 -0.039724607 -0.13830931 0.06062835
000250 43 e0 f5 bc de ed b0 bd bd bc b6 3d 37 40 06 bd
       -0.030014163 -0.086391196 0.08922718 -0.032776084
000260 4f 5b 70 bb 4c 7a 5b bd 96 c1 c6 3c fa 12 9d bc
       -0.0036675518 -0.05358343 0.02426223 -0.019174088
000270 53 0b ba 3d 3c 56 34 3d 4e a8 83 3d 15 85 50 bd
       0.09084191 0.044027552 0.06428586 -0.050908167
000280 f4 a2 02 3e f1 63 ed 3d 1f b6 bd bd d5 5b fc 3c
       0.12757474 0.11591328 -0.092632525 0.030805508
000290 3f f9 41 3d 3b 40 18 3c d3 bc b1 3c 39 40 f8 3d
       0.04735684 0.0092926575 0.021696484 0.121216245
0002a0 8b c4 59 3d 2f 73 31 be cf f2 26 3e 7b aa a3 3d
       0.053165954 -0.17329095 0.16303562 0.07991501
0002b0 b7 2a 26 3d 67 2c bc 3d eb de f6 3c ec 0d df bd
       0.04056808 0.091881566 0.030135592 -0.10891327
0002c0 48 dd 09 3e 2f 09 c8 3d 33 67 bd bd 50 c6 c8 bd
       0.13463318 0.09767377 -0.09248199 -0.0980345
0002d0 11 4f 0d be 0d 67 c7 bc 88 4c f5 bd f0 d8 12 3e
       -0.13799693 -0.02434113 -0.11977488 0.14340568
0002e0 85 b8 fb 3d 40 d1 f5 bd a3 f3 aa bd cc 72 2f bd
       0.12291054 -0.12002802 -0.08347251 -0.04283409
0002f0 38 7e 9e bd c8 35 3a be 22 32 1d 3d 3c 8d 60 bd
       -0.07738918 -0.18184578 0.03837789 -0.05482219
000300 e1 8d 0c 3e 15 ab 18 bd 7f 17 34 3e 73 38 07 3d
       0.13725998 -0.03727253 0.17587088 0.03301282
000310 c4 a3 0a be db fd f2 bd 2b 4e c7 bd 4e 84 bd 3d
       -0.13539034 -0.11864825 -0.09731706 0.09253751
000320 0e d0 b6 bd 3b a9 9c bb 61 21 19 bd 2f d0 32 3e
       -0.08926402 -0.004780916 -0.03738535 0.17462228
000330 29 90 e3 3d 44 46 77 3d 87 33 36 be f4 8b 0e be
       0.11111481 0.060369745 -0.17793094 -0.13920575
000340 bc fb 50 3d d4 3c 9c 3d 21 25 f1 3d 8c 20 04 3c
       0.051021323 0.076287895 0.1177466 0.0080644
000350 8e 8a 1c 3e 75 b6 41 3e bd d6 9b bc 65 59 84 bb
       0.1528723 0.18917258 -0.019023294 -0.004038977
000360 4e d1 bf bc 72 7c 14 3e 73 d5 ad bd f4 e9 01 be
       -0.023415234 0.14500597 -0.08487978 -0.12686902
000370 58 a8 5a 3e 70 6e ad bd 3d 6d 84 bd 2a 29 73 3a
       0.2135328 -0.0846833 -0.06466148 0.0009275848
000380 d7 64 3c 3e b4 5b b8 3c 39 46 3a be 37 99 a2 bc
       0.18397842 0.022504665 -0.1819085 -0.01984845
000390 3b 3b 21 bc 01 ac f9 bd e4 c8 eb bc c3 8d ac bd
       -0.009840782 -0.1219101 -0.028782316 -0.084254764
0003a0 7c 4f 9f 3d 93 ca a4 bd 6c 20 8e 3d d5 02 3d 3e
       0.07778832 -0.080464505 0.06939778 0.18458112
0003b0 f1 38 b2 bd cf c1 c9 bc 07 41 e5 bc cb e7 9f bd
       -0.08702267 -0.024628548 -0.027985109 -0.07807883
0003c0 72 43 9d bd d5 3f be bc 69 cd f0 3d 7c 57 e8 bd
       -0.0767888 -0.023223797 0.11757929 -0.11344811
0003d0 5d 06 69 3d 8b 15 2f 3e 9a b9 77 bd b1 7a b2 3d
       0.056890834 0.17098062 -0.060479738 0.08714808
0003e0 66 c1 25 bd 25 6b 86 3c 3d 8f 75 bd 10 d5 5e 3c
       -0.040467642 0.016408512 -0.059951056 0.013600603
0003f0 4b 45 21 3e 4c 9c 85 3e 5c 73 e4 bd 82 d0 50 3d
       0.1574909 0.26095808 -0.111548156 0.0509801

mlp_layers.0.bias f4 [64]
000000 be a6 95 3d df 37 09 be 1d 22 5f 3d 2e 52 4c be
       0.07307194 -0.1340022 0.054475892 -0.19953224
000010 cf 6d 57 3c 1f 98 83 bd 9d bd ba 3d 8c 97 0f 3d
       0.013148739 -0.06425499 0.09118197 0.035056636
000020 ee 54 9f 3d 15 21 84 bb 16 f9 22 be b7 2c 14 bd
       0.07779871 -0.004032264 -0.15915331 -0.036175456
000030 62 17 fb 3d 66 0e 7f 3d c1 15 0c bd d8 87 ba bc
       0.12260319 0.06226959 -0.034200434 -0.022769853
000040 f5 71 11 be 0a 21 e1 3d 19 6d 9f 3d dd 47 23 bc
       -0.14203627 0.1099263 0.077844806 -0.009965864
000050 63 9a 96 bc 25 55 4b be b2 9b f4 3d df 8c 50 bd
       -0.018384164 -0.19856699 0.11943759 -0.050915595
000060 c5 d9 ae 3d b3 61 88 bd 60 2f 07 3e 2e 50 03 bc
       0.0853763 -0.0665926 0.13201666 -0.008014722
000070 a3 cb c3 bb 9f 08 39 3e 3b 40 07 3d ef d3 16 3e
       -0.005975203 0.18069695 0.03302024 0.14729284
000080 c0 ee a9 3c 6e 7c be 3d ac b9 31 3e 28 21 e7 bd
       0.020743728 0.09301077 0.17355984 -0.11285621
000090 b9 bc 20 3e f4 82 55 bd 45 6e 6e be ed bc c3 3d
       0.15696992 -0.05212684 -0.23284252 0.09557519
0000a0 6b 30 af bc d0 6b dc bd 2f 7a 1b 3e a8 28 36 ba
       -0.021385392 -0.10762751 0.15183328 -0.0006948807
0000b0 94 75 be bb d8 12 55 bd db 30 b2 3d a7 8f 33 3e
       -0.0058123562 -0.052019924 0.08700725 0.17535268
0000c0 6e 65 55 3d 5f 54 9e bd 7b 08 9d 3d a6 1d 17 3e
       0.052098684 -0.07730936 0.07667633 0.14757404
0000d0 69 cb 14 be d5 c4 cc bd 93 d6 61 3e da 6f 09 bd
       -0.1453072 -0.0999848 0.2205451 -0.033553936
0000e0 af 76 0a 3e 02 3b c9 3d a5 0e bd bb a6 7c 8b bd
       0.13521837 0.09825708 -0.005769568 -0.06810884
0000f0 df ca 02 3e 54 c5 bc 3d 3b 1b f6 bc 22 8d ad bd
       0.12772702 0.09217325 -0.030042281 -0.084741846

mlp_layers.1.weight f4 [64, 64]
000000 28 1e 52 bd 83 96 83 bd 41 83 b8 3d da c3 a1 bc
       -0.05129829 -0.06425192 0.0900941 -0.01974671
000010 48 ee 2b bc 69 47 f6 3c 90 9d e3 3d e3 7f 9c bd
       -0.010493822 0.030063348 0.11114037 -0.0764158
000020 ca b3 4a 3d 55 9f 83 3d 9a ed 2c bd 07 bb 83 bc
       0.049487866 0.064268745 -0.042218782 -0.016080393
000030 48 41 e2 ba d4 8d 34 be 25 cc 80 3c c0 42 e4 bd
       -0.0017261887 -0.17632228 0.015722344 -0.11145544
000040 13 0e a1 3d 3d fa 00 3e 9f 0b a6 ba 69 f9 20 3d
       0.078640126 0.12595458 -0.0012668258 0.039300356
000050 84 da 02 be 14 25 42 3d 0c bd 85 3b 76 73 14 be
       -0.1277867 0.04739864 0.004081374 -0.1449717
000060 65 ea f2 3d 20 d6 22 bd 3e 12 71 3c 84 97 84 3d
       0.118611135 -0.039754987 0.014713822 0.06474212
000070 2c 24 8b b9 54 5b be 3d 65 9a 5e 3d a6 26 74 bd
       -0.00026539096 0.09294763 0.05434646 -0.05960717
000080 20 70 c7 bd 44 29 c0 3d 85 65 cf bc cd bc 23 3e
       -0.09738183 0.09382871 -0.025316963 0.1598999
000090 c5 25 c1 bc b9 30 aa bd 16 5e 25 3d c5 a9 6d 3a
       -0.02357758 -0.08310074 0.04037293 0.000906613
0000a0 15 61 a6 3d 7d 9b ba 3c fa d2 6e bd c8 f7 19 bd
       0.08123986 0.02277922 -0.05830667 -0.03758982
0000b0 75 5d b0 bc b7 82 d1 3c 19 4e 90 3d 8d 71 1c 3e
       -0.021528939 0.025575025 0.07046146 0.15277691
0000c0 4a fd 0a 3d d3 ce 35 3c e6 d0 f9 3c 62 04 8a 3c
       0.03393296 0.011096674 0.030495118 0.016847793
0000d0 69 70 8b bc 66 93 0e be ad fe 29 3d 2c 86 cb bd
       -0.017021375 -0.13923416 0.041502643 -0.09937701
0000e0 17 3d b6 3d 17 73 ae bd 6a f1 e9 3c 9f ae 93 3d
       0.08898371 -0.085180454 0.028557498 0.07211041
0000f0 60 5c 3c 3d de d7 1b 3b ae bc c0 3d d2 e2 e3 3d
       0.045986533 0.002377979 0.09410988 0.11127247
000100 05 6d 1d be 57 d8 27 3c 11 81 8a bd 22 c7 5b bd
       -0.15373619 0.0102444505 -0.06762899 -0.053656705
000110 d8 99 d9 3d f3 51 05 3d 17 4e 2c bc 61 17 ae bc
       0.106250465 0.032548856 -0.010516665 -0.021251382
000120 a5 20 ed bd 55 e2 f5 bc 7b 0f 74 bd bd c5 70 bd
       -0.11578492 -0.03001515 -0.059585076 -0.058782328
000130 7c 8d e4 bd 70 a0 3c 3d 39 e3 98 bd a9 34 0a be
       -0.111597985 0.046051443 -0.07465214 -0.13496651
000140 db 00 9c 3d 6c c7 34 be ac de 21 3d 32 26 a1 3d
       0.07617351 -0.17654198 0.039518997 0.07868613
000150 f8 eb 6b 3d 56 c2 c2 3c bf a4 c6 bd 7f d3 9f 3c
       0.057598084 0.023774307 -0.096993916 0.019510029
000160 53 a6 4c bd ef 18 be bc 08 09 19 bd 66 91 ef bd
       -0.049963307 -0.023205249 -0.03736213 -0.116976544
000170 9c f0 8b bd 74 39 ff bd 34 44 04 be 9f 34 bc bd
       -0.06833002 -0.1246213 -0.12916642 -0.09189724
000180 84 93 eb 3c c7 fa 61 3d a0 a3 b5 bd 77 a1 37 3e
       0.028756864 0.0551708 -0.088690996 0.17932688
000190 9e 16 f8 bd 3b e2 4a 3d b5 44 b4 3c ed 45 bc bc
       -0.12113689 0.049532156 0.022005418 -0.022982562
0001a0 f8 7d 9a 3d 66 8a a0 bd 2b 89 b0 bd e5 fa 27 bc
       0.07543558 -0.078388974 -0.08619913 -0.010252689
0001b0 ae ec ab 3d c1 be 02 be 8b 88 9c bc 24 e5 58 bc
       0.083947524 -0.1276808 -0.019108078 -0.013238225
0001c0 5f 43 83 bc 18 56 17 3d b8 09 ba bd 4d de 6e 3c
       -0.016023336 0.03694734 -0.09083885 0.014579368
0001d0 18 91 b6 bb 3c e8 dc bd fd 70 f1 3d 8f 21 5f be
       -0.0055714957 -0.10786483 0.11789129 -0.21790145
0001e0 25 ea d7 3c 83 f4 06 bd 45 62 ae 3c a3 7c 72 bc
       0.026356766 -0.03294803 0.021287093 -0.0148002235
0001f0 c8 2e 49 be d0 ac 3b 3e 93 c5 df bd dd 86 c2 bd
       -0.19646752 0.18327641 -0.10926356 -0.094983794
000200 c7 dc 4a 3d 5e 38 14 be f6 d2 07 3c 01 0e d1 bd
       0.049526956 -0.14474627 0.008290043 -0.10207749
000210 a3 59 00 be e2 60 f3 bc af bf b4 bd c9 47 24 be
       -0.12534194 -0.029709283 -0.08825623 -0.16043009
000220 0d 81 36 3e 5e 19 4f 3e b2 33 4e 3d 17 e0 bc 3c
       0.17822666 0.2022452 0.05034227 0.023056073
000230 a2 60 c0 bd 64 32 22 3e ae db 92 bd 52 6f e3 3c
       -0.09393431 0.15839535 -0.07170807 0.027763043
000240 2e 5c 5d bd 1d 7c bf bd 4b 5d 68 3d a3 2b 8a bc
       -0.054042988 -0.093498446 0.056729596 -0.01686651
000250 8e e8 12 be 4b 74 d2 3d 41 4c ad bd 1d 52 e8 3d
       -0.14346525 0.102760874 -0.0846181 0.11343787
000260 50 29 0a 3e 7d 5d 23 be 21 db d6 3c 56 46 25 3d
       0.13492322 -0.15953632 0.026227536 0.04035028
000270 a9 0b 77 bd 66 76 7c 3d 3c 68 e6 bd 15 0b 0e be
       -0.060313854 0.06163635 -0.1125035 -0.13871415
000280 e9 5b ca bd aa 12 d8 bd 57 0c 79 bd 98 2d 32 bd
       -0.09880812 -0.10550435 -0.060802784 -0.043500513
000290 49 ed a6 bc b0 ec 9a 3d 0b c5 0f 3d 5a fd 98 bd
       -0.020376818 0.07564676 0.035100024 -0.07470198
0002a0 77 34 3d 3d 75 a4 75 3d 8e 50 2c be c4 63 66 bd
       0.046192612 0.05997129 -0.16827604 -0.056247488
0002b0 f2 05 8d 3d df d3 9f bd 19 8b ae 3d e9 69 3e bc
       0.068858996 -0.07804083 0.085226245 -0.011621931
0002c0 43 d4 39 bd 8c c7 73 bc 5b c6 88 bd f0 9b 1a be
       -0.045368444 -0.014879119 -0.06678458 -0.15098548
0002d0 73 45 4f 3d 95 ac 38 be 94 05 57 3e 6a bc dd 3d
       0.05060334 -0.18034585 0.20998222 0.10826953
0002e0 50 35 37 3c da 42 0e be d5 d4 32 3c 2b eb 46 bd
       0.011182144 -0.1389269 0.010915001 -0.048564117
0002f0 03 cd 2b 3d 94 25 80 3c c0 77 30 3e 61 ff 9e 3d
       0.04194356 0.015642919 0.17233181 0.077635534
000300 87 e3 de 3d 62 ec 9b 3d 4c 79 d2 3c 97 5a 9d 3d
       0.10883241 0.07613446 0.025692604 0.07683294
000310 7e 1c 51 bd 47 5e 6f 3d c1 ad d1 3d a6 9e a2 3d
       -0.051052563 0.05843952 0.10238219 0.07940416
000320 dd d2 14 3e cb f2 d4 bd ac 3a 94 bd f0 95 52 3e
       0.14533563 -0.103978716 -0.07237753 0.20565009
000330 c8 32 c5 bd 0f c6 19 bd c7 cc 12 3d a9 e1 92 bc
       -0.096288264 -0.0375424 0.035839822 -0.017929869
000340 c1 cd cb 3c eb fc 41 3c 15 35 04 3e 50 cb bd bd
       0.024878385 0.0118400855 0.12910874 -0.092672944
000350 b1 f1 23 be 32 3d a0 3b d8 96 ba 3d 4a c6 2b 3e
       -0.16010167 0.0048901075 0.091108024 0.1677486
000360 80 4d 5d 3d aa 59 48 3d db 11 5e 3d d7 86 4a 3d
       0.054028988 0.048913635 0.054216247 0.049445
000370 d6 1d 8d 3d 36 7c 45 be f1 62 e9 bd 39 1c ae 3d
       0.068904564 -0.19285664 -0.11395825 0.08501477
000380 d0 37 1b bc fa 1c 26 3e d6 cb ce 3d fb d9 ff 3c
       -0.009473756 0.16221991 0.10097472 0.03123187
000390 ad 13 bd ba 1f f6 0f be 81 8c 9a bd 6d 05 05 3c
       -0.001442542 -0.14058731 -0.0754633 0.008118969
0003a0 ef f2 92 bd 56 06 cc 3d 21 8b 4f 3b 3a a8 c7 bd
       -0.07175242 0.09962146 0.003166862 -0.097488835
0003b0 47 8c e1 3d 53 f8 0c be bb 7b b5 bb 63 f2 c9 3d
       0.11013084 -0.13766603 -0.0055384315 0.09860685
0003c0 f4 75 f0 3d 9f 97 01 be a8 aa 44 3d 19 bb c4 bc
       0.11741248 -0.12655495 0.048014313 -0.024014996
0003d0 c8 49 0d 3e 8b 0d bd bd 5e 2f d4 bd 56 63 9a bd
       0.13797677 -0.09231099 -0.10360597 -0.07538478
0003e0 59 8c c9 bc 86 7c 01 be ba 6b 2c 3c 15 ea 80 3c
       -0.024603056 -0.12645158 0.010523731 0.015736619
0003f0 0e 2d 14 3e 86 d9 1f 3d 44 4c ba bb 9e 73 45 3d
       0.14470312 0.039025806 -0.005685361 0.048205964

mlp_layers.1.bias f4 [64]
000000 c4 1f ac 3d f0 3e 06 3d 84 97 92 3d ea da 11 be
       0.08404496 0.032774866 0.071578056 -0.14243665
000010 31 d2 a3 3d 68 0c a7 3a b5 d2 a7 3c 19 dc ff 3d
       0.07999075 0.0012744786 0.020486215 0.12493152
000020 58 f9 96 3d 37 bb 56 bc 9d 07 34 bd f9 d5 f6 bd
       0.07371777 -0.013106159 -0.043952573 -0.12052531
000030 9b 10 b3 3d de d3 28 be 7b 6c 84 3d 9a 52 24 3e
       0.087434016 -0.16487071 0.064660035 0.16047135
000040 0e 40 01 be 9c 50 87 3d 0c 5a 09 3e 36 94 15 3e
       -0.12622091 0.06607172 0.13413256 0.14607319
000050 d8 79 fa 3d b4 01 3a bd c5 af 1d be 3b a9 b4 bd
       0.12230271 -0.04541178 -0.15399082 -0.08821341
000060 17 d8 80 3c 6d 65 a6 bd a7 a8 14 3d 3c 91 ed bd
       0.01572804 -0.08124814 0.036293652 -0.11599967
000070 20 7c 6d bd 2b 6e 37 bd 04 e2 b7 bc 82 83 45 be
       -0.057979703 -0.0447828 -0.02244664 -0.19288447
000080 ca 52 36 bb 71 c7 b3 bd 70 f8 49 3d 3b 93 46 3e
       -0.0027820342 -0.08778275 0.049309194 0.19392101
000090 3d e0 41 3d 90 08 84 be 51 a7 43 3e 33 82 ce 3d
       0.04733299 -0.25787783 0.19106795 0.10083427
0000a0 6d 75 9b bd 0c 55 18 3d c2 07 8e bd 71 2c 31 3e
       -0.075907566 0.037190482 -0.069350734 0.1730211
0000b0 e8 b3 5d bb 06 0c c1 bd 80 2b 26 bd 1b ba 0e be
       -0.0033829156 -0.094261214 -0.04056883 -0.13938181
0000c0 9a 38 f9 bc 50 19 94 3c 16 02 91 bd b9 db 1c bd
       -0.030422498 0.018078476 -0.07080476 -0.03829548
0000d0 7b 2a 53 be 07 32 f8 3d 2e 18 4c 3d 5b fb 88 bd
       -0.20621674 0.12118917 0.049827747 -0.06688567
0000e0 30 51 ef bd c1 d9 2f 3d 7b fe d2 bc 67 84 0a 3e
       -0.11685407 0.042932276 -0.025756111 0.1352707
0000f0 ce 0c b1 3d 9a 7c 4a 3c 06 39 27 3d ef 10 ef bd
       0.086450204 0.012358809 0.040825866 -0.11673152

mlp_layers.2.weight f4 [64, 64]
000000 e6 a1 48 3c b1 82 18 be b8 4b 9d 3d b6 cf 1c 3d
       0.012245631 -0.14893605 0.07680458 0.038284026
000010 9d b1 44 bb 64 35 99 3d 96 3a 84 be 0f a3 47 3b
       -0.0030013092 0.074808866 -0.25825948 0.003046218
000020 05 eb a8 bd 13 68 db 3d 5c 02 ad 3b af c1 87 3b
       -0.082479514 0.1071321 0.0052798223 0.004142962
000030 09 49 8f 3c a3 91 66 3d 21 93 33 3e 6b 11 3d 3e
       0.01749088 0.056291234 0.17536594 0.18463676
000040 35 03 8e bd 72 58 4b bd dd 8c e4 bc 18 e0 e8 3d
       -0.069342054 -0.049644895 -0.0278992 0.113708675
000050 b6 35 e3 3b 9b f2 54 3d 14 3b ae 3c f9 70 0e be
       0.006933893 0.05198918 0.021268405 -0.13910283
000060 e5 a8 0c be 67 0d 54 3b 37 a3 d4 3d df ad 1a 3d
       -0.13736303 0.0032356621 0.10382693 0.037763473
000070 1d 1e ba bd 1d 40 60 3d 4d 2e aa 3d 9a 41 53 bd
       -0.09087775 0.054748643 0.083096124 -0.051576234
000080 6d a9 d8 3d 62 10 0c bc ca d1 c2 3b c6 8a 3e be
       0.105791904 -0.008548828 0.005945419 -0.18607625
000090 b8 c2 09 3e 24 7b 33 3e 3c 8b 3c be cd 85 71 bb
       0.13453186 0.17527443 -0.18412489 -0.0036853433
0000a0 92 f2 6f 3e 94 2f 28 b8 ae 38 7c 3e 4c b0 bb bd
       0.23432377 -4.0098632e-05 0.24630997 -0.09164485
0000b0 d2 a6 01 be 00 3e b8 3d e3 ca 02 be 23 4f d2 3d
       -0.12661293 0.089962006 -0.12772708 0.102690004
0000c0 f9 1f 59 3e 49 16 0a bd 35 d4 2b 3d 01 e6 51 be
       0.21203603 -0.03371266 0.041950423 -0.20497896
0000d0 72 b8 0a bd 5b 2d 17 bc 04 ea 2f 3d e1 3c 03 3d
       -0.033867307 -0.009227122 0.042947784 0.03204048
0000e0 9e 20 f1 3c 96 95 7b 3e 3b 05 54 bc 90 c5 c6 3c
       0.029434498 0.24568781 -0.0129407 0.024264127
0000f0 4e 65 28 3d 47 97 a2 3c 1a 8c c7 bd 6c 46 47 3e
       0.041112237 0.019847525 -0.09743519 0.19460458
000100 66 42 45 bd 44 52 c1 bd 46 1f 1b 3e 27 67 79 3d
       -0.048159026 -0.09439519 0.15148649 0.06088939
000110 b3 9f 0e 3c c5 40 3f 3d 99 68 1a bd 79 dc 0a bb
       0.008705067 0.04669263 -0.03769741 -0.002118854
000120 4e 55 0d 3d 41 0f ab 3d 62 89 27 3e 29 e9 cb 3d
       0.03450518 0.08352519 0.16361001 0.09956581
000130 ed 05 7e 3d 44 15 28 3d ec f4 46 3d 45 c8 f8 bd
       0.06201737 0.041035905 0.04857342 -0.121475734
000140 3c fa f3 3d 08 f2 d3 bd f3 66 87 bd da 41 b6 bc
       0.11912963 -0.10348898 -0.06611433 -0.022248197
000150 ce b2 f6 3c 04 dc ab 3d cf 23 a5 3c 35 36 b5 3d
       0.030114558 0.08391574 0.020158676 0.0884823
000160 5e ee ff bc 64 24 2b bc ed c1 02 3e b7 1d 37 bd
       -0.031241592 -0.010445688 0.1276929 -0.044706073
000170 4b a2 7c 3d 94 5f b0 3d 6a 56 98 bd 3e 58 9f bd
       0.061678212 0.0861198 -0.07438357 -0.07780503
000180 60 c7 69 bc 6f 9d db 3d e7 ac 3a be 73 42 1b 3d
       -0.014268726 0.107233874 -0.1823002 0.037905168
000190 26 06 91 3b c5 8f 3c 3e 7b c4 15 3a 41 e6 80 3c
       0.004425782 0.18414219 0.0005713177 0.015734794
0001a0 db a4 4f 3d 37 19 e1 bd 5b 07 06 be 0c 2d 81 bc
       0.050694328 -0.109911375 -0.13088743 -0.01576855
0001b0 49 f2 15 3c 8b 78 9d 3d 88 0e b9 3d c7 1a f7 3d
       0.009152004 0.07689007 0.09035975 0.12065654
0001c0 bb d0 85 3d e8 76 1c be 10 5e 5c bc 93 86 f5 bd
       0.06533953 -0.15279734 -0.013450161 -0.119885586
0001d0 fb 59 00 3c 78 c8 79 bd 0c b0 90 bd 26 f3 df bd
       0.007833953 -0.060982198 -0.07064828 -0.10935049
0001e0 d3 69 c8 3b 69 df 76 3d 06 7d 78 3c c5 91 41 bc
       0.006116131 0.060271654 0.015166527 -0.011814539
0001f0 f0 c6 93 bd 6c a2 88 3d 73 60 ad 3b c6 87 8b bc
       -0.07215679 0.066716045 0.0052910387 -0.017032515
000200 a6 0b 81 3d d0 cf 44 bd 7e cd 1b 3e 6c 96 f2 bd
       0.0630105 -0.048049748 0.15215108 -0.11845097
000210 61 1b 09 3b 14 2f af bd 9b e7 ec 3c 63 28 42 3d
       0.002092086 -0.08553901 0.028919032 0.047401797
000220 90 43 de bd f3 10 9a 3c e9 d6 9f 3d 6f 2f db 3d
       -0.1085273 0.01880691 0.07804663 0.107024066
000230 0d a3 ff 3c 1f b5 d5 3d 8a 59 41 bd d4 d2 ad bd
       0.031205678 0.10434937 -0.04720453 -0.08487478
000240 b1 f3 fc 3c 68 70 a6 3c 1c 6c 86 3e 4b 88 8b 3d
       0.03087792 0.020317271 0.26254356 0.06813105
000250 00 f4 b7 bd c4 12 bc 3d d4 88 cb 3c 69 79 24 3d
       -0.08982086 0.09183267 0.024845518 0.04015485
000260 d7 f5 69 3d f4 4e a7 3d 2f 96 32 3e ed bf 0a bd
       0.057119217 0.08169356 0.17440103 -0.03387444
000270 a2 bb c2 3d 80 12 43 3d 87 6f cf 3c 5b 99 ce 3c
       0.09508444 0.047625065 0.025321735 0.02521961
000280 6e 83 f0 3c 0e aa b9 bd 05 dc 31 be 7f 4f 14 bd
       0.029359546 -0.090656385 -0.17369087 -0.036208626
000290 25 ae aa 3c be 4c 19 bd 66 ad 6d bd 02 db 07 bd
       0.020834992 -0.037426703 -0.058026694 -0.033167847
0002a0 28 80 c2 3b b2 d4 1f be 3d 3f 91 bd 31 fb 62 3d
       0.0059356876 -0.1560848 -0.0709214 0.055415336
0002b0 ac c4 df bd b9 ec c8 3d 73 fe 65 3d 43 a2 d3 3d
       -0.10926184 0.09810776 0.056150865 0.10333683
0002c0 f4 4a 8b bd 79 4f 93 bd 12 86 8c bc c0 89 98 3d
       -0.068014055 -0.071928926 -0.017153773 0.07448149
0002d0 7e 51 dc 3d 2e 00 49 bd 87 d1 16 3d bb 6a e6 bd
       0.10757731 -0.049072437 0.036820915 -0.11250826
0002e0 64 23 40 bd f3 d6 dd 3d 8c 72 d2 3d 7f d6 26 3d
       -0.04690875 0.10832014 0.10275754 0.040731903
0002f0 44 60 45 3d 7c a9 d5 3d df 30 a8 bc 2b d0 42 bc
       0.04818751 0.10432717 -0.020531116 -0.011890451
000300 08 28 45 3d 77 1a 0a bd fa 68 19 3d d3 15 7e 3c
       0.04813388 -0.033716645 0.03745363 0.015508133
000310 06 dc d9 bc a2 ce 05 be 7c 16 f5 bd 77 d3 8c bc
       -0.026594173 -0.13067105 -0.11967179 -0.017190678
000320 9f 6e 9c 3b 2b 82 d7 bc 34 6b 1d 3e 50 43 6c 3e
       0.0047739292 -0.026307186 0.15372926 0.23072553
000330 de 92 1f 3e 88 10 e7 3d 39 b4 0b 3e 19 f3 fa 3d
       0.15583369 0.1128245 0.13642968 0.122533984
000340 db 79 fc bd a8 4b 8a 3d 4c a1 58 3e 29 a7 f7 3c
       -0.123279296 0.067527115 0.2115528 0.030231075
000350 f1 8f d5 3d 86 8a 64 3d 6f a2 06 3e f8 08 9c 3d
       0.10427845 0.05579617 0.13147901 0.07618898
000360 c1 4f b0 3b 5f ec 14 3e a2 f7 2d 3e 86 1f db 3d
       0.005380601 0.14543293 0.16988996 0.10699372
000370 07 63 9d 3d 7c 53 dd 3d c4 64 8c 3c bd 19 f6 bd
       0.076849036 0.10806939 0.017137893 -0.12016628
000380 f5 e1 84 3d 0d d0 fa 3c 97 f5 d9 3c 18 6d 52 3d
       0.064884104 0.030616784 0.026606364 0.05137357
000390 8a 9e ae bc 88 9c 90 3d 70 eb 8c bc aa b1 6d 3c
       -0.021315832 0.07061106 -0.01720211 0.01450769
0003a0 51 c0 aa bd ad 58 b6 3c f5 99 6a 3c 28 06 82 bd
       -0.08337463 0.02225908 0.014318933 -0.063488305
0003b0 a8 50 92 3d 40 03 2f bd de 14 c6 3d 21 47 ce bd
       0.0714429 -0.04272771 0.09671949 -0.100721605
0003c0 88 58 ac bb a4 60 b2 bc b4 4d 4b 3d 5d a3 fc bd
       -0.005259577 -0.021774597 0.04963465 -0.123358466
0003d0 b9 1d fa 3d af 0a c2 bc 77 22 b3 3d 7a 1c b2 bd
       0.122127004 -0.023686735 0.08746808 -0.08696838
0003e0 fa c3 18 bd a0 cd 05 3e f3 40 b7 3d fd 2c a0 3c
       -0.037296273 0.13066721 0.08947935 0.019552702
0003f0 ee 53 b0 bd 2c 9d a8 3d 7a 07 a8 3c aa 9c 00 bd
       -0.08609758 0.08233103 0.020511378 -0.031399406

mlp_layers.2.bias f4 [64]
000000 f1 3d 4f 3c 9d fd 80 3e 0a 15 1b 3c a8 2e c9 bc
       0.012649045 0.25193492 0.009465465 -0.02455838
000010 0c 6f ec 3b 94 c2 27 3e ae bb 42 3d 4c d5 92 3c
       0.0072153863 0.1638282 0.047542267 0.017923974
000020 1a 5a 33 be 4a 04 d0 3d a9 63 06 be d9 e1 33 3e
       -0.1751484 0.10157068 -0.13123955 0.17566623
000030 4e be 6e bd 45 3d 57 3c 44 51 13 bc b5 89 3f 3e
       -0.058286957 0.013137166 -0.008991543 0.18704875
000040 72 7e e3 3d a2 3b 49 bc d2 6c 4d 3d b0 46 62 bc
       0.11108102 -0.012282284 0.050152607 -0.0138107985
000050 7a a2 59 bd 75 b1 18 be b3 c0 39 3e 6a 86 9d bd
       -0.053133465 -0.14911444 0.18139915 -0.07691653
000060 3e b5 76 3e 82 f4 1f 3e c6 e6 c2 3c b3 26 87 bd
       0.24092576 0.15620616 0.023791682 -0.06599178
000070 a9 3b 0a 3d 41 9b 3e 3d be c8 82 3c a8 5a 30 bd
       0.033748303 0.04653478 0.015964862 -0.043055207
000080 52 11 01 3e 44 ac d9 bb b4 43 08 3e 4a 42 a3 3d
       0.12604263 -0.00664285 0.13307077 0.07971628
000090 f3 97 98 3e 15 5e a5 bd ad ee 39 bd 36 d4 d5 3c
       0.29803428 -0.08074585 -0.045393635 0.026102167
0000a0 9e 59 0f 3e e7 f1 98 3e d4 4e 5d 3c bc 1b 3d 3e
       0.1399903 0.29872057 0.013507564 0.18467611
0000b0 5b ef 53 be 09 99 24 bd 02 6e b5 bd 01 f3 36 3e
       -0.20696776 -0.04018501 -0.08858873 0.17866136
0000c0 fb d4 45 3d f6 08 6b bc 64 a6 ab 3d 48 99 1d 3d
       0.048298817 -0.014345398 0.08381346 0.03847626
0000d0 f8 c7 23 3d eb 1c 8a 3e ba 1c d8 bd ad 18 fd 3d
       0.039985627 0.26975188 -0.10552354 0.12358222
0000e0 6a 83 a6 3c 69 f0 7b 3e 35 62 b0 bd ee 4e 0e 3c
       0.020326335 0.24603428 -0.086124815 0.0086858105
0000f0 ba 66 92 bd 49 a7 9b 3c ab f3 ec 3c e0 ba e3 3d
       -0.071485 0.019000666 0.028924784 0.11119628

mlp_layers.3.weight f4 [1, 64]
000000 10 71 11 be 8b cd 47 ba 6a 05 ef 3b a0 3c f0 3a
       -0.14203286 -0.0007621876 0.0072943466 0.0018328615
000010 c2 3c d9 3b 5e 89 bc 3c 70 51 79 be f7 2f 0c 3d
       0.0066295573 0.02301472 -0.24347472 0.03422543
000020 8b a7 f4 3d ad 68 f8 3c 06 94 1d bb 5a 89 64 3d
       0.11946019 0.03032335 -0.0024044528 0.05579505
000030 b1 d3 f9 bd b8 43 64 bd 4b 57 8f 3d 22 38 27 be
       -0.1219858 -0.055728644 0.06999072 -0.16330007
000040 36 ad 0b be 9e d5 84 bc 5a b8 eb 3d dc 80 93 bc
       -0.13640293 -0.016215142 0.11509772 -0.01800578
000050 aa 31 09 bb aa e5 81 bc 86 c1 0f 3c bc 41 96 3d
       -0.0020934143 -0.015856583 0.008774167 0.073367566
000060 c0 1f 42 3d dc be 1a be c6 22 e3 3d 4a 87 9a 3c
       0.04739356 -0.1511187 0.11090617 0.018863339
000070 20 d4 2e 39 30 26 d5 3c fb 15 31 bd 87 53 18 3d
       0.00016672956 0.026019186 -0.043233853 0.037189033
000080 de 9f 83 3c f8 9f dc 3d 4e b5 48 be b0 6c 4e be
       0.016067442 0.10772699 -0.19600412 -0.20158648
000090 40 0f 3a 3b 47 03 03 bd 8b b9 5d bd b3 b1 59 3d
       0.0028390437 -0.031985547 -0.054132026 0.053147983
0000a0 13 ff 39 3d 46 cd c1 3d bc 9e cf bd 57 88 06 3e
       0.045409273 0.09462981 -0.10137698 0.13137947
0000b0 51 15 ac 3d c5 72 8a bb c0 78 96 bc d9 d6 26 be
       0.08402503 -0.0042251074 -0.018368125 -0.16292895
0000c0 69 ef 37 be 59 80 ce 3c ea 25 ca 3d f7 40 9f 3c
       -0.17962421 0.025207685 0.09870513 0.019440157
0000d0 9e 0d 3e be 0e 3b d0 3d 68 30 6b bd fb ad 00 be
       -0.18559882 0.10167514 -0.05741921 -0.12566368
0000e0 7d 74 9d bc 13 0e 38 3d fd 01 8e bd 81 d2 34 be
       -0.019220585 0.044935297 -0.06933973 -0.17658426
0000f0 27 0c 9b 3d b9 d1 ca 3d 55 85 06 bc 8a 74 df 3d
       0.07570677 0.09903283 -0.0082105 0.109109

conv_layers.0.weight f4 [2, 1, 64]
000000 f9 80 c7 3e 9c f1 08 bf 55 c1 7c bd 63 6b ad 3d
       0.38965586 -0.53493667 -0.061707813 0.08467748
000010 f0 25 41 be a6 10 de bd 3c 79 0e 3d 93 6d 3d 3a
       -0.18862128 -0.10843019 0.034783587 0.00072261057
000020 2d 98 83 3e 6d 6b b3 be 16 51 c5 3e ab 7d 68 3d
       0.25702038 -0.35042897 0.38538426 0.05676047
000030 3e cb 9a 3d b7 4e ee 3e 6e 5c c3 bd 81 d8 e5 3e
       0.075582966 0.4654443 -0.09539114 0.44891742
000040 09 3a 35 bf 62 61 f4 be f0 47 9b 3e fc 2a 0b bf
       -0.7079168 -0.47730547 0.3032832 -0.54362464
000050 b3 75 1e bc 98 4f 5f be 06 78 dc 3c b0 0b 1a 3f
       -0.009671616 -0.21807706 0.0269127 0.60174084
000060 46 e6 63 be d6 ab 00 bd 5f e6 c6 3e e1 4d 0a 3e
       -0.22255811 -0.031413876 0.38847634 0.13506271
000070 8c f0 37 3e d4 20 2e be 52 ee 2d 3f 62 8e 5e be
       0.17962855 -0.1700471 0.6794177 -0.21734002
000080 49 f4 e5 3e 03 89 c0 be 8e 9f 15 be 4d 55 13 be
       0.44912937 -0.37604532 -0.14611647 -0.14388008
000090 f8 da 26 3f e5 22 a5 be 2d cc be be 9c 7f fa be
       0.6517787 -0.32253185 -0.3726515 -0.48925483
0000a0 16 af cb be a6 9c 06 be 04 ed e2 3d 6a 7d 8d be
       -0.39782017 -0.13145694 0.110803634 -0.27634746
0000b0 ac 04 0c bf 7f ad 96 be ea f7 c5 3d 81 45 15 3f
       -0.5469463 -0.29429242 0.096664265 0.5830918
0000c0 10 d0 ed 3c eb d5 e0 3e 3b ba 18 3f 2d 60 c0 be
       0.029029876 0.43913206 0.59659165 -0.37573376
0000d0 e4 ed d1 be d9 19 db 3e f6 eb 0b 3f e3 31 18 3e
       -0.4100181 0.42793158 0.5465692 0.1486278
0000e0 05 a2 1a be dc 7c 31 bd dd 17 2b be 15 cf fd be
       -0.15100868 -0.043331966 -0.16708322 -0.49572054
0000f0 8d f0 d5 be 31 c1 d6 be c6 c7 d9 be 9b 7d 25 bf
       -0.41785088 -0.41944268 -0.42535228 -0.64644784
000100 18 d0 96 be 1a e6 27 bf c6 32 01 3f 70 65 76 bd
       -0.29455638 -0.6558548 0.504681 -0.060155332
000110 cb 0d ac 3e 05 a4 c7 bd 03 ff b8 3d 32 ec b0 3d
       0.33604273 -0.09748081 0.090330146 0.08638801
000120 62 c5 88 3c 15 58 a8 3e ad d0 5d 3e ce 69 e8 3e
       0.016695682 0.328797 0.21661635 0.45393223
000130 b4 d8 83 bc 5b 5d 3f bc 91 a2 64 bd d1 5b 74 3e
       -0.016094543 -0.0116799725 -0.055819098 0.2386315
000140 a0 e7 f3 be d9 b3 12 bf 2e 92 a9 bd 59 9e ba be
       -0.47637653 -0.57305676 -0.08279835 -0.36448935
000150 26 19 bd bd 6b 38 23 bf 3b db 11 be b6 50 fb 3e
       -0.09233312 -0.6375796 -0.14243786 0.49085015
000160 5a d5 72 3e ae d9 22 bf db ca 57 3e 18 33 84 3e
       0.237142 -0.636134 0.21073477 0.2582023
000170 de b9 d5 3d 45 10 15 be 57 1b 4e 3e bb ce 0b bf
       0.10435842 -0.14556988 0.20127617 -0.5461232
000180 bf 6f 3b 3f eb d2 72 be de 19 f9 be 0e 08 87 3d
       0.73217386 -0.23713271 -0.48652548 0.06593333
000190 74 a7 2a 3f bf 3a e0 be 3a dd de 3e 1d 8c be be
       0.66661763 -0.4379482 0.43528157 -0.37216273
0001a0 91 c2 0e 3d bd 27 7b 3e 6d d0 7e 3e 36 fa d1 bd
       0.03485352 0.24526878 0.24884196 -0.10252802
0001b0 cf 7d a3 be d1 23 35 3f c2 87 d9 bd 6c 00 d2 3e
       -0.31931922 0.70757776 -0.10621597 0.41015947
0001c0 d6 cf c3 3e 94 f5 35 3e 4e b0 45 3f 90 c1 64 be
       0.38244504 0.17769462 0.77222145 -0.22339463
0001d0 e8 40 23 bf 7e 29 1a 3f 80 d8 09 3f 39 78 01 3f
       -0.63770914 0.6021956 0.5384598 0.5057407
0001e0 3b 9b 33 bf 38 76 e8 3e d8 ea b8 3e 82 08 8d bd
       -0.7015874 0.45402694 0.36116672 -0.06886388
0001f0 e6 80 f7 be ce 48 07 bf 62 5c 5c bf 0a 61 2e bf
       -0.4834053 -0.52845466 -0.86078465 -0.6811682

conv_layers.0.bias f4 [64]
000000 cc f7 24 bf 03 07 4f 3d 25 29 5e 3e a3 6d 83 be
       -0.6444061 0.050543796 0.21695383 -0.25669584
000010 ec 02 97 3e 70 ff ba 3e 21 c3 01 3e 29 77 64 bc
       0.29494417 0.36523008 0.12672092 -0.013944426
000020 96 b5 e0 3e d2 47 e8 3e b4 1a 72 bd 0d 7e ae 3d
       0.4388854 0.45367295 -0.059107497 0.08520136
000030 2d dc 0a be e8 4c 31 bf ee a1 5e bd b3 cf 16 bf
       -0.13560553 -0.69257975 -0.054353647 -0.58910674
000040 0d b8 ac 3e a3 59 3f 3d 79 b0 db be 5f e6 8d be
       0.3373417 0.046716344 -0.42908075 -0.27714822
000050 85 79 6a be 64 7d fc be 80 28 f9 be ba 4f e5 bb
       -0.22897919 -0.49314415 -0.48663712 -0.0069980295
000060 18 b0 c1 3e a2 c4 dc be e9 32 c8 be f7 9d 0b 3e
       0.3782966 -0.4311877 -0.3910134 0.13634478
000070 18 f7 57 be 99 0c 00 3e 4d aa dd be a8 75 82 3e
       -0.21090353 0.12504806 -0.43293992 0.2548039
000080 3c 9c e3 3e 99 ea 18 3e b4 4c e4 bc b1 7c ab be
       0.44455135 0.14933242 -0.027868606 -0.3349357
000090 ea 57 18 3d 21 9a 12 bd 58 f9 03 3f 82 56 39 3e
       0.037193216 -0.03579152 0.51552343 0.18099406
0000a0 ec 3e 9d 3d 53 db d8 3e 04 ea f4 3e e5 b2 89 bc
       0.07678017 0.4235483 0.4783479 -0.016808936
0000b0 70 54 d2 be 70 ac 0b 3f e3 18 04 bf f6 f7 d6 be
       -0.41080046 0.54559994 -0.51600474 -0.41986054
0000c0 1e c7 df 3e cf f7 b3 be 41 fd b7 3e 53 e2 26 3e
       0.43706602 -0.3515 0.35935405 0.16297273
0000d0 aa 35 2b bf 02 93 b3 3e 0b 01 ee 3d 6d 2e 2a 3d
       -0.6687876 0.35073096 0.11621293 0.04154818
0000e0 94 2c ba be 76 ab 3e 3e c6 49 0c 3e 19 8b f6 3d
       -0.36362135 0.18620095 0.13700017 0.120382495
0000f0 1d 95 ea be 6c fc a2 3d eb b0 77 be c4 47 10 3e
       -0.4581689 0.07958302 -0.24188583 0.14089876

conv_layers.1.weight f4 [2, 64, 64]
000000 a3 6b be bc 68 50 97 bb 2f 2a e3 bd 11 8b 9e bd
       -0.023244685 -0.0046177395 -0.1109203 -0.077413686
000010 28 86 9a bc 5a 03 0b be 61 94 2e 3d 88 96 3e be
       -0.018862799 -0.13575497 0.042621974 -0.1861211
000020 4a 67 8c bc 91 bc 92 bd 61 e9 7d 3d b5 47 69 be
       -0.017139096 -0.071648724 0.061990146 -0.2278126
000030 06 03 c5 bd 75 ab 8f bd 74 9b 25 3d 6a b7 83 3c
       -0.09619717 -0.07015125 0.040431455 0.01607867
000040 fb e6 3d 3d 35 c8 db 3d ae 62 5b be 7a 05 a2 bd
       0.04636286 0.10731546 -0.21424362 -0.07911201
000050 65 36 0e bd ae 83 bc bd 75 6a 92 bc 71 49 a5 bc
       -0.034719843 -0.092048034 -0.017873028 -0.020176621
000060 10 b3 64 bd d1 ff 95 bd ed 27 f9 3c d8 ba c0 3d
       -0.05583483 -0.07324184 0.030414546 0.094106376
000070 20 30 e1 b8 6c a9 23 bd 65 0a 51 3d 48 1e 03 3c
       -0.000107378 -0.039956495 0.051035304 0.008002825
000080 50 45 d6 bd 44 c8 5e bd 26 fb 39 bd 89 a2 d7 3d
       -0.10462439 -0.054390207 -0.04540553 0.10529048
000090 2f 9d 3f 3d 6f 37 55 3b 34 09 1f 3e 12 b6 a7 bc
       0.04678076 0.0032534262 0.15530854 -0.02047256
0000a0 c9 fc 73 3d 24 28 b2 bd b1 9c 63 be c5 bc 9a 3d
       0.059567247 -0.086990625 -0.22227742 0.07555536
0000b0 c6 8b 9a bd f3 79 b6 3c 61 07 0d 3d a4 a6 b5 3c
       -0.07546191 0.022274947 0.034430865 0.022174187
0000c0 59 50 c0 bd df 11 07 bb 01 cf 65 3c a9 56 65 bb
       -0.09390325 -0.0020610017 0.014026404 -0.003499428
0000d0 3e 0b 3d 3d 07 53 e4 bd 71 b8 43 3c 86 9b 87 3a
       0.0461533 -0.11148649 0.01194583 0.0010346032
0000e0 6b 06 91 3d 67 5e 44 bd b7 46 a0 3d 43 8a c1 bc
       0.07081302 -0.04794159 0.07825988 -0.023625499
0000f0 1b 7b fc bd e6 c7 16 bd 01 f3 91 3c 74 da 15 bd
       -0.12328168 -0.03681173 0.017816069 -0.036585286
000100 5e 48 71 be 27 58 0e 3d 19 e3 6f be 11 3d 90 3e
       -0.23562762 0.034752037 -0.23426475 0.2817159
000110 bc e5 d6 ba 05 d8 eb be 6c 9a 98 3d f0 c3 c5 be
       -0.001639537 -0.46063247 0.07451329 -0.3862605
000120 64 11 12 3f b5 98 94 3d 21 e5 fc 3d a4 cc ad be
       0.57057786 0.07255689 0.1234839 -0.3394519
000130 c1 80 39 3d 5f 39 d2 3d c7 10 3b 3e 11 a5 9c 3e
       0.045288805 0.10264849 0.18268119 0.30594686
000140 25 0d 60 be aa 3c 07 be 5e e9 f8 be a0 a9 cc 3d
       -0.21880014 -0.13206735 -0.48615545 0.09993291
000150 a0 64 21 3d 0b de 17 be 5b 2c 19 bf 0d d5 f6 bc
       0.039402604 -0.14830796 -0.59833306 -0.030130887
000160 ac e4 c6 3e 4d 17 11 3d e6 98 1b 3f a9 e1 3f be
       0.38846338 0.035422612 0.6078018 -0.18738426
000170 ec 1b 1c 3d c0 88 ec bd eb 1d e0 3e 7b b6 e5 3e
       0.038112566 -0.115495205 0.43772826 0.44865784
000180 35 e6 1a 3e 53 5c cb 3d 21 ea f7 3d 68 6a 4a be
       0.1512688 0.09929719 0.121052034 -0.19767153
000190 38 ef e0 3e f7 c7 29 3e ea 0a 26 3c 20 0c 22 be
       0.4393251 0.16580187 0.010134438 -0.15824938
0001a0 43 23 2b be c8 e3 d3 3e ba 72 b8 be 0c 9c 76 be
       -0.1671267 0.4138472 -0.3602503 -0.24082965
0001b0 ad 36 d6 3e af 35 c6 3d d1 64 bc bd 98 d7 13 3f
       0.4183859 0.09678208 -0.09198917 0.57750845
0001c0 90 87 49 3d ce 9d 91 be f9 87 87 be 44 96 9d 3e
       0.049201548 -0.28440708 -0.26470926 0.30778706
0001d0 a2 7a ae bd 6f c8 09 bf 35 d8 17 bc bf b7 6d 3e
       -0.08519484 -0.5382146 -0.009267856 0.23214625
0001e0 f2 cd dd 3e 45 4c 10 3f b8 e8 b6 3e d7 40 6e be
       0.43321186 0.5636638 0.35724425 -0.23266922
0001f0 84 d4 50 3e 50 bb 7a bd e8 09 38 bd 05 96 cd 3d
       0.20393568 -0.06121379 -0.044931322 0.100383796
000200 de b7 78 3d 99 62 a4 3d fc ba 89 3d 33 3a 7e bd
       0.060722224 0.080266185 0.067251176 -0.06206722
000210 39 ee e8 3d a9 af 52 3d b6 6a ee 3c ca e7 ed 3d
       0.11373562 0.051437054 0.029103618 0.11616476
000220 43 61 9e 3d 3f 0b b8 3d 0f 51 9a 3c d6 0e 36 3d
       0.07733395 0.0898652 0.01883748 0.044447742
000230 4c a0 00 3e 4e 23 a1 bc 9a f0 35 3d 71 30 1c bd
       0.12561148 -0.019670155 0.04441891 -0.038132135
000240 22 af 27 3e 72 31 3f 3d e6 72 d7 3d 3c ef 93 3d
       0.16375402 0.046678014 0.10519962 0.07223365
000250 f0 49 21 3d 13 e6 17 3d a2 e1 05 be 7b 4f d6 bb
       0.039377153 0.03708465 -0.13074353 -0.0065402365
000260 9d 04 6f 3d bc e7 00 bd df e0 4e bd a8 3c b6 bd
       0.05835401 -0.031471 -0.050507423 -0.08898288
000270 ea 4e 15 bc 79 15 95 3d d0 51 df bd f3 9d 64 bd
       -0.009113053 0.07279486 -0.10904276 -0.055814695
000280 6a 87 cf 3b 47 1d 10 bc 8e e6 7e 3d b0 5d 9c 3d
       0.0063332813 -0.008796043 0.062231593 0.07635057
000290 59 4d 69 bd 1a 05 72 3d 40 b6 b5 bd 4b 59 4f 3e
       -0.05695853 0.059086896 -0.08872652 0.20248906
0002a0 06 b7 7a bd 4a fd 87 3c 9f 42 18 3e 6a 2e 46 3e
       -0.0612097 0.01660027 0.14869164 0.19353643
0002b0 89 dc 1a bc 4c c7 f2 3d 07 83 9f 3d 02 37 95 3d
       -0.009451994 0.11854419 0.07788663 0.072858825
0002c0 f9 47 4d bc 77 0b 50 bd ff 35 49 bd 49 e1 8e 3d
       -0.012529367 -0.050792184 -0.04912376 0.069765635
0002d0 2a 2b e1 bc d2 56 00 3e 85 a9 73 bd a7 39 68 3d
       -0.027486403 0.1253312 -0.05948784 0.056695607
0002e0 16 92 e5 3d b0 42 5b bc a7 e1 73 bc b5 1b c3 3d
       0.11209504 -0.013382599 -0.014885343 0.09526769
0002f0 d8 34 bb 3c 61 16 9d bb 3a cb d0 3d 8a 63 60 3d
       0.022852346 -0.0047939275 0.101950124 0.054782428
000300 72 45 0e 3d 6e 6c c2 3d 20 b3 74 3d bf 62 e6 3a
       0.034734197 0.094933376 0.05974114 0.0017577036
000310 b5 76 b7 bc 70 9a 15 be 62 7a df bc 3b c8 07 3e
       -0.022395471 -0.14609694 -0.027280036 0.13259976
000320 c7 87 c7 3d 8e 63 26 3e 5f 3f 7c bd 17 ef a2 bd
       0.09742694 0.16248915 -0.061583873 -0.07955759
000330 87 de 73 3d 92 2b 93 ba 82 9f bd 3d 1c 7a 9a bc
       0.05953839 -0.0011228195 0.09258939 -0.018857054
000340 c0 6c 81 3d d5 45 78 bd 79 52 db 3d b9 2a e5 3c
       0.063195705 -0.060613472 0.1070909 0.027974473
000350 fe 5f cc 3c 09 44 66 bd 5a 2e 3b bc fd 0f 38 3c
       0.024948116 -0.056217227 -0.011424625 0.011234281
000360 b6 7a 26 bd 12 1b dc 3d 76 bc 82 3b d6 e4 4a 3c
       -0.04064437 0.10747351 0.0039897515 0.01238366
000370 ca 21 46 bd 68 d9 4b bc 33 6f 0e 3d f7 95 14 bd
       -0.048372068 -0.01244197 0.034774017 -0.03627583
000380 ef d6 40 3d 3f 52 87 3c ac 30 01 3e a7 76 fa 3c
       0.047079977 0.01651871 0.12616223 0.030574156
000390 9f 7b d3 bc 90 ea f6 3d 51 67 9a bd aa c2 9a 3d
       -0.025815783 0.12056458 -0.07539237 0.075566605
0003a0 2b 07 57 bd 4d 40 38 bd 78 d4 07 3e ca 09 4e 3e
       -0.05249707 -0.044983197 0.13264644 0.20120922
0003b0 40 5b 22 3d d2 9c dc 3d ff c8 8e 3d 70 50 0f 3e
       0.039637804 0.107720986 0.06971931 0.13995528
0003c0 d2 71 cd 3c 01 8a 7e bd 9a 94 b7 bd 52 7f 68 3d
       0.025078688 -0.06214333 -0.089638904 0.056762047
0003d0 4f cf 5d bd 1a ae 1a 3e d2 25 f3 3d ba d4 1c bd
       -0.054152783 0.15105477 0.11872448 -0.03828881
0003e0 ae 6a 34 3e 76 88 e0 3c 3e f5 8b 3d 46 77 d4 bc
       0.1761882 0.02740882 0.068338856 -0.02593578
0003f0 1d ff 43 3c f1 f2 de bc 8f c6 f3 3d a8 d1 54 3d
       0.011962679 -0.027215453 0.119031064 0.051957756

conv_layers.1.bias f4 [64]
000000 f1 41 63 3b 03 28 25 be 4e 2c ba 3c 50 0b 35 bb
       0.0034676755 -0.16128545 0.022726204 -0.002762515
000010 5b 78 38 3d 6f f7 02 3e cb 84 b4 bd 7a df 1a 3c
       0.045036655 0.12789701 -0.08814391 0.009452695
000020 dc c1 82 be 2c 08 0d be 48 18 74 3d 74 ce 44 3d
       -0.25538528 -0.13772649 0.05959347 0.04804845
000030 fa 4d 8d bd f9 56 10 be 7a d6 63 bb 9e b8 1d bd
       -0.068996385 -0.14095677 -0.003476529 -0.038506143
000040 b6 da d5 bd f3 aa 9a 3d eb 64 d1 bd ec 2e eb bd
       -0.104421064 0.07552137 -0.10224327 -0.11483559
000050 33 ed 41 be 5c 9c 40 3c fd db 39 3e 2b 22 17 3d
       -0.1893814 0.011756029 0.18150325 0.03689782
000060 65 d0 34 3c 3e 96 64 bd ae f0 12 be d9 b7 f1 3d
       0.011036013 -0.055807345 -0.14349625 0.11802644
000070 57 08 04 3e 05 8a a9 bd 2b 82 ba bd 05 72 0b be
       0.12893806 -0.08278278 -0.09106859 -0.13617714
000080 59 12 b7 bc aa b6 9c 3c 00 fe bc bd ec 61 04 bd
       -0.022347616 0.01913007 -0.09228134 -0.032319948
000090 e7 e8 59 3b 61 f6 91 bd 27 a5 bb 3d bd 33 a6 3d
       0.0033250393 -0.07127071 0.0916236 0.08115337
0000a0 c1 ef ab bd 6f 56 e7 bd 8f 3f 1f be c5 a6 ea bd
       -0.08395339 -0.11295783 -0.1555159 -0.1145759
0000b0 0c 97 18 3d f0 bb 5f be c6 76 36 3c 4b 49 17 be
       0.037253425 -0.21849036 0.011136716 -0.14774053
0000c0 9e f3 7a bc 37 a8 a7 bc 5f b2 f0 bc 4f f3 d2 bd
       -0.015316872 -0.020465953 -0.029381929 -0.10300314
0000d0 1f e9 98 3d 60 ec 4c bd 54 60 5c bd 1c 70 93 3d
       0.07466339 -0.050030112 -0.053802803 0.071991175
0000e0 ed 4f 0e be 80 0f 28 3d 65 87 2a 3c e6 e2 23 3c
       -0.13897677 0.041030407 0.010408257 0.010002827
0000f0 9e 40 87 bd 3a cc 2c 3c c7 90 a2 bc b4 1d 36 be
       -0.066041216 0.010546738 -0.019844426 -0.17784768

conv_layers.2.weight f4 [2, 64, 64]
000000 84 5f 05 bd b5 8a 6e bd f0 38 c0 bb 70 a6 92 3c
       -0.032561794 -0.05823775 -0.0058661625 0.01790163
000010 2c 1e 8b 39 23 7e ab 3d 12 5b 02 3d 63 6e e3 bd
       0.00026534626 0.08373668 0.031825133 -0.11105039
000020 f1 47 57 bd b6 a1 1c bd 59 d8 63 bd c3 6c 0b be
       -0.052558843 -0.038240157 -0.055626247 -0.13615708
000030 0f cd 46 3b 57 a1 85 3d 07 cd 8f bc 15 c9 3d 3e
       0.0030334627 0.06524914 -0.01755382 0.18533738
000040 cc 5a 95 bc bd 0b 9e bc 95 6f d6 bc b5 9a 6d 3c
       -0.018231772 -0.019292707 -0.026176253 0.014502217
000050 97 ed eb bd 42 d2 06 bd 37 09 13 3d 70 d5 36 3d
       -0.11519926 -0.03291536 0.03589746 0.044637144
000060 58 cc 5b bc 5b 39 83 bd b7 ac 36 3b ba f0 7f bd
       -0.013415419 -0.06407424 0.0027873942 -0.062485434
000070 6f 00 f0 3d 4c fb 35 3d 1f 1b c2 3c f2 c4 83 bd
       0.11718833 0.04442911 0.023694573 -0.06434049
000080 9b b6 79 bd 84 fc b4 3d 81 4f ad bc 28 64 90 bd
       -0.06096516 0.08837226 -0.021156074 -0.07050353
000090 db 02 d0 bd 8c 44 08 3d 36 36 86 bc 31 3f ad 3d
       -0.10156795 0.033268496 -0.016383272 0.084593184
0000a0 94 b5 14 3c 5a 81 94 3d 55 41 ad bc c9 a6 bc 3c
       0.009076495 0.07251234 -0.021149317 0.023028748
0000b0 62 63 1b 3e a4 25 52 3c 8e 56 b1 3d 88 b7 17 bc
       0.1517463 0.012826357 0.08659087 -0.009260066
0000c0 6f 69 b7 3c b5 d8 f2 3d c2 b5 9a 3d 02 a5 5a 3d
       0.022389142 0.1185774 0.07554199 0.05338002
0000d0 6d 02 19 be 2f 8f bd bc 3b 38 1e be 36 48 71 3d
       -0.14942332 -0.023139564 -0.15451138 0.058906756
0000e0 84 71 57 3d 8a 17 2c 3e 75 97 4d 3c 0b 5d 62 3d
       0.05259849 0.16805854 0.012548317 0.055264514
0000f0 14 d3 b0 3d 41 1f 2f 3d d1 12 23 3d d7 b6 65 3d
       0.0863401 0.042754415 0.039812867 0.056082573
000100 a0 1e c9 bd b0 b1 87 3c 5d a6 38 bd 47 9d 02 be
       -0.098202944 0.01656422 -0.04508053 -0.12755309
000110 de 67 27 3d 8f 60 73 bb 6d c6 18 3e d2 4f b9 bd
       0.04087054 -0.003713641 0.14919443 -0.09048428
000120 2a 44 c7 bc dd 93 03 3e 85 7a a0 bd 68 8f 90 3d
       -0.024324495 0.12849374 -0.07835869 0.070586026
000130 28 ec 81 bc a8 14 0a 3d 9e 83 15 be b8 57 aa 3e
       -0.015859678 0.033711106 -0.14600989 0.3327005
000140 cf ed af bd 2c 67 78 3d 60 45 ba 3d 5c 3f 7b 3d
       -0.0859028 0.060645267 0.090952635 0.06133972
000150 37 1b 13 3d 36 6a 31 3d 42 74 91 3d 01 89 4a bc
       0.035914626 0.04331418 0.071022525 -0.012361766
000160 29 58 28 bd 46 90 00 be 39 d7 e1 bc b0 f1 00 bd
       -0.0410997 -0.12555036 -0.027568446 -0.03148049
000170 4d 8b 02 3e e7 20 ac 3d 1d 29 b3 3d 06 07 af bd
       0.12748452 0.08404713 0.08748076 -0.085462615
000180 17 4e 09 3d b2 80 4d 3d ab 82 64 bc 10 18 7f bd
       0.033521738 0.05017156 -0.013947169 -0.062278807
000190 13 8d d6 bc 6a 4a 5b bd 3f 4d 07 be 82 11 83 3d
       -0.026190316 -0.053537764 -0.13213061 0.06399824
0001a0 8b 58 36 bd 4e f7 97 bd 6c 4d 59 3d 9b a6 a7 3c
       -0.044518035 -0.074202165 0.05305235 0.020465186
0001b0 3a aa 6b bd 6c f4 c8 bd f5 36 a0 3d da 60 22 be
       -0.057535388 -0.09812245 0.07822982 -0.15857258
0001c0 bf 5f fa 3c 28 61 aa 3d 87 e9 f3 3c 9a 0d 55 3d
       0.030563233 0.08319312 0.02977444 0.052014925
0001d0 d0 3c cc bd f4 f3 bb 3d 0e a0 ef bd 9f e4 15 bd
       -0.099725366 0.0917739 -0.1170045 -0.036594983
0001e0 d6 7a ae bc 45 9a a2 bc 34 84 9b 3c 8d aa 83 3d
       -0.021298807 -0.019848952 0.018983938 0.06429014
0001f0 e3 e9 3e 3d c0 30 34 ba c2 83 9c 3c 69 57 b8 3d
       0.04660977 -0.00068737194 0.019105796 0.09001047
000200 05 1e 4e be 2d 56 89 3d 70 fc 4f bd 37 50 21 be
       -0.20128639 0.0670589 -0.050777853 -0.15753256
000210 38 f6 b6 bc de 8e 2d 3e bd 14 fd 3d b4 11 f5 bd
       -0.022334203 0.16949031 0.12357471 -0.11966267
000220 60 7e 73 bd 1b d9 80 3d 1f c3 97 bd 98 1c 91 bc
       -0.059446692 0.062914096 -0.07410263 -0.01771383
000230 da e7 61 bc 9f 21 d0 3c 85 8c 0d 3e 98 51 d5 3d
       -0.013788188 0.025406657 0.13823135 0.104159534
000240 c5 62 3b bd f1 9e a6 bd 84 0a 0c 3e b9 e4 90 bc
       -0.04574849 -0.081357844 0.13675886 -0.017687188
000250 07 bf 48 bd 48 b3 d4 3d c5 1a f9 3d 39 40 94 3d
       -0.049010303 0.10385758 0.12163309 0.07238812
000260 3e 6b 4e bc 50 b3 c8 bd d1 a9 d0 3d f0 46 a6 3d
       -0.012598811 -0.09799826 0.1018864 0.08118999
000270 76 5d 21 3b 2b 3f a6 3d c0 8a 99 bd 6b af 25 bd
       0.0024622357 0.08117517 -0.074971676 -0.040450495
000280 a3 da 39 bd 3a be e5 bd 2e d8 b7 bd d6 09 d9 bc
       -0.045374524 -0.112179235 -0.0897678 -0.026493948
000290 41 0c a5 3b 40 b9 99 bd e0 69 37 3a 12 fe e8 bc
       0.005036861 -0.07506037 0.00069966726 -0.028441463
0002a0 29 67 37 3d df 4a 92 bd fc dc 84 3d 66 d1 ff bc
       0.044776116 -0.07143187 0.06487462 -0.031227779
0002b0 f2 7a ba 3c 31 06 ae 3c 3b d6 c4 3d 4a 93 95 bc
       0.022763703 0.021243187 0.09611174 -0.01825871
0002c0 2b 29 cd 3d 49 18 3d 3e 6d 26 ed 3d 5c 6b 8b 3d
       0.10017618 0.18466295 0.11579595 0.068075866
0002d0 19 cf b7 bd 5a 60 b8 bc 92 0a 75 bd 91 f1 17 be
       -0.089750476 -0.022506882 -0.059824534 -0.14838244
0002e0 96 2d b2 bd b7 1e d8 bd 9e cb 07 3d 23 9b 18 3d
       -0.08700101 -0.105527334 0.03315317 0.037257325
0002f0 68 35 75 bd 6c 6b 99 3d 1b 95 78 3b 90 a0 f4 bc
       -0.059865385 0.07491192 0.003793067 -0.029861718
000300 6d c8 e2 3d 27 b2 11 bc fe c5 47 3d c5 05 6f bc
       0.110733844 -0.0088925725 0.048772804 -0.014588778
000310 9f 0a 4d bd b2 13 7e bc 30 45 f1 3b 84 15 fa 3d
       -0.050058957 -0.015507625 0.007362984 0.12211135
000320 75 f5 6f bd 77 cf 75 bd 9c 94 e4 bd 4a 18 65 3d
       -0.058583695 -0.060012307 -0.111611575 0.055931367
000330 07 3c 0d bd 27 97 f8 bc 72 c1 bc 3d 3e 76 80 be
       -0.034481075 -0.030345513 0.09216584 -0.25090212
000340 9a de 9f 3c 75 5e 30 3d e6 97 b1 3d eb a0 22 bc
       0.019515324 0.04305883 0.086715505 -0.009926061
000350 be df 36 3b 0d 25 f3 bc 07 bf 52 bd fb 97 6f 3d
       0.0027904357 -0.029680753 -0.05145171 0.05849455
000360 42 7c ac bc c3 fa 0a 3e 30 7e 96 3c 87 6c 33 3c
       -0.021055344 0.1357222 0.018370718 0.010951168
000370 ce fc 99 bd 9e b7 84 bc 3c 39 4e 3d cb 85 57 3d
       -0.07518922 -0.016200837 0.05034755 0.05261783
000380 5f c5 9b bd 1c ef 7d 3c 41 de 80 bd 76 fd 14 bd
       -0.07606005 0.015498903 -0.062923916 -0.03637453
000390 77 d2 5b 3d 84 f1 05 3d c2 07 ec 3d e4 e5 f7 bc
       0.05366751 0.03270103 0.11524917 -0.030260988
0003a0 0d f9 96 bd 1e 89 8d bd b9 8e c4 bd 50 6b 8f bd
       -0.073717214 -0.06910919 -0.09597535 -0.0700289
0003b0 86 1e 39 bd 76 7c e2 bc 2b 96 da 3b 3c 2d bf 3d
       -0.045195125 -0.027647238 0.0066707334 0.093348
0003c0 dd 72 03 bc 0d 74 ab 3b 1f b9 8c 3d 4b b4 4c bd
       -0.008022991 0.00523234 0.068712465 -0.04997663
0003d0 e9 ba 22 3d 8b 93 99 bd 1e e4 9c 3c 9d eb 8e 3d
       0.039729033 -0.07498845 0.019151744 0.069785334
0003e0 f8 e5 85 bd 45 fa 53 bd 98 ca 10 be 2b 4f 97 bd
       -0.06538004 -0.051752347 -0.14139783 -0.07388147
0003f0 47 92 7d 3c f3 da cc bd e1 e2 b3 3c 8d 13 0e 3d
       0.01547677 -0.10002699 0.02195877 0.034686614
