experiments/02_tune_models/selected_trained_models/s2v_rel_deg/model_state_dict.pt (torch_old, 68582 bytes, 9 tensors)

mlp_layers.0.weight f4 [64, 64]
000000 c0 86 a1 3e 6a 29 12 3d dd 2e 28 bd ae d1 f0 3d
       0.3154812 0.035684027 -0.041060317 0.11758743
000010 46 5f 46 bc 4e 07 d2 3d 94 06 87 3e 6d bb 53 3e
       -0.012107676 0.102552995 0.26372206 0.20676966
000020 ab c4 98 3c 10 13 71 3e 81 63 75 bd ae 05 ab 3c
       0.018648466 0.23542428 -0.059909347 0.020876732
000030 52 8b c2 bd 4f e4 a1 bd be 44 5a 3b ab 91 de bd
       -0.094992295 -0.079048745 0.0033305134 -0.10867628
000040 18 cc 87 3d 1f 80 04 be b3 5c 6f bd 5e 20 9a 3e
       0.06630725 -0.129395 -0.058438014 0.3010282
000050 ef c2 8e 3d b5 25 8e bb cc f0 ca 3d 37 8c 84 3d
       0.069707744 -0.004337991 0.099092096 0.06472056
000060 e6 a2 b5 3d 81 d6 9f bd d7 23 c0 3b aa ca f2 3d
       0.08868961 -0.07804585 0.0058636474 0.11855061
000070 50 e5 53 3d 26 7d c1 bd f2 ea 38 bd 97 1e 6e bd
       0.05173236 -0.09447698 -0.045145936 -0.05813464
000080 10 dc bc 3d 09 78 e0 bd 8a 97 88 3e 9d 6c 67 ba
       0.09221661 -0.10960395 0.26678115 -0.00088281353
000090 62 03 f6 3e 87 36 cd bd bb a3 a3 3b 66 5a a8 3c
       0.48049456 -0.10020166 0.0049938834 0.020550918
0000a0 2b 48 99 bd 83 f9 09 bc 92 9e 84 bd 23 79 3d 3e
       -0.07484468 -0.008421305 -0.064755574 0.18503241
0000b0 69 c5 10 bc e9 35 f2 bd d4 d9 14 bc 3a b4 c5 3d
       -0.008836129 -0.11826689 -0.009085137 0.09653516
0000c0 9d d2 0d be 82 30 e2 3d 03 0d e2 3c e1 77 8c 3d
       -0.13849874 0.110444084 0.027594095 0.068588026
0000d0 1b c2 1b 3e 89 8a a9 bd 70 6e 0d bd 85 cf 06 3d
       0.15210764 -0.082783766 -0.03452915 0.03291275
0000e0 d6 03 1e 3e 98 d1 5f 3e c2 d9 63 3d 12 90 86 3e
       0.15431151 0.21857297 0.055627592 0.26281792
0000f0 54 b3 77 bc d5 8d f3 3c bf 78 c7 bd 42 67 98 3d
       -0.015118439 0.029730717 -0.09739827 0.0744157
000100 58 ef b5 bd 44 9b ed bd 36 dc 0a 3e 29 67 4a 3d
       -0.08883542 -0.1160188 0.13560566 0.049414787
000110 5e 5b 68 bb d9 60 e9 bd 37 b1 0a 3e 4f 70 7e 3c
       -0.003545485 -0.11395425 0.13544165 0.015529706
000120 ee 6c ae bd 37 ba c9 bd c7 2f a8 3d ed dc 0d 3c
       -0.085168704 -0.09849971 0.08212238 0.00865863
000130 37 0e 29 bc 88 4a 23 3e e7 da bd bd 02 a7 51 3c
       -0.0103183305 0.159464 -0.09270268 0.012796165
000140 33 23 ff 3d de 08 40 bc 9d a2 0d 3e 69 f3 9e bb
       0.124578856 -0.011720864 0.13831563 -0.004850794
000150 ec 96 af bc 71 bd d0 bc af 67 24 bd cf f6 33 bd
       -0.02143427 -0.025480958 -0.040137943 -0.043936547
000160 7b a8 15 3d 30 c7 7a 3d 19 56 78 3c 7d a6 82 3d
       0.03653763 0.061225116 0.015157246 0.06379411
000170 93 a8 c7 bd 88 68 87 bc 61 49 c7 3d 5e 85 18 3e
       -0.0974895 -0.016529337 0.09730793 0.14894626
000180 c1 9e ed 3d a1 94 56 bd 62 2e 9c 3c 1e 2c 40 3d
       0.116025455 -0.052387837 0.019065086 0.046917073
000190 1b 80 0c 3d 30 ee 9d bd 41 30 a7 bc 3b d5 a2 3d
       0.03430186 -0.07711446 -0.020408751 0.07950827
0001a0 91 e9 bc 3d b5 14 e9 bd f0 79 5f bd 23 79 2d bd
       0.09224237 -0.11380903 -0.054559648 -0.042351853
0001b0 85 03 86 bd 69 48 16 bd da 14 02 bc 95 89 4f 3e
       -0.0654364 -0.03669015 -0.007939542 0.20267327
0001c0 03 a2 c3 3c a7 07 d7 3c e5 92 01 be 90 e2 0b 3e
       0.023880964 0.026248766 -0.12653692 0.13660645
0001d0 8d 87 07 3d 33 26 4a bc 92 61 90 3d c6 b3 ee 3d
       0.033088256 -0.012338209 0.0704986 0.11655383
0001e0 2a 70 b4 3d 41 2e c4 3d 56 0e fc 3c ab 42 b0 bd
       0.08810456 0.09579135 0.030768555 -0.08606466
0001f0 ab db 0d bd de d4 2a 3e 60 46 43 3e be f7 8e bc
       -0.03463332 0.16682765 0.19069815 -0.017452117
000200 e6 a4 e2 3d 6f ca 16 3d 9c 8f 15 3e 96 84 56 3d
       0.11066608 0.03681415 0.14605564 0.052372538
000210 4e fe 9e 3d 33 c7 d6 3c 06 7c 62 bd ae a1 af 3d
       0.077633485 0.026218032 -0.05529406 0.0857576
000220 60 53 19 be d3 83 2b 3e 48 b0 d2 bd ee 0b 2e 3d
       -0.14973211 0.16749506 -0.10287529 0.042491846
000230 45 aa 70 3d 18 04 76 bd b2 4b db bd 71 44 8f b8
       0.05875613 -0.060062498 -0.10707797 -6.8315196e-05
000240 95 4d 29 bb df 00 e3 bd 27 5e 09 3d ae ea 81 3d
       -0.0025833596 -0.110841505 0.033537056 0.0634359
000250 4c 22 52 3d 14 d1 ca 3d 7d cb b8 3d ee af 25 3b
       0.05130224 0.0990316 0.09023187 0.0025281864
000260 28 88 fc 3c aa b3 ea bc 97 ce 44 bc 70 36 89 bc
       0.030826643 -0.028650124 -0.0120121455 -0.01674959
000270 9b e4 e5 bd 6c 93 d8 3d a6 46 c8 bd 5c 46 28 bc
       -0.11225244 0.105749935 -0.097791 -0.010270681
000280 fc 2a f1 bd 1a fa 22 3d 56 22 cf bd 2e 2e 77 3d
       -0.11775777 0.039789297 -0.10113971 0.060346775
000290 54 9c a1 bd a6 46 e2 3d a3 25 88 3d e9 fc bd 3d
       -0.07891145 0.11048631 0.06647804 0.092767544
0002a0 9c 4c e6 bc 3f a3 33 3b cd 70 ba bd d0 13 c9 3d
       -0.028112702 0.0027410535 -0.09103546 0.09818232
0002b0 ac c1 a9 bd 63 1b 80 3d 28 c8 f7 bc 35 b6 bc 3d
       -0.08288893 0.062552236 -0.03024681 0.09214441
0002c0 bb 28 b2 3d 6f 0b 65 bc ec 07 b5 3c 0c f8 d0 bd
       0.08699175 -0.013979777 0.022098504 -0.10203561
0002d0 e0 b7 16 3d c0 24 ae 3d 8c 2a f9 3d b4 61 dc 3d
       0.03679645 0.08503103 0.12166318 0.10760823
0002e0 1b 48 02 3e e0 9f e8 3c 25 ee 7d 3d 85 6e c8 bc
       0.12722819 0.028396547 0.06199469 -0.024466762
0002f0 79 73 d5 bd f1 fd f7 bd 07 81 86 3b f0 3d 9b 3c
       -0.10422415 -0.12108982 0.0041047367 0.018950433
000300 cb fe fb bc 7a 74 92 3d c3 e5 e1 bd b2 d8 df bb
       -0.030761143 0.071511224 -0.11030152 -0.006831252
000310 ce 93 a1 bd 2d 52 06 3d 92 62 a3 3d 5a cb 1a be
       -0.0788952 0.032793213 0.07977785 -0.15116635
000320 4c 2e c6 bc 8f 76 b6 bd 75 0f 39 bd ea 5c 2e bd
       -0.024191998 -0.08909332 -0.045180757 -0.04256908
000330 2a af 4e bd 40 e7 b4 bd 58 41 f0 bd 79 c4 28 bd
       -0.05046002 -0.0883317 -0.11731213 -0.041202996
000340 72 11 b3 3d f1 98 05 3e 9e 59 87 bc 24 a1 c7 bd
       0.08743562 0.13046624 -0.016522225 -0.09747532
000350 a6 9e e6 3c 24 90 a8 bd c3 f2 07 3d fa 47 bc bd
       0.028151821 -0.08230618 0.0331905 -0.09193416
000360 23 bb 80 3d 7d b9 ec 3d 70 0d 8f bd 5f aa 02 be
       0.062856935 0.115588166 -0.06984985 -0.12760304
000370 e7 24 59 bd 39 24 4e bc eb 9d 28 bd be 09 64 3d
       -0.05301371 -0.012581878 -0.041166227 0.055673353
000380 61 89 f1 bd e2 a4 90 3d 37 ca a9 3b 92 5e 0d be
       -0.11793781 0.07062699 0.0051815766 -0.13805607
000390 81 5d c7 bd 16 6d bc bd bb ea 57 bd 84 a3 0f 3e
       -0.09734631 -0.09200494 -0.05271409 0.1402722
0003a0 bc 55 18 be 0d 0a 76 3c 37 95 1d bd 19 f3 b3 bd
       -0.14876455 0.015017045 -0.03847238 -0.087866016
0003b0 d2 b7 58 bd 88 25 4a bb 78 2f 09 3d 00 cc cf 3c
       -0.05290968 -0.0030845124 0.033492535 0.02536583
0003c0 77 1d 7e bc c4 eb c5 bd a0 b0 f7 3d be d4 e7 3c
       -0.015509955 -0.09664109 0.120942354 0.028299686
0003d0 03 43 bd bd 3c a0 03 be 1f 7f 3a bd a6 31 cb bd
       -0.09241297 -0.12854093 -0.04553139 -0.09921579
0003e0 0b 20 a0 bd c9 22 0c be b0 c9 b2 3d 0c 5f b4 bc
       -0.07818612 -0.13685144 0.08729875 -0.022017978
0003f0 ca 41 2a 3c 66 65 c4 bd ae ea 2f bd 29 a1 cb bd
       0.010391662 -0.09589653 -0.042948417 -0.09942848

mlp_layers.0.bias f4 [64]
000000 c7 91 c5 3e b3 31 ed bd 5f 30 e1 3c a0 c1 eb bd
       0.38587782 -0.11581745 0.027488885 -0.115115404
000010 5e 1b e3 bc 34 1f 72 3d 7f fd 84 3b a3 85 42 3d
       -0.02772301 0.05911179 0.0040585394 0.047490727
000020 3c 56 b1 3d cc b1 14 3d e4 92 3f 3d 53 f9 51 3e
       0.08659026 0.036302373 0.046770945 0.20505266
000030 56 84 af 3e 20 df b3 bd ad 89 45 3e 0f 00 4a 3d
       0.34280652 -0.08782792 0.192908 0.049316462
000040 9a d2 0b be 08 f5 7f bd ce 3e 57 bd 0e 27 5a 3d
       -0.13654557 -0.06248954 -0.05255013 0.0532599
000050 cf ff 9e 3d c4 07 a6 bd 16 a1 58 3e d5 c9 79 3e
       0.07763635 -0.0810695 0.211552 0.24393399
000060 53 56 83 bd 46 88 00 3e 5d b2 c4 3d e3 13 38 be
       -0.064129494 0.12551984 0.096043326 -0.17976336
000070 9e da 41 3b 4e 6d dc bb 90 06 a1 3e 5a d7 3f 3d
       0.002957977 -0.0067268973 0.3145032 0.046836235
000080 bb 89 7f 3d 16 86 80 bd 82 b7 d8 bd 12 65 0b 3f
       0.06238721 -0.06275575 -0.10581876 0.54451096
000090 32 e3 12 be b0 97 c4 3e 5e 0f f3 bd 60 9a 6b bd
       -0.1434448 0.38396978 -0.118681654 -0.05752027
0000a0 2f e6 c8 3e 07 9e 8d bd e8 19 bf bd 4e f6 73 3e
       0.39238116 -0.06914907 -0.09331113 0.23824427
0000b0 bc bf e2 3d 64 43 b0 bd af 86 a6 bd e4 65 7f bd
       0.11071727 -0.08606604 -0.081311576 -0.06235303
0000c0 34 e1 f0 bd 94 d8 7c 3d 11 84 ee bd 4d 54 b0 bd
       -0.11761704 0.061729982 -0.116462834 -0.08609829
0000d0 dc fa c4 3c 38 c3 55 3d 22 d1 05 bd 4a eb 79 3e
       0.0240454 0.05218813 -0.032670148 0.24406162
0000e0 6f 67 a2 bd ff 84 0b bd a4 c6 01 3e 5b 77 99 bd
       -0.07929885 -0.03406238 0.12673432 -0.074934684
0000f0 f4 6a ec ba 84 74 3c be 6a 30 09 3f 00 1e a3 bc
       -0.0018037246 -0.18403822 0.535895 -0.019911766

mlp_layers.1.weight f4 [64, 64]
000000 f5 9b 89 bd 28 26 8e 3e 9d 6c e8 bd af bb 5c bd
       -0.067191996 0.27763486 -0.11348841 -0.053889927
000010 f4 a8 b2 bb 0a 3c 6f bd 69 43 51 3d 44 de 12 bd
       -0.0054522697 -0.058406867 0.051089678 -0.0358565
000020 71 b1 c0 bd 02 1b f2 3d 6e 3f f9 3b e4 3c 07 be
       -0.09408844 0.118215576 0.0076064384 -0.13206822
000030 e7 10 b1 bd 9b c5 b9 3c 03 1c 23 3d 6d ce e7 3d
       -0.08645802 0.022677233 0.039821636 0.113186695
000040 9f 47 0f 3d 96 d5 de bd 77 f9 4d bd 72 2c ec bd
       0.034980413 -0.10880582 -0.050286736 -0.11531915
000050 bf b6 c3 bd 32 30 f7 bd 9a cf 71 3d 9c 9b 16 3e
       -0.095563404 -0.120697394 0.059035875 0.14707798
000060 44 e2 c3 3d 11 29 05 bd 69 0c bb 3d e5 3a d1 bb
       0.09564641 -0.032509867 0.091332264 -0.0063851946
000070 13 56 fd 3d c8 37 e1 bd c6 e6 1d bd 8c 99 40 bd
       0.12369933 -0.109969676 -0.03855016 -0.047021434
000080 34 58 52 3d ce e3 44 bd 31 c2 b5 3c 1f aa 79 3c
       0.05135365 -0.048068814 0.022187324 0.015238314
000090 2c 0d f6 bb 25 ab c5 3d 5b b5 97 bd 94 f2 91 3d
       -0.0075088944 0.09651784 -0.07407638 0.07126346
0000a0 f6 3f b7 3c a5 49 ca 3d a0 a2 b1 3d c4 a3 fd 3c
       0.022369366 0.09877328 0.086735964 0.030961879
0000b0 06 28 7c 3d ab 47 c1 3c 7d 95 c3 3d bd 3a 1d be
       0.061561607 0.023593744 0.09549997 -0.15354438
0000c0 93 30 a6 3d 10 34 88 bd d3 5e 10 3d e9 73 bc 3c
       0.081147335 -0.06650555 0.03524668 0.023004489
0000d0 ff 20 80 3d 7c df b3 3d 0a 41 a4 3c f3 52 ff bc
       0.062562935 0.08782861 0.020050544 -0.031167483
0000e0 c9 65 9a bd 35 9e 89 3c 94 bb 8c 3c 79 ed 95 3e
       -0.07538945 0.016799072 0.017179288 0.2928274
0000f0 75 8d 3d bd d2 0f 1a 3e 22 e2 90 bd de bb 65 bd
       -0.046277482 0.15045097 -0.070743814 -0.056087367
000100 16 13 b5 3d 18 1d 0d 3e e9 ac bd 3d e3 83 26 bd
       0.08841531 0.1378063 0.092614956 -0.04065312
000110 29 a8 3e bd 3f 40 19 bd fb 73 e4 bd 15 95 85 bc
       -0.04654709 -0.037414785 -0.11154934 -0.01630644
000120 ca cc b2 bc c9 43 e3 bd 98 fa 59 bd db 92 66 3d
       -0.021826167 -0.11096913 -0.0532175 0.056292396
000130 67 72 cf bd f4 c0 81 bc df db 82 3c b6 99 f9 bd
       -0.101292424 -0.015839078 0.015973983 -0.12187521
000140 46 b6 c2 bd cc 6e ac bc b0 47 0c be b4 13 aa bd
       -0.09507422 -0.021048926 -0.13699222 -0.08304539
000150 c5 92 8e bd eb e4 08 bd a0 b4 85 bd dc ad 1b 3d
       -0.06961588 -0.03342144 -0.06528592 0.038007602
000160 24 a4 99 3d 2d 65 a7 bd 35 28 94 3d 4c 59 7c 3d
       0.075020105 -0.081735946 0.072342314 0.061608598
000170 4d 9a 88 bd ca 4e 9f bd f8 c0 65 bc 43 64 97 3c
       -0.066700555 -0.077787 -0.014023058 0.018480426
000180 a0 d3 81 bc 65 24 97 bd 4e f3 c9 3a 0c fc 82 bd
       -0.015847981 -0.073799886 0.0015407593 -0.063957304
000190 6c 5d 1c be 73 7c de 3c 67 f1 e4 3d d4 d9 58 3d
       -0.15270013 0.027158951 0.11178856 0.052942112
0001a0 3c 57 f1 3d 83 dc d9 3d 21 e7 a2 bd 8a 75 65 bd
       0.11784217 0.106377624 -0.079542406 -0.056020297
0001b0 b4 36 d7 bd cb ce 93 3c bc 46 d4 3d 00 97 ae bd
       -0.10508481 0.018042943 0.10365054 -0.08524895
0001c0 98 1b aa 3b 1e c1 7f 3d 6b d2 2e 3d d3 c8 d7 3d
       0.0051912777 0.06244003 0.04268114 0.10536351
0001d0 39 ab 4d bc 71 4e 15 bc 15 03 bc 3b 0e 02 ac 3d
       -0.01255303 -0.00911294 0.005737672 0.083988294
0001e0 92 aa 56 bd 69 e8 43 3e bc 44 55 3d 99 bf 46 3e
       -0.052408762 0.19131626 0.052067503 0.19409026
0001f0 10 77 a3 3c 72 b8 11 3e 85 8e 30 3d eb c7 9f 3d
       0.019954234 0.14230517 0.043104667 0.07801803
000200 22 f0 be 3d 78 21 4a 3c dc 0e d5 bd 23 64 70 3d
       0.093231454 0.012337081 -0.10403225 0.058689248
000210 53 8b fa bc a0 e0 be bb 2b 0d de 3c 62 5b f1 3d
       -0.030584013 -0.005825117 0.027105888 0.11785008
000220 91 09 a5 3c fb 4d 59 bd be 56 55 bd 4d f8 0c bd
       0.020146163 -0.053052884 -0.052084677 -0.034416486
000230 e5 60 55 3d 7a ca 00 3e 97 e8 4e bd f6 9f b7 bd
       0.05209436 0.12577239 -0.050514784 -0.08966057
000240 0a dc f1 3b cf 98 04 3d a8 b4 31 bc d3 6d cd 3b
       0.007380967 0.032372292 -0.010846294 0.0062691956
000250 b6 e0 c2 3c 9c 82 c4 3d 09 e4 5e bb b9 9d c3 bd
       0.023788791 0.09595224 -0.0034010431 -0.095515676
000260 95 3b 61 3d 4f 21 1f 3d ea 20 86 3d 69 e5 24 3c
       0.054988462 0.038850125 0.065492466 0.010064461
000270 2f 19 00 3d ae a4 93 bc a5 96 ce bd a7 17 f2 bd
       0.031274017 -0.018022861 -0.10087327 -0.118209176
000280 85 37 8b 3c a3 a4 c7 bd 6b 6d 93 3c 92 7d 29 bd
       0.016994247 -0.09748199 0.01799651 -0.04137952
000290 3c c5 9f 3c 8a 35 bd bd 66 02 65 bb 5b e6 1e 3d
       0.019503228 -0.092387274 -0.0034944057 0.038793903
0002a0 6d e3 12 3d f4 60 db bd 7b b4 6e 3d 97 99 4b 3d
       0.03586142 -0.10711852 0.05827759 0.04970702
0002b0 7c e0 6e 3d d6 33 ae bd a9 88 a3 3d 2c a1 e2 3d
       0.058319554 -0.08505981 0.0798505 0.11065897
0002c0 b3 79 de bd cf 59 d7 3d 2d 7e d7 bd 28 c4 91 bd
       -0.10863056 0.105151765 -0.10522113 -0.07117492
0002d0 55 00 bc 3d 75 bc b9 bd 4a 6f bb 3d 8f a3 d0 bd
       0.09179751 -0.090691485 0.09152086 -0.10187446
0002e0 09 6e 13 3e 32 51 0a 3e 9a 2c bf 3d cc 8e 20 3e
       0.14397444 0.13507536 0.09334679 0.15679473
0002f0 40 30 a9 bd a7 eb 08 3d 99 54 33 be 3c 2b 7e bd
       -0.08261156 0.03342786 -0.1751274 -0.06205295
000300 9b 32 ad 3d e4 0b 0e 3e a6 a5 91 bc 48 25 0d 3d
       0.08456918 0.13871723 -0.017779183 0.034459382
000310 f7 04 71 3d 7f 81 02 3e 36 c8 ea 3d e7 e4 9e bd
       0.058842625 0.12744711 0.114639685 -0.077585034
000320 5e 73 af 3c 86 a2 db bc d1 25 ca 3d 82 29 33 bd
       0.021417316 -0.026810896 0.09870494 -0.043740757
000330 07 f9 b3 bd 8b cb 2d b9 b7 b4 ea bb 8a c3 8b 3c
       -0.087877326 -0.00016574391 -0.007162656 0.017061014
000340 b4 36 8a bd 99 b0 9e bc 77 8a d3 3d e0 4a e1 bd
       -0.06748715 -0.019371318 0.103291444 -0.110006094
000350 0b 4a 3b 3d 58 1f 2f bd 09 b0 a8 3d a9 65 d9 bd
       0.04572491 -0.0427545 0.08236701 -0.10615093
000360 9e 08 b3 bd cd d6 13 3d 7b b4 7e 3b 30 d9 26 bd
       -0.08741878 0.036093522 0.00388649 -0.04073447
000370 12 04 e2 3d c9 25 b1 bd e1 bd 3a 3d e3 51 f1 bc
       0.110359326 -0.08649785 0.04559124 -0.029457992
000380 f5 bc a6 3d 6c 90 02 3d ba 8e 93 3d 0f c5 a1 bd
       0.081415094 0.031876013 0.07204957 -0.07898914
000390 d2 05 63 bd 8e 5d 8f bc 1b a7 ad bd 9c ab 65 3d
       -0.055425473 -0.017500665 -0.084791385 0.056071863
0003a0 33 b8 52 3d 16 62 77 bd 37 e8 62 bd fa cd 21 be
       0.051445197 -0.060396276 -0.05539724 -0.1580123
0003b0 b4 41 8b 3d 8c 38 9b bc 5c 0b bc bc e9 15 b9 bd
       0.06799641 -0.018947862 -0.022954635 -0.09037382
0003c0 fd 31 a7 bd d3 dd 2c 3d 78 13 95 bd 9e 5a 04 3e
       -0.081638314 0.042203736 -0.07279104 0.12925193
0003d0 49 38 46 3e 76 d7 a6 bc 05 fc 90 3d ba e4 18 3d
       0.19357409 -0.020366412 0.07079319 0.037327506
0003e0 2c a8 9c bd ea 52 2b 3d 64 17 ea bd 50 2f 3e 3e
       -0.07649264 0.04182712 -0.11430243 0.18572736
0003f0 71 8c 19 3c 65 f9 e1 3c 9c 3a 54 3b 58 19 00 3b
       0.009371863 0.02758474 0.0032383567 0.0019546356

mlp_layers.1.bias f4 [64]
000000 12 d7 c4 bd 7b 54 69 bc 7a 82 1d bc 9b 56 1a 3d
       -0.09611334 -0.014241333 -0.009613628 0.03768025
000010 87 ca 34 bd 5e f2 f9 3d 9b 20 97 bd f4 9c 20 3e
       -0.044138458 0.12204431 -0.07379266 0.15684873
000020 5f 4e be 3d fe 52 b4 bd 01 4a 09 3e 90 2e f9 bd
       0.09292292 -0.08804892 0.13407136 -0.12167084
000030 98 2a cc 3d d9 24 f6 bd 6c 77 ef bd e3 fe 57 bd
       0.099690616 -0.12018747 -0.116927 -0.052733313
000040 8a d3 12 bc 55 bc ef 3d 5d b8 94 bd 62 40 b1 bc
       -0.008961568 0.11705843 -0.07261727 -0.021637145
000050 e9 d0 53 3d b3 7c 43 bb 37 f5 29 3e c6 d9 24 3d
       0.051712904 -0.0029828965 0.16597448 0.040246747
000060 46 d5 17 ba 41 a8 e2 bd 95 5e 23 be 1d 13 ab bd
       -0.0005791973 -0.11067248 -0.15954049 -0.08353255
000070 51 9e 2d be 67 45 19 be ba 70 e6 3c ee 51 30 be
       -0.16954924 -0.14967881 0.028129924 -0.17218754
000080 b5 2d f6 3d b8 7a 7c bc e9 46 c3 3c dd aa 74 3c
       0.12020437 -0.015410118 0.023837524 0.014933315
000090 8b a5 40 3d d5 62 be bd 81 46 23 bd 3c 0c e8 3d
       0.047032874 -0.092961945 -0.03986216 0.113304585
0000a0 e7 8a 80 bd bd be b9 bd c0 5b 89 bd b2 7f 0c 3d
       -0.062764935 -0.090695836 -0.06706953 0.034301467
0000b0 19 37 4e 3e 2c 68 aa bd a9 1a 05 3e 81 5b 2e 3e
       0.20138206 -0.083206505 0.12998451 0.17027093
0000c0 25 d6 97 3b 1a 68 07 be b8 cc 24 bd bc 48 d0 bd
       0.0046336823 -0.13223305 -0.040234298 -0.10170123
0000d0 6f 95 02 bd 3b c0 ea 3d 08 5a d6 bd 00 94 c4 bd
       -0.031880792 0.11462446 -0.10466391 -0.09598541
0000e0 5f 7f 2a 3e 1d 43 1b 3e 3d 98 32 bb 8b ad ae 3d
       0.1665015 0.1516232 -0.0027251386 0.085291944
0000f0 7f b2 5a 3e 7b 7a 44 bc ac 8d 92 3d e6 50 e5 3b
       0.21357153 -0.011992092 0.07155928 0.0069981692

mlp_layers.2.weight f4 [1, 64]
000000 10 cb a3 bd 94 2e ea bd da 13 85 bd 1d ae cb bd
       -0.079977155 -0.11434665 -0.06497927 -0.09945319
000010 1c 8c a9 39 ee cd 0f 3d 85 33 6b bd 86 ee 84 3d
       0.00032338582 0.0351085 -0.05742218 0.06490807
000020 dc a1 9e bd aa 4d 80 3d e1 fb bf 3b bf 63 5d 3d
       -0.07745716 0.06264813 0.0058588837 0.054050203
000030 65 b6 c7 bd 09 1f dc 3c 13 bc da 3c c2 f3 62 bd
       -0.09751586 0.026870267 0.026701009 -0.055408247
000040 a4 54 f9 3d 5f 90 97 bc ae 9e d1 bd fa 92 ae be
       0.12174347 -0.018501459 -0.10235344 -0.3409651
000050 c5 58 7d 3d 82 bf a4 bd f1 c2 8f 3d de d5 c4 bd
       0.061852235 -0.0804434 0.07019604 -0.096111044
000060 db 4d 12 be b7 9c 07 3d 3d ac 52 be 9a 1f 89 bd
       -0.14287512 0.03310844 -0.20573516 -0.06695481
000070 51 65 46 bd 3e dd ea 3b 0a d7 52 be 67 97 62 3d
       -0.048436467 0.0071674874 -0.20589843 0.05532017
000080 a5 e4 5c 3c 3e aa 78 3d 1a 95 7d bd 87 36 24 bd
       0.0134822475 0.06070923 -0.061909772 -0.040091064
000090 48 1f bd 3d bf a5 78 bd f7 e8 95 be 03 9b a0 bd
       0.09234482 -0.060704943 -0.292793 -0.07842066
0000a0 2c a2 84 3b 70 e6 cd bd 05 87 89 bd 0e 67 2c 3d
       0.0040476527 -0.10053718 -0.06715206 0.042090468
0000b0 f2 78 a4 3d 97 82 8b 3d e4 15 fe 3d 05 16 9c 3c
       0.08030881 0.068120174 0.12406519 0.019053468
0000c0 1d a8 c9 3c d8 55 24 be 35 e1 94 be 59 d7 93 be
       0.024616295 -0.16048372 -0.2907807 -0.28875235
0000d0 ba c3 ca bd 2a 4f 23 3e c9 b2 06 3d 0c 14 ad bd
       -0.09900613 0.15948167 0.032885347 -0.08451089
0000e0 20 93 e5 3d fa 67 22 3c be 4f 61 3d b7 a4 5d 3d
       0.112097025 0.009912485 0.05500769 0.054112162
0000f0 b1 a6 02 3d 33 59 02 be be 4c 00 3e 0d 57 a6 bd
       0.03189725 -0.1272934 0.12529275 -0.08122072

conv_layers.0.w_1.weight f4 [64, 64]
000000 df 34 ef 3e 4a f4 f5 3d 18 8a 06 bd 9e 09 fb bd
       0.46720025 0.12009485 -0.03284654 -0.12257694
000010 08 37 fe bc c8 7d c3 bd 9e b3 cb bd ee 42 91 3d
       -0.0310321 -0.09545475 -0.09946369 0.07092844
000020 d6 e2 a6 bd 3e 0a b2 3d 80 16 4f 3c 78 d8 f9 bc
       -0.08148734 0.0869336 0.012639642 -0.030498728
000030 e4 6d 34 bd c4 8d 34 bd 20 c1 df 3d e0 ef e5 bc
       -0.044050112 -0.04408051 0.109255075 -0.028068483
000040 b8 a6 94 bd c8 87 de bc ce a8 ef bd 98 7e 9d 3d
       -0.072583616 -0.027164355 -0.11702119 0.076901615
000050 18 34 00 bd 60 88 f2 3b d4 b7 fa bd a0 0c b6 bc
       -0.03129968 0.007401511 -0.12242094 -0.022222817
000060 1e 8a 99 3d 84 a4 8d bd 20 2b 34 3c 5e 6a e8 bd
       0.07497047 -0.069161445 0.01099661 -0.11348413
000070 f6 c6 e3 bd 88 bd d2 bc 38 41 f7 3d 98 f5 bd bc
       -0.11121933 -0.025725141 0.12072986 -0.023188397
000080 38 c6 7a 3d 40 50 5b 3b b6 ef 9c bd 78 aa a2 3c
       0.061224192 0.003346458 -0.07662909 0.019856676
000090 80 45 b2 bb bc c2 37 3d 94 40 4f bd 5c ab 6d 3d
       -0.005440414 0.044863448 -0.050598696 0.05802475
0000a0 ee 7d df bd ac 3b dc 3d 30 76 d2 bd 52 d0 f3 bd
       -0.10912691 0.10753569 -0.10276449 -0.11904968
0000b0 fc d7 15 bd b0 59 7d 3d c2 1f fd bd 88 f4 74 bd
       -0.036582932 0.06185311 -0.12359573 -0.059803516
0000c0 34 15 19 bd 18 37 ed 3d 18 8b c6 bc 6e a3 b6 bd
       -0.037373737 0.11582774 -0.024236247 -0.089178905
0000d0 b4 c2 e1 bd 8c c5 5d 3d c0 11 22 3d 8a 11 8b bd
       -0.11023465 0.054143474 0.03956771 -0.06790455
0000e0 24 2a 17 bd 40 fe 79 3d 82 cd b4 bd de 96 b7 bd
       -0.036905423 0.061033487 -0.0882826 -0.089643225
0000f0 88 c9 55 3d 7e 5c 92 bd 90 b0 48 3c 4a 5d c3 bd
       0.05219415 -0.07146548 0.012249127 -0.09539278
000100 c0 97 a5 bd 1c 3e 4a bd 58 38 99 bd fc 93 6a 3d
       -0.08085585 -0.04937564 -0.0748145 0.057270035
000110 ce 33 b9 bd 44 42 4f 3d 26 31 ed bd 34 cc 3e 3d
       -0.09043084 0.050600305 -0.1158164 0.046581462
000120 00 00 29 b9 90 3d ce 3d c0 4a 07 3b 86 8d cc 3d
       -0.00016117096 0.10070336 0.002064392 0.09987931
000130 f4 fe a6 bd 4c cf 3f bd a8 4e f9 bc c4 ee d0 bd
       -0.08154097 -0.046828553 -0.030433014 -0.10201791
000140 f0 de 4c bc 00 4c 22 3d 40 c8 0a 3d 3c 17 b2 bd
       -0.012504324 0.03962326 0.03388238 -0.08695838
000150 2e 69 a1 3d 88 13 f9 3c 00 0c 25 39 74 1e d9 bd
       0.078813896 0.030404821 0.00015740097 -0.106015116
000160 c0 b4 72 bc 06 51 aa 3d 70 6e 45 3c d8 43 6b bd
       -0.014813602 0.08316235 0.012050256 -0.057437748
000170 58 b0 1f 3d 00 2e 3c ba c0 63 92 bd d4 4f 36 bd
       0.038986534 -0.00071784854 -0.07147932 -0.044509724
000180 fa 22 d1 3d d0 46 a7 3c 1e 29 a4 bd d4 8c 3d 3d
       0.102117494 0.020419508 -0.08015655 0.046276882
000190 c8 19 93 bc 04 24 1e 3d 14 72 9c 3d 68 08 9b bc
       -0.01795663 0.038608566 0.07638946 -0.018924907
0001a0 ac c7 6f 3d e6 7e d6 bd 2c 24 57 bd c8 00 b8 bd
       0.05854003 -0.10473423 -0.05252473 -0.08984524
0001b0 5c 43 a8 bd 3c 61 4d 3d dc 3e 59 bd 4a 9e 9f bd
       -0.08215973 0.050141558 -0.053038463 -0.07793863
0001c0 20 b8 2a bd 70 36 cc 3c 06 95 cf bd ac 85 9c bd
       -0.0416795 0.024928302 -0.10135846 -0.076426834
0001d0 b0 f8 cb 3c 5a f2 d8 bd 1c b3 a8 3d 46 3a e3 bd
       0.024898857 -0.105931 0.082372874 -0.11095099
0001e0 a8 fb 68 3d 3a 25 d6 3d 40 85 2c 3d f0 32 b6 3d
       0.056880623 0.10456319 0.042119265 0.08896434
0001f0 2c 35 cd bd 98 6f b5 bc 94 3c 23 3d 18 73 cc bc
       -0.10019907 -0.022147939 0.039852694 -0.024957225
000200 17 5b 1a be 3c a6 28 bd 12 3d bc bd f4 7c 4d bd
       -0.1507381 -0.04117416 -0.09191336 -0.050167993
000210 a8 76 d1 bd ce 44 9d 3d b0 a3 a2 3c 3e d4 95 3d
       -0.1022771 0.07679139 0.019853443 0.073158726
000220 90 a6 77 bc 72 13 98 3d 70 77 13 3d 38 a6 c7 bd
       -0.015115395 0.07425584 0.036002576 -0.097485006
000230 3c 29 7d 3d b2 18 a0 3d 10 90 15 3c 5c be a2 3d
       0.061806902 0.0781721 0.009128585 0.079464644
000240 e0 c7 97 bc 2e 42 ea 3d 7e 8c f5 bd f2 5b e5 3d
       -0.018527925 0.11438404 -0.119896874 0.11199178
000250 a8 66 ec bc 00 54 1f 3c 08 f0 b1 3d 54 d7 40 bd
       -0.028857544 0.009724617 0.086883605 -0.047080353
000260 14 b7 54 bd 48 98 8f bc 68 b6 ce 3d 40 07 2e bc
       -0.05193241 -0.017528668 0.10093385 -0.010621846
000270 98 d6 4c bd 78 a3 fd 3c 20 d1 e1 3d 3a 4d 97 3d
       -0.05000934 0.030961737 0.110262156 0.07387777
000280 40 da 21 bd d8 bc c3 3d c0 72 d2 bd 88 ed 17 3d
       -0.03951478 0.095575035 -0.10275793 0.03709176
000290 98 50 a7 3d 40 67 cf bb ac f4 62 3d 68 42 cf bd
       0.08169669 -0.006329447 0.05540912 -0.10120088
0002a0 90 c0 8e bd c0 76 8a bc 28 28 55 3d 24 11 09 bd
       -0.06970322 -0.016902328 0.05204025 -0.033463612
0002b0 f0 35 85 bc 30 01 21 3d de 64 b8 bd 30 fe 5b bd
       -0.016261071 0.039307773 -0.09003614 -0.05370921
0002c0 f0 68 77 3d 80 65 30 3b a0 20 51 bc 6a d3 a4 bd
       0.06040281 0.0026915967 -0.012764126 -0.080481365
0002d0 24 28 5d bd e0 4e 2c 3d 90 33 d5 3c b8 2e eb bc
       -0.05399336 0.04206741 0.026025563 -0.0287088
0002e0 80 65 9a 3a 4a 82 a3 bd 52 1b e1 bd fc 58 86 bd
       0.0011779517 -0.07983835 -0.10991539 -0.06559941
0002f0 80 8e 1d 3d a4 34 ef 3d 88 da 3d 3d 24 f8 aa 3d
       0.038465977 0.11679962 0.046350986 0.0834811
000300 78 12 9a 3e a8 7e 89 bc 5a e9 cf 3d 2c be 00 bd
       0.30092216 -0.016784027 0.1015193 -0.031431362
000310 8c 8e 29 bd 70 8d dd bd 78 14 9e bd d2 6d b6 bd
       -0.04139571 -0.10817993 -0.07718748 -0.08907665
000320 fa f9 cd bd 38 1b d9 3d cc 2b af 3d 54 e4 42 bd
       -0.10057445 0.10600895 0.085532755 -0.047581032
000330 50 4e 58 3c b8 74 4f bd 28 42 fb bc 80 4d aa bc
       0.013202265 -0.05064842 -0.030671194 -0.020788908
000340 50 7f c0 3c 60 24 9c 3d 02 76 e0 bd ca d7 96 bd
       0.023498207 0.076241255 -0.10960008 -0.07365377
000350 d8 66 e4 3c f0 cf be bc 80 c7 99 3c bc 32 3a 3d
       0.027881071 -0.023292512 0.018771887 0.04545854
000360 40 f1 59 bd 20 78 b8 bc 74 36 c1 3d 34 87 c9 3d
       -0.05320859 -0.022518218 0.09434214 0.09840241
000370 da 7a c1 3d 10 10 bf 3d 3c b3 b5 bd 92 23 bd bd
       0.0944726 0.093292356 -0.08872077 -0.092353
000380 b8 1e 68 bd 84 44 7a 3d ee 13 fe bd 30 99 84 3d
       -0.05666992 0.061100498 -0.12406145 0.06474531
000390 00 7a 16 bd 00 e5 0b bc e0 da d6 bb dc fe 84 bd
       -0.036737442 -0.008538485 -0.0065568537 -0.06493923
0003a0 14 5d fe bd 30 28 c3 bd 00 f1 cd 3a 2e ea 84 3d
       -0.12420097 -0.095291495 0.0015712082 0.06489979
0003b0 e8 35 f0 bd 60 fa d0 3c 98 72 18 bd 06 5a 83 bd
       -0.11729032 0.025510013 -0.03721866 -0.06413655
0003c0 40 87 13 3b fc 28 bc 3d 94 bc df bd 2c b3 9d bd
       0.0022511035 0.09187505 -0.1092464 -0.0770019
0003d0 34 99 56 bd dc 5d 5f 3d 0a 4c e6 3d a0 60 b4 3c
       -0.0523922 0.05453287 0.11244972 0.02201873
0003e0 28 05 89 bc 88 12 9b 3c 70 21 2a 3d b8 12 0a 3d
       -0.016726092 0.018929735 0.041535795 0.033709258
0003f0 ca 37 95 bd 10 9c eb bc 04 a2 bc bd 38 d4 87 3d
       -0.072860315 -0.02876094 -0.092105895 0.066322744

conv_layers.0.w_1.bias f4 [64]
000000 fb 51 ba 3e 7e 5b 64 be f1 05 f6 bd a8 db f1 3d
       0.3639067 -0.22300526 -0.12012852 0.11809474
000010 90 3a 41 3c 82 4f 41 3e 5b 68 1b 3e bf 1f a9 3d
       0.011793748 0.18877986 0.15176527 0.08258008
000020 77 9c 34 be f3 d7 b6 3e e8 34 b6 3d a1 36 c4 3c
       -0.17637812 0.3571163 0.0889681 0.02395183
000030 83 1c 12 bd 16 ba da 3d c5 46 3e 3d dc fd ff bd
       -0.035671722 0.10680024 0.04645421 -0.12499592
000040 10 c6 fd 3d 4c 18 73 3d 58 1a 59 bd 67 27 5d bd
       0.12391293 0.059349343 -0.05300364 -0.053992655
000050 aa b9 86 be 93 93 71 bc f0 d4 70 bd aa f4 ce 3d
       -0.26313525 -0.014744657 -0.058796823 0.1010526
000060 0c cf 0e 3d 79 01 f6 bd f7 6e 03 be dc 1a 39 3d
       0.034865424 -0.12012 -0.12835298 0.04519163
000070 c7 ed a3 bd 6a b5 99 bd f5 aa 1e be 2c 5d 0d be
       -0.08004337 -0.07505305 -0.15494902 -0.13805073
000080 b8 f9 56 3d cf 29 8d bb d4 1d 96 bc 9e 60 66 bd
       0.052484244 -0.0043079625 -0.01832477 -0.056244485
000090 00 b4 c0 3e ec 36 ad 3c dc a3 97 3d 24 5b 88 3d
       0.3763733 0.021144353 0.074043006 0.06658009
0000a0 c5 84 f0 bb 59 57 1b be a7 63 89 bd 61 f7 cf 3d
       -0.007340046 -0.15170039 -0.0670846 0.10154606
0000b0 4e 08 64 3d c6 ec 17 3c 40 1b b6 3d 6a 49 d0 bb
       0.055671982 0.00927276 0.08891916 -0.006356408
0000c0 ad 8b a4 bd 4f b5 4b be de 9e 4d be 2d 62 07 3d
       -0.080344535 -0.19893382 -0.20080134 0.033052612
0000d0 0d 3f 70 bc 15 1b 5d bd 4c 6d 73 3d fa 05 30 be
       -0.01466347 -0.053980906 0.059430405 -0.1718978
0000e0 02 e7 77 3d 8a 60 8d bd 1f ab 98 bc 84 c5 31 3e
       0.06052304 -0.06903179 -0.018636284 0.17360502
0000f0 e2 d4 5e be 16 4b 6d 3c 82 71 4e be 78 fb 42 3e
       -0.21760896 0.014483234 -0.20160487 0.1904124

conv_layers.0.w_2.weight f4 [64, 64]
000000 71 da 17 be 05 02 92 bd a9 34 0f bc e7 33 2d bd
       -0.14829423 -0.071292914 -0.0087405825 -0.042285826
000010 7f c6 97 3d 51 8b e7 bd 08 c4 50 be 52 02 99 bd
       0.07410907 -0.11305869 -0.2038728 -0.07471146
000020 73 02 aa bc 66 36 f8 bd d3 2a 68 bc 80 2c 47 3d
       -0.020753121 -0.12119751 -0.014170366 0.048626423
000030 7b 32 97 3c 23 a7 c5 3d 1c 00 3d 3d b6 aa f5 bd
       0.018456688 0.096510194 0.046142682 -0.11995451
000040 0f c0 4b bc f5 f1 0d 3d ed ce b0 3d ea 8c de 3c
       -0.012435927 0.034654576 0.08633218 0.027166802
000050 f5 c7 e3 bd 85 09 d1 bd 0e 16 1d 3d eb 48 80 bc
       -0.11122123 -0.10206894 0.03835111 -0.01565977
000060 9c 63 72 bb 3a 22 11 bc a6 1b 4c 3d c8 10 c3 bc
       -0.0036985641 -0.008858258 0.049831055 -0.023811713
000070 72 91 79 3d e6 66 af 3d c0 7d f7 bc e1 83 69 bd
       0.060929723 0.08564548 -0.03021133 -0.057010535
000080 ba cc 2b 3d 39 84 60 bd cf 0b 65 bd e6 f6 e1 3c
       0.04194329 -0.054813597 -0.055919465 0.02758355
000090 ae 01 02 be a1 2b 93 bd c0 f8 53 bd 94 c9 be 3d
       -0.12695953 -0.07186056 -0.0517509 0.09315792
0000a0 01 91 c9 bd aa 4e 88 bd 1a 2c 56 bd d9 bd 91 3e
       -0.098421104 -0.06655629 -0.052288152 0.28465155
0000b0 b7 c3 63 bd e0 e0 56 3e e6 06 d1 3d 56 7f 98 3d
       -0.05560657 0.2098422 0.10206394 0.074461624
0000c0 3c 88 d5 3d e0 92 95 ba fa 0e 06 be 66 2a b8 bd
       0.10426375 -0.001141157 -0.1309165 -0.08992462
0000d0 4b 3c d9 bd 12 9f f6 3d 2d 68 a1 3c 78 59 0e 3c
       -0.10607203 0.12042059 0.019702995 0.008688323
0000e0 9f 25 99 bd 15 96 ec bc 44 12 32 3d a0 4a 1f be
       -0.07477879 -0.028880158 0.04347445 -0.15555811
0000f0 6b c6 02 be ec da a5 39 b3 52 ed 3c 5f 1b 9a 3d
       -0.12771003 0.00031634362 0.028970098 0.07524752
000100 35 0e 10 bd 06 d0 f3 3d 0c 11 d8 bc 22 21 0c be
       -0.0351698 0.11904912 -0.026375316 -0.13684514
000110 7b 87 19 bc 4d 51 cb bd 0b 3a f9 bd 3b 9b 93 3a
       -0.00937068 -0.09927616 -0.12169274 0.0011261472
000120 79 73 11 bc ac 41 59 bd 19 02 17 bd eb f5 3d 3d
       -0.0088776285 -0.053041145 -0.036867235 0.046377104
000130 8c c2 e0 3d b4 fe af 3d 0c b0 d6 3d 1d c2 3f 3d
       0.10974607 0.08593503 0.10482797 0.04681598
000140 52 f2 58 3d 41 5e e4 3d 46 d9 ea b9 e5 79 c8 bd
       0.05296547 0.1115079 -0.0004479384 -0.097888745
000150 e0 47 eb 3d c6 22 19 bd 1b 54 97 bd 4e fb d4 bd
       0.114883184 -0.03738668 -0.07389089 -0.10399495
000160 b4 f5 99 bd 0e 7e 61 3d 6d 98 c0 3a 52 89 b9 3d
       -0.07517567 0.055051856 0.0014693864 0.09059395
000170 ac d2 02 3e 2b 86 0a be 2e 51 dc bb 65 a6 94 bd
       0.12775677 -0.13527744 -0.0067235446 -0.072583
000180 87 4b 92 bd bf b2 00 3e 4d 04 cc 3c 83 3b c4 3d
       -0.07143312 0.12568186 0.024904395 0.095816635
000190 99 b1 a0 bd 1b 33 b2 bd 5c 24 d8 3d fb 9e 90 bd
       -0.07846374 -0.08701154 0.1055381 -0.07061573
0001a0 05 d7 77 bd 20 2b 06 3e 67 93 ae bd 8a 79 17 bc
       -0.060507793 0.13102388 -0.085242085 -0.009245286
0001b0 aa fc b7 bd 93 02 94 bb 6e e5 87 bd fb ed 1c bd
       -0.08983739 -0.0045169084 -0.06635557 -0.038312893
0001c0 d3 10 4b bd 76 9e eb 3d 5f 11 d2 bc 75 15 d1 3d
       -0.04957659 0.115048334 -0.025643049 0.10209171
0001d0 25 fa 02 bd f8 d6 11 3d 77 60 02 3e 1d 5f a9 3d
       -0.031976838 0.0356054 0.12732111 0.082700945
0001e0 e4 a7 c8 bd 3d ef 12 bd 59 b7 9a bd 38 50 a5 3c
       -0.097976476 -0.035872687 -0.07554502 0.020179853
0001f0 98 f9 8b 3d 36 0e 4e 3d 4b fa a8 3d 0b 8f 80 bd
       0.068347156 0.05030652 0.082508646 -0.06277283
000200 64 53 ca 3d 89 30 d5 3d 4f 05 8f 3c 38 a0 e7 3d
       0.09879187 0.10409648 0.017458586 0.11309856
000210 e5 3a 8a bd 91 09 ae bd ec 30 f9 3d fd b1 d5 3d
       -0.067495145 -0.084979184 0.12167534 0.10434339
000220 33 8e b0 3d 74 31 4e bd db 26 fe bd 55 a4 8f bd
       0.08620872 -0.05034013 -0.12409755 -0.07013766
000230 dd 2e 38 bc a6 58 08 3d 2b b7 31 3d af 4c f0 bd
       -0.011241642 0.033287667 0.043387573 -0.11733376
000240 e0 e5 90 bd 24 cb 97 3d da 94 00 be 5f 50 c2 bd
       -0.07075095 0.07411793 -0.12556782 -0.09487986
000250 a5 01 75 bd 2c 6c bc 3c 52 e5 df 3d 89 42 99 bd
       -0.05981602 0.0230008 0.10932411 -0.07483394
000260 d9 58 59 3d b2 93 c6 bd 9b 22 91 3d 74 0a 40 bd
       0.053063247 -0.096961394 0.070866786 -0.04688497
000270 6b 06 37 bd 25 38 a3 3d 1f f5 b1 3d 31 ea e6 bd
       -0.044683855 0.07969693 0.08689331 -0.11275137
000280 66 1b cc 3d 52 ec a7 3d b5 1d 92 3d 23 0e 5f 3b
       0.09966163 0.081993714 0.071345724 0.0034035526
000290 aa 66 a5 3d e4 f1 e4 3c c2 4d da 3d 57 25 80 3d
       0.08076222 0.027947374 0.106593624 0.06257122
0002a0 fa 62 b5 bd fc 89 4d bd 4b 58 0b 3d 5a e4 da ba
       -0.08856769 -0.05018042 0.03401975 -0.0016700134
0002b0 f0 79 29 bc fc 63 ab bd 36 00 d6 bd 1c c2 06 3d
       -0.010344014 -0.0836868 -0.10449259 0.03289996
0002c0 ce 48 14 3d cd 59 3d bd 84 00 0c be bd 20 bc 3d
       0.036202244 -0.04622822 -0.13672072 0.09185932
0002d0 cd d5 0b be bf 13 59 bd 64 5c 57 bd d2 73 57 3d
       -0.13655777 -0.052997347 -0.052578345 0.05260069
0002e0 8a 76 51 bd 49 5f cd 3d 64 bd bc 3d 42 86 03 3e
       -0.05113844 0.1002794 0.09215811 0.12844184
0002f0 db 27 60 bd 13 80 9a bd cc f4 a6 3d ac 44 b7 bd
       -0.05472551 -0.075439595 0.0815216 -0.08948645
000300 87 48 d8 bd b0 44 01 be d7 f7 be bd 2e 25 bb bd
       -0.105607085 -0.12623858 -0.093246154 -0.09137951
000310 58 ec bc bb e6 90 d0 bd 20 5e bc bd aa d5 ac bd
       -0.005765479 -0.10183887 -0.091976404 -0.08439191
000320 7d 39 31 3d ad b3 f5 3d 3a f1 d8 3b 59 9c 00 be
       0.043267716 0.11997161 0.0066205533 -0.12559642
000330 51 51 5b 3d 43 3a 04 bd 1e 58 0b be 71 5b c2 bd
       0.053544346 -0.032282125 -0.13607833 -0.09490097
000340 46 e3 9b 3d 61 ea c8 3d 70 8b f4 bd 0b e1 e8 bd
       0.07611708 0.09810329 -0.11940658 -0.113710485
000350 d6 c8 f3 bc 40 8a b5 3d 6b 70 83 bd 4c b8 fc bd
       -0.029758852 0.0886426 -0.064179264 -0.12339839
000360 c1 05 d3 bd b4 df c7 bd a1 d8 5a bd 00 d3 27 3e
       -0.10303832 -0.09759465 -0.05342925 0.16389084
000370 a1 82 46 3d 38 0e 0c 3e bd 52 33 bd b5 32 98 3d
       0.04846442 0.13677299 -0.043780077 0.074315466
000380 0b e1 90 bd a5 46 f2 3b 7f 26 73 3d ce 5d 89 bd
       -0.070741735 0.0073936754 0.059362885 -0.06707345
000390 67 8d 0a 3e d4 f0 45 3d cc 8d e9 bb 1e 34 de 3d
       0.13530503 0.048325375 -0.007127499 0.10849784
0003a0 3a e1 bf bd 07 6e 93 3d 42 f3 68 bd fb e1 3f bd
       -0.093691304 0.071987204 -0.056872614 -0.04684637
0003b0 56 3c ec bd d3 7b 04 3d f6 6e 08 bd 1d 6b 12 3e
       -0.11534946 0.03234465 -0.033308946 0.14298673
0003c0 f0 a1 87 3d 80 2d 29 bc c7 ae 97 bd 62 10 58 bc
       0.06622684 -0.010325789 -0.07406383 -0.0131875
0003d0 11 7f 5e 3d 94 4b b6 bc ff 91 3b 3b b0 4e b6 3d
       0.0543204 -0.022252835 0.0028620956 0.08901727
0003e0 53 9a 06 be 11 d7 68 3d b2 81 13 bc 0e 49 00 3e
       -0.13144808 0.05684573 -0.00900309 0.12527868
0003f0 4e 58 41 bd 0d 9a d2 bd f2 c6 1a 3e 5b 31 80 3d
       -0.047203355 -0.10283289 0.15114954 0.06259414

conv_layers.0.w_2.bias f4 [64]
000000 19 f4 ee 3e ca 96 83 be 19 9e 41 be 47 72 d3 3d
       0.46670607 -0.2570098 -0.18907966 0.10324531
000010 70 3f db bd 38 ee da 3c df 1d 92 3e 6f e2 a9 3d
       -0.10705459 0.02672492 0.28538415 0.08295142
000020 03 cb 2d 3c eb ae c5 3e a6 2f 89 bc 40 63 e4 3b
       0.010607484 0.38610014 -0.016746353 0.0069698393
000030 66 0d de bc 07 5c ee bd 76 8d af bd c9 0a 98 bd
       -0.027105998 -0.116386466 -0.085719034 -0.07423932
000040 55 64 5d 3d 3b 44 9f bd ab 08 31 be fc 2a 02 3e
       0.054050762 -0.07776686 -0.17288463 0.1271171
000050 32 5a df bd de f2 1c 3d b8 92 c7 bd a3 97 43 3c
       -0.10905875 0.038317554 -0.09744781 0.0119380085
000060 03 42 22 3e dd d7 34 bd 8f 54 19 bd 9c 47 df 3d
       0.15845494 -0.044151176 -0.037434157 0.1090233
000070 2b 2d d7 3d 38 54 0b bc 8b ce fc bd 2e cc b1 3b
       0.10506662 -0.008503966 -0.123440824 0.0054259514
000080 b2 35 6b 3d 70 71 8b bc 41 6d 7e 3d 65 fd dc 3d
       0.057424255 -0.017021865 0.06211591 0.10790519
000090 bb 9f b2 3e f3 35 c8 bd d8 39 85 3c 06 a0 ab 3c
       0.3488749 -0.09775915 0.016262934 0.020950329
0000a0 90 da 11 be 3c b6 29 be ad e3 52 be 18 f1 76 3e
       -0.14243531 -0.16573423 -0.20594664 0.24115407
0000b0 ac 66 74 ba 75 9c 7a 3d 7d bf ff bd cb e7 fe bc
       -0.00093231606 0.061184365 -0.12487695 -0.031116387
0000c0 09 7e 41 3b 02 3b e9 3c 20 e9 17 be 2b fe 58 bd
       0.0029524586 0.02847052 -0.14835024 -0.05297677
0000d0 16 56 0a bd af 8c 1a be 15 81 57 3c 21 dd 5f bd
       -0.033773504 -0.15092729 0.013153334 -0.054654244
0000e0 b0 32 cb bc 88 72 91 3b d6 0f 96 3d 74 7a 1a 3e
       -0.024804443 0.004438702 0.07327239 0.15085775
0000f0 29 d6 ef bd ca b2 d5 bd e6 50 33 be 4e 8f 35 3e
       -0.1171077 -0.10434492 -0.17511329 0.17730448
